src/t1dsim_ai/models/IndividualModel/T1DEXI-01-0692/individual_model.pt (torch, 50089 bytes, 7 tensors)

net_model.0.weight f4 [128, 10]
00000000: 643b 06bd bfb1 123d 6594 f2bc 7a1d bebc
00000010: 887a 8a3c 6dca 1eb8 751f 6739 40df beba
00000020: 32c5 2bbb bb24 a43a be0d 07bd efc6 123d
00000030: 4cb0 f2bc 28ba bebc 10f2 8a3c ce71 41b9
00000040: 42fd b338 ebc5 bdba 6c7a 22bb 5dce a13a
00000050: d1f6 05bd e693 133d cb8a f3bc cfcb bdbc
00000060: 7519 8b3c 1eb3 8837 5dd9 1539 d61c c6ba
00000070: e9b2 2cbb 23bd a53a 0223 06bd 4cfd 123d
00000080: 7260 f3bc 2d17 bdbc fb76 8a3c 0eda bdb8
00000090: faf3 8839 8d7c c4ba 81f9 27bb b7cc 953a
000000a0: a357 06bd bb71 123d c42b f4bc d083 bebc
000000b0: 7a20 8a3c 774c 15b9 8273 8839 6b64 b3ba
000000c0: c518 2bbb 12ec a83a c89e 06bd c363 133d
000000d0: 91fe f2bc 4291 bebc 423c 8a3c c696 dfb8
000000e0: 5293 e638 afbf bfba 7f34 22bb 2f0b 973a
000000f0: 4166 5dbd a9b8 153d a5e9 e0bc 798c cbbc
00000100: d499 4f3c 45ef c6bb 1491 1bbc 1b41 3a3b
00000110: d488 0f3c aa38 453b 0f38 76bd d974 0f3d
00000120: 45ab ebbc 7d48 d7bc e8f6 d03c 8251 7bbc
00000130: f88e c6bc 6267 4dba b31a 783c 788f 2e3b
00000140: a5db 07bd 1809 153d 322d f2bc 8453 bbbc
00000150: 91eb 883c 935d 0038 a9c5 9937 fb1a fbba
00000160: 5868 15bb 9484 633a 93a4 68bd c418 113d
00000170: 913a ecbc 5f5c cdbc 346a c03c c32e 1fbc
00000180: 8d16 90bc 14d5 0cbb d778 4c3c 90a2 8e3b
00000190: 0bb4 4cbd 25bb 143d a675 e6bc b416 cbbc
000001a0: 51b0 873c 3135 08bc c905 c1bb 93b4 92ba
000001b0: f749 c23b 4566 00bb d490 39bd 1adb 153d
000001c0: 2222 07bd c56d d0bc 1398 653c 4f04 953c
000001d0: 884b b8bc b77b 893b 27f8 ae3c b2f7 e9bc
000001e0: 3b96 06bd 5980 133d 4fc8 f2bc 596f bdbc
000001f0: 00cb 8a3c 7644 2db8 9e87 4339 9efd cdba
00000200: 4f39 26bb 782f 993a a731 06bd b3eb 123d
00000210: a074 f3bc aa3d bebc f60d 8b3c 00d6 cdb8
00000220: 9d74 3e39 b4a5 c1ba b03a 28bb 5616 a03a
00000230: a9a9 06bd 6f88 143d 5639 f2bc 4cc2 bbbc
00000240: db1a 893c 5c4e c337 153a d638 951e e6ba
00000250: 8cc8 1bbb 8c98 883a 3399 06bd 0346 133d
00000260: 885d f3bc 6ca5 bebc 0583 893c d824 30b9
00000270: 0188 7939 6d95 cfba 414e 21bb 68e2 953a
00000280: 5197 06bd 6039 143d a4be f1bc 1028 bdbc
00000290: 973b 8a3c f41c 5237 7af6 fb38 8093 dfba
000002a0: f2f1 1fbb 7733 843a 7249 07bd eaa0 143d
000002b0: 71f3 f2bc 1bcc bcbc 14b7 883c 8092 d0b4
000002c0: 40c5 0e39 8b0f e6ba fc8d 19bb 6560 893a
000002d0: 98ed 07bd 5790 143d d3ca f1bc a4a2 bbbc
000002e0: 4eb7 893c 6ca0 7237 1cce 7f37 a3f1 ecba
000002f0: 5be7 13bb e1b8 5c3a 0eae 0ebd 99cc 173d
00000300: 1a10 f1bc aa64 b8bc 2543 873c 889c c8b8
00000310: 373b b2b8 fd51 32bb 677f e8ba c350 153a
00000320: 3cf1 06bd c0b2 143d 7681 f2bc 1276 bcbc
00000330: f295 893c c9b2 0138 38fc 0937 44e9 efba
00000340: cdb4 1cbb 3cf5 813a ad10 4ebd aa8e 0f3d
00000350: eef8 ebbc b748 cebc 803f 7d3c dadb 34bc
00000360: 36b8 323b a796 c8ba 61c5 a23b 900e a2bb
00000370: c37f 08bd ac6a 143d 00db f1bc d85d bcbc
00000380: 55e0 883c 124f 3eb9 eef2 a537 3c8c e2ba
00000390: d815 08bb 24c5 7a3a 54bd 06bd a791 143d
000003a0: a345 f2bc 08d4 bbbc 78fa 883c 4e81 ba37
000003b0: 8c80 d538 66e1 eeba 5b27 1abb 2c9d 843a
000003c0: a3b7 37bd cbe5 143d 62f6 08bd 69e4 d0bc
000003d0: 9515 4c3c 9178 af3c 3482 c5bc e938 953b
000003e0: c773 b73c 0eef debc ac76 06bd 33fa 123d
000003f0: 145c f3bc e1ed bdbc 7982 8a3c 56f8 17b9
-0.032771483 0.035814043 -0.029611776 -0.023207415 0.01690413 -3.785866e-05 0.00022041595 -0.0014562383
-0.0026210067 0.0012523154 -0.03297209 0.03583425 -0.02962508 -0.023282126 0.016961128 -0.0001844831
8.582558e-05 -0.001447854 -0.0024792207 0.0012344826 -0.032706086 0.03602972 -0.029729268 -0.023168473
0.016979912 1.6295871e-05 0.00014290721 -0.0015114795 -0.0026351756 0.0012644868 -0.03274823 0.035886094
-0.029709075 -0.02308234 0.016902437 -9.052838e-05 0.00026121718 -0.0014990732 -0.0025630894 0.0011428808
-0.03279842 0.035752993 -0.029806025 -0.023256212 0.01686119 -0.00014238233 0.00026026 -0.0013686543
-0.0026107293 0.0012887737 -0.03286627 0.035983812 -0.029662402 -0.023262624 0.016874436 -0.000106615524
0.00010994695 -0.001462927 -0.0024750528 0.0011523719 -0.054052595 0.03655306 -0.02745516 -0.024847256
0.012670953 -0.0060710036 -0.009495039 0.0028420154 0.00876065 0.003009359 -0.060112055 0.035023544
-0.028768191 -0.026279682 0.02550836 -0.015339257 -0.024238095 -0.00078355346 0.015143084 0.0026635807
-0.033168454 0.036385626 -0.029562566 -0.022866972 0.01671389 3.0604726e-05 1.8331064e-05 -0.0019157821
-0.002279779 0.00086791185 -0.056797575 0.03542401 -0.02883652 -0.02506846 0.023488142 -0.009715739
-0.017588878 -0.002148931 0.012479982 0.004352875 -0.04997639 0.036311287 -0.028132271 -0.0247911
0.016563566 -0.008313463 -0.005890582 -0.0011192731 0.0059292275 -0.0019592207 -0.045304134 0.036585905
-0.032991536 -0.025442967 0.014013308 0.018190531 -0.022496954 0.004195656 0.021358563 -0.028560493
-0.032858115 0.036011074 -0.02963653 -0.023124384 0.016942501 -4.1310173e-05 0.0001864717 -0.0015715843
-0.0025363748 0.001168712 -0.032762196 0.03586931 -0.029718697 -0.023222763 0.01697443 -9.815022e-05
0.00018163254 -0.0014774115 -0.0025669746 0.0012213688 -0.032876644 0.036262926 -0.029568356 -0.022919796
0.016736438 2.32823e-05 0.00010215134 -0.0017556722 -0.0023770658 0.0010421439 -0.032860946 0.03595544
-0.029707685 -0.023272239 0.016786108 -0.00016798393 0.00023797156 -0.0015837379 -0.0024613293 0.0011435272
-0.03285915 0.03618753 -0.02950985 -0.023090392 0.016874118 1.2523717e-05 0.000120145225 -0.0017057508
-0.0024405685 0.0010086138 -0.033029027 0.036286272 -0.029657098 -0.023046544 0.016688861 -3.8849612e-07
0.00013615657 -0.001755224 -0.0023430577 0.0010480998 -0.03318557 0.036270466 -0.02951566 -0.022904702
0.01681104 1.4461675e-05 1.5247173e-05 -0.0018077384 -0.0022568319 0.0008419883 -0.03483396 0.037060354
-0.029426623 -0.022508938 0.01651151 -9.5658994e-05 -8.498731e-05 -0.0027209513 -0.0017738164 0.00056959334
-0.032944903 0.03630328 -0.029602747 -0.023005519 0.016795132 3.0922503e-05 8.224561e-06 -0.0018303772
-0.0023911477 0.0009915004 -0.050308872 0.035048164 -0.028805222 -0.025181158 0.015457034 -0.011038745
0.0027270443 -0.0015303687 0.004967377 -0.0049455836 -0.033324968 0.036234543 -0.029523373 -0.022993967
0.016708532 -0.00018149268 1.9782656e-05 -0.0017284225 -0.0020764973 0.00095661194 -0.0328954 0.036271717
-0.029574221 -0.022928253 0.016720995 2.223314e-05 0.00010180575 -0.0018225133 -0.0023521993 0.0010117642
-0.044852864 0.03635196 -0.033438094 -0.02549954 0.012456317 0.021419795 -0.024109937 0.0045539034
0.022394074 -0.0272136 -0.032828018 0.03588314 -0.029706992 -0.023184719 0.016907917 -0.00014492995

net_model.0.bias f4 [128]
00000000: 27a6 d03a a23c ce3a c667 d03a 1286 ca3a
00000010: 40cf cf3a 8879 cc3a 17b0 1ebb 8c3b 083b
00000020: 8be0 a23a b1ee 903a 90be f4b9 a376 7a3b
00000030: cede c73a 85a8 cc3a b682 b33a 3cd8 c33a
00000040: 2be5 ba3a 29cc ae3a c93a a43a 9c40 853a
00000050: 6808 b03a 0e23 b639 0490 a63a eab6 ab3a
00000060: 9da0 8f3b 4ee9 cf3a b227 c33a 1ede b63a
00000070: c114 d23a 580f c33a 3cdf d43a 98c2 cc3a
00000080: af59 a03a d549 b83a 1e7f b03a f4fd d33a
00000090: d40f d63a 3476 be3a c394 af3a 76de 73ba
000000a0: 90c5 4b3a 3d17 873a b1ae c53a d92f cf3a
000000b0: d7ae bd3a f37d bc3a f38f c23a 4bd5 9a3a
000000c0: 364d ac3a 4a1d c13a 1a04 a83a c32d d13a
000000d0: b889 343c fad7 a33a 48cc 2cbb 3b19 a33a
000000e0: 83d2 3bbb 2f10 953a da86 a23a 3bb9 c53a
000000f0: 10a0 bd3a 185d bf3a 9826 9039 492d b73a
00000100: 96f9 973a 25e5 a13b a4b3 cb3a 49fc cc3a
00000110: 50b6 c63a 11d1 c33a d6a0 c03a a7c2 cc3a
00000120: 4ad7 d33a dfb3 c33a 87a8 c83a 36e7 af3a
00000130: f94f 4c3a 75f6 ba3a 4c71 bd3a 6ec9 a03a
00000140: c4a3 b23a cd0a c2ba bdc8 a23a f818 b93a
00000150: 7f36 bc3a 02c3 ac3a 5e8a 0339 db69 9a3a
00000160: 02ab d63a 6cea b33a f96b be3a 1250 a53a
00000170: f9ed c73a ce11 ce3a bd7b c83a d68e ca3a
00000180: 367c f4ba ba83 9c3a e5a7 ca3a ba2c b53a
00000190: e0aa 0bba aff6 76ba ca21 303c 2868 b13a
000001a0: 2072 cf3a 840f cd3a 3d37 fdba 7ad7 ae3a
000001b0: 7ade b83a 6950 cd3a d807 a33a 92a6 d23a
000001c0: 2cc6 52bb 152c c13a a790 c13a 1c10 a63a
000001d0: 4de8 a93a 874e ae3a db06 d13a 9672 93ba
000001e0: 95b7 603a e9b8 a93a 6e50 a73a 5d5a ca3a
000001f0: 5e2a b33a 78cc cf3a 19ff c73a 13fe bc3a
0.0015918658 0.0015734623 0.0015900068 0.0015451333 0.0015854612 0.0015600184 -0.0024213844 0.0020787446
0.0012426538 0.0011057464 -0.00046681287 0.0038217686 0.0015248896 0.0015614188 0.0013695571 0.0014941762
0.0014258971 0.0013335991 0.0012529726 0.001016635 0.001343024 0.00034739863 0.0012707715 0.0013100777
0.0043831603 0.0015862377 0.001488915 0.0013951694 0.0016027914 0.0014881892 0.0016240845 0.0015621958
0.0012233759 0.001406009 0.0013465618 0.0016173706 0.0016331621 0.0014531077 0.0013395775 -0.00093028636
0.00077732746 0.0010306608 0.0015081969 0.0015807106 0.0014471662 0.0014380798 0.0014843926 0.0011812834
0.0013145569 0.001473346 0.0012818605 0.0015959073 0.011019163 0.0012500279 -0.0026366878 0.0012443432
-0.002865941 0.0011372621 0.0012399808 0.001508511 0.0014467258 0.0014599888 0.00027494575 0.0013975288
0.0011594768 0.0049406462 0.0015541208 0.0015639152 0.0015160535 0.0014939626 0.001469637 0.0015621976
0.0016162184 0.0014930925 0.0015309014 0.0013420347 0.0007793899 0.0014264124 0.0014453321 0.0012267062
0.0013629128 -0.0014804244 0.0012419444 0.0014121821 0.0014359503 0.0013180675 0.0001254468 0.0011780815
0.0016377869 0.0013726479 0.0014528028 0.0012612364 0.0015253416 0.0015721859 0.0015295666 0.0015453945
-0.001865274 0.0011941113 0.0015461413 0.0013822534 -0.00053278916 -0.0009420914 0.010750243 0.0013535069
0.0015826859 0.0015644883 -0.001931883 0.0013339364 0.0014104389 0.0015664223 0.0012438251 0.001607137
-0.0032161577 0.0014737869 0.0014767841 0.0012669596 0.0012962908 0.001329855 0.0015947478 -0.0011249359
0.0008572278 0.0012948784 0.0012765059 0.0015438307 0.0013669243 0.0015853783 0.001525852 0.0014418982

net_model.2.weight f4 [64, 128]
00000000: 4aa0 093d 589a 093d fdce 0a3d 4622 0a3d
00000010: 444d 093d 03ce 0a3d 9e76 643d 024c 8a3d
00000020: d673 0f3d a775 7e3d 2a15 543d 2e11 923d
00000030: 8b42 0b3d a426 0a3d 865a 0d3d a0f0 0a3d
00000040: 0ed6 0c3d 60ec 0d3d f688 0e3d 5cc3 193d
00000050: ccc3 0d3d 7ac0 4f3d 9956 0e3d b0ee 0d3d
00000060: c6e2 933d f5e9 093d aca8 0b3d b519 0d3d
00000070: b088 093d 5067 0a3d bfc7 083d 64d2 093d
00000080: 707f 0f3d 13b8 0c3d 3c0a 0e3d c7ca 093d
00000090: 709d 083d b973 0c3d a7be 0c3d 53d3 3a3d
000000a0: 5d6d 1b3d f657 143d b48e 0b3d 963b 0a3d
000000b0: 3ca8 0b3d 2145 0c3d 49bc 0b3d 6672 103d
000000c0: a22b 0e3d ec36 0b3d 4e34 0e3d bc42 093d
000000d0: ca2b edbd a49e 0e3d 0669 693d 8aa7 0f3d
000000e0: 149f 643d 2690 113d f466 0f3d 426f 0b3d
000000f0: 3a21 0d3d c985 0c3d f56f 1e3d 31b2 0c3d
00000100: 3b86 113d 9bfe 973d d77c 0a3d 59b1 0a3d
00000110: c9ec 0a3d 0af4 0a3d c344 0b3d d084 093d
00000120: 8536 0a3d b057 0b3d ff86 0a3d 3277 0d3d
00000130: fe9c 773d ebbc 0b3d 12f0 0b3d d3d4 0f3d
00000140: 03e6 0d3d b9b3 263d 2bd4 0e3d 6d47 0c3d
00000150: 5bdd 0c3d 92aa 0d3d 5986 4e3d 1338 103d
00000160: 2427 093d 3f4c 0d3d 850a 0c3d 204b 0e3d
00000170: acdc 0a3d 162b 0a3d 6d5a 0a3d 3dc9 0a3d
00000180: 2ace 633d 29ca 103d 7c65 0a3d 9dd6 0c3d
00000190: dff2 553d 9c37 463d 6bc8 c2bd cbc3 0d3d
000001a0: a466 093d 28de 093d cff1 4d3d bd16 0e3d
000001b0: 60ff 0c3d 9161 0a3d 7f7e 0e3d ecee 083d
000001c0: 7ed1 663d cda2 0a3d 5cb4 0b3d 11a8 0e3d
000001d0: 13e0 0d3d 3a00 0d3d 8d6b 0a3d 2965 3f3d
000001e0: ea89 1a3d 382a 0e3d fd18 0e3d 3844 0a3d
000001f0: 4804 0e3d d78c 093d bf54 0b3d fdb3 0b3d
00000200: ba2d fc3c 1836 fd3c 6bf2 fe3c b0e1 fd3c
00000210: aed6 fa3c 254a ff3c fc6f 673d ebeb 8f3d
00000220: 08b6 053d 7c23 833d 748d 553d 1865 953d
00000230: 0f18 003d df2f fd3c 5928 033d 2cac ff3c
00000240: 8538 023d 94a0 033d 36d0 043d b4c4 133d
00000250: c7d3 033d 988b 4f3d 6570 043d faad 033d
00000260: d636 973d 163c fd3c aaae 003d 0991 023d
00000270: 01c9 fb3c 64e8 fe3c 4616 fb3c 1b4b fc3c
00000280: 879b 053d 5e8c 023d 5ff0 033d 5da9 fc3c
00000290: ef0a f93c bed5 013d d4e3 013d c87a 383d
000002a0: 281f 163d bb35 0c3d 3f82 003d f450 fe3c
000002b0: 2af5 003d fa3f 013d 64e9 003d aeed 063d
000002c0: 760d 043d c10d 003d 3d37 043d e764 fb3c
000002d0: 8efb e6bd 2b62 043d 87f9 6d3d e815 063d
000002e0: 62dc 673d 7ea9 083d 84b1 053d 2866 003d
000002f0: ee48 023d 0012 023d 7419 1a3d 6d6d 023d
00000300: 1999 083d fb63 9b3d 070b fe3c 98d1 fe3c
00000310: 5a77 ff3c 7266 ff3c 2b5c 003d 53e1 fb3c
00000320: 6a03 fd3c c9b8 003d 9b03 ff3c 0e01 033d
00000330: b57f 7f3d 313d 013d c235 013d f23d 063d
00000340: c188 033d b9b3 223d 181e 053d 21bd 013d
00000350: aa3b 023d 1483 033d f346 4e3d 06b0 063d
00000360: 6943 fb3c 5517 033d 4159 013d 195d 043d
00000370: ee9f fe3c 3144 fc3c e2ed fd3c 3d5b ff3c
00000380: b4f8 663d 2674 073d e608 fe3c 7d8b 023d
00000390: 2a00 553d f6e1 443d a9e6 bebd cb43 033d
000003a0: 2b02 fc3c 612b fc3c ffb7 4e3d 0fe5 033d
000003b0: 7a63 023d 4ab1 fe3c 143c 043d 9f92 fa3c
000003c0: ca0d 683d e6b5 fe3c 90bc 003d cac8 043d
000003d0: c1bf 033d 56a5 023d c714 ff3c 4879 3d3d
000003e0: d2da 143d 4b2a 043d c720 043d ddaa fd3c
000003f0: be39 043d 3309 fd3c 743e 003d c8cc 003d
0.03360013 0.03359446 0.033888806 0.033724092 0.033520952 0.033887874 0.055777185 0.067527786
0.03502258 0.06212392 0.051777996 0.07132183 0.033999007 0.033728257 0.034510158 0.033920884
0.034383826 0.034649253 0.034798585 0.037539825 0.034610555 0.05072067 0.034750555 0.03465146
0.07220988 0.033670384 0.034096405 0.034448344 0.03357762 0.033789933 0.033393618 0.03364791
0.035033643 0.034355234 0.03467773 0.03364065 0.03335327 0.03429005 0.034361508 0.04561169
0.037946094 0.0362167 0.03407164 0.03374823 0.034095988 0.034245614 0.03411511 0.03526535
0.03470958 0.033987924 0.03471785 0.03351091 -0.11580618 0.03481926 0.056984924 0.035071887
0.05581577 0.03553786 0.035010293 0.03404165 0.034455515 0.034307275 0.03868099 0.034349624
0.035528403 0.07421609 0.033810463 0.03386054 0.033917222 0.03392414 0.034001123 0.033573925
0.0337434 0.034019172 0.03382015 0.0345375 0.060452454 0.034115713 0.034164496 0.035115074
0.034643184 0.04069874 0.034870308 0.034247804 0.03439079 0.034586497 0.050421093 0.035209727
0.033484593 0.034496542 0.03418972 0.034739614 0.033901855 0.033732496 0.033777643 0.033883322
0.055616535 0.035349045 0.03378819 0.03438436 0.052233573 0.048392877 -0.09510883 0.03461055
0.03354515 0.03365913 0.050279435 0.034689654 0.034423232 0.033784453 0.034788605 0.03343098
0.05635213 0.033846665 0.03410755 0.03482825 0.034637522 0.034424044 0.033793975 0.046727333
0.03772918 0.03470823 0.0346918 0.033756465 0.03467205 0.03358158 0.034016367 0.034107197
0.030783523 0.030909583 0.031121453 0.030991405 0.030619945 0.031163285 0.05650328 0.0702742
0.0326443 0.064032525 0.052136853 0.07294673 0.031272944 0.030906616 0.0320209 0.031210028
0.031792182 0.03213556 0.032425128 0.036076263 0.03218439 0.050670236 0.03233375 0.03214834
0.07383506 0.03091244 0.031416573 0.031876598 0.030735495 0.031116672 0.03065027 0.030797532
0.032619026 0.031872146 0.032211658 0.030842477 0.030400721 0.03169798 0.031711414 0.04503897
0.036650807 0.03423093 0.031374212 0.03104446 0.031483807 0.031555153 0.03147258 0.032941513
0.0322394 0.031263117 0.03227924 0.030687762 -0.11278449 0.032320183 0.058099296 0.032735735
0.056606658 0.033364765 0.032639995 0.031347424 0.031807832 0.031755447 0.03762193 0.031842638
0.03334913 0.07587429 0.031011118 0.031105801 0.031184841 0.03117678 0.0313379 0.030747091
0.030885417 0.031426225 0.031129649 0.031983428 0.06237765 0.031552497 0.031545408 0.03277392
0.03211284 0.039722178 0.032499403 0.031674508 0.03179518 0.032107428 0.05036063 0.032882713
0.030671792 0.032004673 0.03157926 0.032315347 0.03108212 0.030794235 0.03099722 0.031171435
0.056389526 0.033069752 0.031010102 0.031871308 0.05200211 0.048067056 -0.09321339 0.032047074
0.030762753 0.030782403 0.05046844 0.03220087 0.03183315 0.031090397 0.032283857 0.030587493
0.056653775 0.031092595 0.031429827 0.03241805 0.032165293 0.031895958 0.031137837 0.04625824
0.036341496 0.032266896 0.03225782 0.030965263 0.03228163 0.030888176 0.03130956 0.031445295

net_model.2.bias f4 [64]
00000000: b850 6fba 4bbf 8dbb 2d5f 88ba 96a3 74ba
00000010: 0fc0 75bb 825f ceb9 6759 79ba 7635 87ba
00000020: c28f adb2 2a11 0ab8 db9e fd3c b2e8 6cba
00000030: 618e feba d75f 71ba 3367 80ba 3f69 82ba
00000040: 885d 003d 32f4 7aba c9ce 6db9 e638 40bb
00000050: fbb7 68ba c27b 1b3d fa77 68ba 69a1 72ba
00000060: c0d9 dbba b21d fb3c 8001 383d e310 91b8
00000070: cb76 893c 1533 ff3c 940e 1ead 3424 6eba
00000080: f953 6fba ca4d 24b7 2970 6fba 13a7 76ba
00000090: c070 adb9 8536 75ba 4733 46bb c76b 57bb
000000a0: 57e2 6eba f3dc 50b9 c436 bd3b 5875 69ba
000000b0: b8eb 6cba a94f 84ba 795a 6fba 4ea3 233d
000000c0: 980a 78ba fc9d 6dba f586 77bb ee99 6fba
000000d0: ce07 fa3c fdf8 6cba db9a 7bba 8c09 82bb
000000e0: 01c4 04a9 020b 70ba 8def deba 1d25 6dba
000000f0: 8f5b 69ba dae8 6eba f3de d48d 1b0c 8dbb
-0.00091291545 -0.0043257824 -0.0010404341 -0.00093322375 -0.003749851 -0.0003936254 -0.0009511918 -0.0010315615
-2.0205224e-08 -3.291775e-05 0.030959537 -0.000903736 -0.0019421094 -0.00092077017 -0.0009796381 -0.0009949579
0.0313392 -0.0009573131 -0.00022679115 -0.002933079 -0.0008877513 0.03795982 -0.00088679756 -0.00092556194
-0.0016773269 0.030653808 0.044923306 -6.917284e-05 0.016780278 0.031152287 -8.984497e-12 -0.0009084374
-0.00091296394 -9.793273e-06 -0.00091338396 -0.0009409051 -0.00033081137 -0.00093541323 -0.0030242966 -0.0032870637
-0.0009112707 -0.00019918736 0.005774351 -0.000890573 -0.00090378104 -0.0010094541 -0.0009130608 0.03995066
-0.0009462028 -0.0009064374 -0.003776965 -0.0009140064 0.0305213 -0.00090397877 -0.00095979654 -0.003968423
-2.9479894e-14 -0.0009156914 -0.0017008648 -0.0009046363 -0.0008901888 -0.0009113677 -1.3119182e-30 -0.0043044216

net_model.4.weight f4 [32, 64]
00000000: d507 263d a52b 253d 7f0d 273d b0e8 253d
00000010: 3177 3dbb 4f98 d639 d4fc 253d b6fc 253d
00000020: b87f 4a00 1616 21a8 861b 67bd 45bb 253d
00000030: e2f1 7db2 9d82 253d 386b 263d 0e52 263d
00000040: 05c9 68bd e5f9 253d e5b5 b338 f092 0eba
00000050: 63f4 253d 3c2c 7bbd 2af5 253d 6e8d 253d
00000060: 2598 812d 6508 80bd e358 8cbd 7e54 3ca0
00000070: 5115 0cbd d6b3 71bd 3936 008a 684b 253d
00000080: 48df 253d ca7f ee0d e077 253d ca79 263d
00000090: a4aa c330 be19 263d fa7f b9b9 3462 243d
000000a0: be67 253d ff73 9332 b709 dbbc 9de5 253d
000000b0: cf12 e833 6313 263d e68d 253d 071f 82bd
000000c0: 30e9 253d ec50 263d 6b67 1e3d 517b 253d
000000d0: caaa 6fbd 2558 253d b816 263d a234 243d
000000e0: 122c 8602 fde9 243d 3df1 603a 3c90 253d
000000f0: d9ed 253d e02b 263d 30f2 0107 1a12 253d
00000100: b5af 1202 dcdd 6803 b2ea b301 4315 3983
00000110: ae14 2603 a1f1 1b83 dba0 b982 aa3a 2c82
00000120: ca5c 4503 7139 2783 4a85 2703 f24e 4603
00000130: b51e 4f83 d017 1f02 1390 2a83 ba5a e002
00000140: 3e62 0c83 b1cc 2203 f4c5 4883 d6a1 4283
00000150: 46e7 2203 ca1f c482 01c0 2b03 f4dd 1982
00000160: 1217 2e03 d8df 2383 a8d0 2b03 a47f 0f03
00000170: 08ab 5d82 089d 9781 af36 1583 6970 2d03
00000180: b05e 3783 274a 4403 7cfe 4903 4a60 e681
00000190: 5236 0983 56e6 6183 f96f 2703 48f2 da02
000001a0: 78e3 4003 8a74 4783 cab9 4603 ec8a 0783
000001b0: 8527 9482 390a ca82 7060 1800 806e 4983
000001c0: c8df 3a03 f0e9 6303 be68 3503 8150 0d83
000001d0: 6a2e 3203 bde1 3b83 0496 1d03 1df4 1283
000001e0: 9533 c702 ba5e 5a03 8e18 fa82 e96b 3a83
000001f0: 18c3 5783 6805 4603 3657 3083 8635 5283
00000200: 9a9a 4003 58c5 a902 0c1c fb82 e268 eb02
00000210: 5662 2283 6c17 4983 1276 3303 9c5f 2c03
00000220: cf6c 0703 6431 1683 78e8 eb82 908c 1883
00000230: 64e8 1383 2e05 0483 940d 9682 da9c 5e83
00000240: 0bf2 4b03 0398 2e83 1ef8 1b03 589c 5603
00000250: e103 5503 1a5c 0c83 cf9f 0003 1650 2603
00000260: 6bde 2883 b9d6 4a03 0e96 1583 f929 2603
00000270: bc5f 3903 ac4a 1483 4857 3d83 6e46 2102
00000280: 24d4 4283 e793 0383 1c04 4803 8064 3203
00000290: ecf8 6a02 6c1c 1503 8696 2b03 8572 2303
000002a0: 3b5b 1e03 6b07 3d83 f23a a482 2ec8 0f03
000002b0: 961c c201 280d 7982 2744 1303 b688 3703
000002c0: 3f76 4683 6a6a d002 66c7 3002 4f03 e482
000002d0: a036 9c80 22e5 2403 6951 2903 30d8 9882
000002e0: e22f 1f83 c443 4d83 8570 3a03 958c f482
000002f0: 6490 4703 8415 2f83 24cb 2483 19b4 0d03
00000300: acf2 1103 a0a6 4083 df52 3503 fe3b 2a83
00000310: 3f8f d482 3d80 6b83 ebbb 6c83 a4f0 d302
00000320: 6240 0d03 033f 0783 6bd2 0803 6ea2 3f83
00000330: b95b 1d83 7861 4883 2979 1b02 2db8 6003
00000340: f649 c102 6e27 3703 4959 4583 6b93 8e02
00000350: 7025 6a83 88d1 fd82 6cd4 2e83 1532 2603
00000360: f932 b482 d405 0903 322c 5f83 e624 3103
00000370: a0cd 2383 7ac7 3f83 3640 0e83 2a30 0703
00000380: 0815 5d03 dda3 3783 824b e482 5654 1d03
00000390: 588e 5e03 6075 5803 bc42 1703 34e1 4e83
000003a0: f922 6a03 5f8a 4d03 9dc3 4b03 9524 5103
000003b0: be0b 3782 2171 4a82 fa43 4c83 1265 3603
000003c0: 6433 9801 387c 2603 834f 6a83 86d0 1303
000003d0: 63aa 0c83 a66b 4283 b5a6 1582 7ef0 f882
000003e0: ce3c 2403 a094 1a00 20ed 4b83 9ebb 0203
000003f0: b90f 4383 e0c1 4283 afdd 3183 9e6c 6283
0.040534813 0.040324826 0.040784355 0.04050511 -0.0028910155 0.0004093074 0.04052432 0.040524207
6.841644e-39 -8.9420845e-15 -0.056422733 0.040461797 -1.4781536e-08 0.040407766 0.040629596 0.040605597
-0.056832332 0.04052152 8.5692656e-05 -0.00054387655 0.04051627 -0.061321482 0.04051701 0.04041808
1.4733168e-11 -0.06251601 -0.06852891 -1.5952176e-19 -0.034200016 -0.059009396 -6.173174e-33 0.040355116
0.04049614 1.4698647e-30 0.040397525 0.04064349 1.4236616e-09 0.040551893 -0.000353813 0.040132716
0.04038214 1.7165801e-08 -0.02673803 0.04050218 1.0806763e-07 0.040545832 0.040418528 -0.06353574
0.040505588 0.040604517 0.038672846 0.040400807 -0.058512487 0.040367264 0.04054901 0.040089257
1.9714825e-37 0.04026221 0.0008580869 0.040420756 0.040510032 0.040569186 9.776054e-35 0.040300466
1.0776811e-37 6.8433354e-37 6.6090987e-38 -5.439102e-37 4.8806755e-37 -4.5827782e-37 -2.7275633e-37 -1.26534e-37
5.7999613e-37 -4.914283e-37 4.9229897e-37 5.8277595e-37 -6.0867083e-37 1.1688309e-37 -5.01239e-37 3.2965916e-37
-4.125508e-37 4.7842495e-37 -5.9001957e-37 -5.7197255e-37 4.787301e-37 -2.8817858e-37 5.0472793e-37 -1.1304362e-37
5.1160488e-37 -4.8158355e-37 5.049191e-37 4.2170447e-37 -1.6285599e-37 -5.569397e-38 -4.384994e-37 5.096917e-37
-5.3887562e-37 5.7684346e-37 5.9360725e-37 -8.4626824e-38 -4.032304e-37 -6.638597e-37 4.9205427e-37 3.2171284e-37
5.668485e-37 -5.8614624e-37 5.8400246e-37 -3.983241e-37 -2.1769329e-37 -2.96871e-37 2.238647e-39 -5.919544e-37
5.4917376e-37 6.697785e-37 5.3311358e-37 -4.152859e-37 5.236278e-37 -5.5213496e-37 4.6310363e-37 -4.318577e-37
2.9270029e-37 6.4173183e-37 -3.6748292e-37 -5.478436e-37 -6.340678e-37 5.8193176e-37 -5.1821865e-37 -6.1774895e-37
5.6601203e-37 2.4945588e-37 -3.6897233e-37 3.4590346e-37 -4.7720405e-37 -5.909548e-37 5.273891e-37 5.065601e-37
3.979784e-37 -4.4137736e-37 -3.4663577e-37 -4.4830143e-37 -4.346619e-37 -3.879726e-37 -2.2048313e-37 -6.5419993e-37
5.993419e-37 -5.1308505e-37 4.583523e-37 6.306842e-37 6.2599527e-37 -4.124803e-37 3.779927e-37 4.887495e-37
-4.9626086e-37 5.9608954e-37 -4.395942e-37 4.88312e-37 5.447651e-37 -4.357901e-37 -5.56423e-37 1.1848624e-37
-5.7255e-37 -3.8667224e-37 5.8779435e-37 5.2424867e-37 1.7263042e-37 4.381979e-37 5.0425176e-37 4.8032857e-37
4.6536754e-37 -5.5550623e-37 -2.4131467e-37 4.225372e-37 7.1305364e-38 -1.8297406e-37 4.3277652e-37 5.3935803e-37
-5.832271e-37 3.0623932e-37 1.2987662e-37 -3.3503488e-37 -1.4345933e-38 4.84583e-37 4.975809e-37 -2.2458478e-37
-4.6780867e-37 -6.0321877e-37 5.4789653e-37 -3.5933268e-37 5.8646596e-37 -5.1452577e-37 -4.8428462e-37 4.164292e-37
4.2890244e-37 -5.6615005e-37 5.328625e-37 -5.0027378e-37 -3.123282e-37 -6.9207503e-37 -6.9569886e-37 3.1141784e-37
4.1510084e-37 -3.974527e-37 4.0208356e-37 -5.6316315e-37 -4.6243446e-37 -5.8886606e-37 1.1422373e-37 6.6039107e-37
2.8401253e-37 5.382413e-37 -5.799559e-37 2.0949638e-37 -6.8809396e-37 -3.7295274e-37 -5.1377853e-37 4.8840507e-37
-2.647788e-37 4.026737e-37 -6.5584544e-37 5.2057982e-37 -4.813744e-37 -5.6358843e-37 -4.180376e-37 3.9728224e-37
6.4970206e-37 -5.3966972e-37 -3.3544928e-37 4.6234966e-37 6.540334e-37 6.3611435e-37 4.445152e-37 -6.079648e-37
6.8806566e-37 6.0402928e-37 5.988089e-37 6.1461574e-37 -1.3448086e-37 -1.4873083e-37 -6.0028245e-37 5.3601016e-37
5.5909724e-38 4.892561e-37 -6.8857694e-37 4.343879e-37 -4.1337897e-37 -5.713505e-37 -1.0994634e-37 -3.657836e-37
4.826507e-37 2.44104e-39 -5.9928544e-37 3.841894e-37 -5.73234e-37 -5.7234034e-37 -5.2270105e-37 -6.6540117e-37

net_model.4.bias f4 [32]
00000000: 90ce 19ba bb92 ceb9 ad08 bbb9 5494 14ba
00000010: 40c6 3dba 1795 62b9 9a3a 04ba 6149 1bba
00000020: 71f6 0eba 620f 21ba 2243 44ba 4138 eeb9
00000030: f3a7 1eba 2b6d 1bba 52fa 90ab f739 36ba
00000040: 2de7 0bba 2097 7398 14c5 19ba ce7c 0cb4
00000050: 3fcf 20ba 491e 87ba 4580 10ba c988 0bb5
00000060: 9f69 97b9 0f00 1aba f0b0 50b5 6835 1bba
00000070: d48c bfb9 ea90 1bba 820a 23ba f472 1aba
-0.0005867267 -0.00039400705 -0.00035673883 -0.00056678546 -0.00072393194 -0.0002160858 -0.00050441327 -0.0005923715
-0.0005453593 -0.0006143955 -0.000748681 -0.0004543681 -0.0006052248 -0.0005929048 -1.0301293e-12 -0.00069513865
-0.0005336877 -3.1483313e-24 -0.0005865854 -1.308392e-07 -0.00061343977 -0.0010308708 -0.0005512278 -5.1980584e-07
-0.00028879658 -0.00058746425 -7.7743516e-07 -0.0005920739 -0.00036535284 -0.00059343746 -0.00062195223 -0.0005891763

net_model.6.weight f4 [1, 32]
00000000: a2d3 1bbd b9ac 0a83 507f e800 e4a7 4c83
00000010: 4ae7 1bbd 5855 2783 594b 6283 97f6 1bbd
00000020: 52f0 ff82 a0eb 1bbd 7bd2 1bbd a0a3 1c83
00000030: 3253 1cbd 3ade 1bbd 18a4 5a83 f704 1cbd
00000040: b18e 6a83 8d44 d919 75f4 1bbd 2e0d 4c83
00000050: 86d6 1bbd e406 1cbd 5ae1 4383 22ba 6003
00000060: 244e 4e83 78d8 1bbd 3af7 4f83 88f4 1bbd
00000070: 1e94 7102 0fd9 1bbd 2707 1cbd 0717 1cbd
-0.038043626 -4.075283e-37 2.1351506e-38 -6.014294e-37 -0.03806237 -4.917486e-37 -6.6501926e-37 -0.038076963
-3.760682e-37 -0.038066506 -0.038042527 -4.603211e-37 -0.03816528 -0.03805373 -6.4252813e-37 -0.038090672
-6.893022e-37 2.2464962e-23 -0.03807493 -5.996534e-37 -0.038046382 -0.03809251 -5.756404e-37 6.6041354e-37
-6.062766e-37 -0.038048238 -6.1115635e-37 -0.038075 1.7748391e-37 -0.0380488 -0.03809276 -0.038107898
