src/t1dsim_ai/models/IndividualModel/T1DEXI-01-1047/individual_model.pt (torch, 50089 bytes, 7 tensors)

net_model.0.weight f4 [128, 10]
00000000: cf12 b0bc 5000 de3c e7b2 36bd 534c fe3b
00000010: 6dd6 0e3b 5449 713b 3044 c73b dc4b a2bb
00000020: fd65 aebb 8127 34ba 135a b4bc f52a e33c
00000030: 1fb6 32bd c1a8 183c da15 203a ca93 483b
00000040: 9c66 953b 0d94 9fbb db45 a3bb 7c41 c4b9
00000050: 582b aebc 7fef e03c 0114 37bd edfa fb3b
00000060: 3b69 313b 65da 6a3b d5be c63b 2284 9cbb
00000070: 1b57 afbb 47ca 34ba 8ffa aebc 9982 df3c
00000080: 8c8e 36bd 096f 053c 13a7 c73a 3157 703b
00000090: 00b6 bc3b da8e a4bb 2138 a5bb 65fb 30ba
000000a0: 08cb afbc 92f8 df3c a8c3 36bd c039 043c
000000b0: 081c bd3a 7a3d 673b 55ce b53b f1dc a3bb
000000c0: c0ef a7bb a226 16ba 33de afbc 6a6f e23c
000000d0: cbbb 35bd b113 073c a80b 913a 201e 5f3b
000000e0: 8081 ae3b 746f a0bb c1d5 a0bb 94ab 11ba
000000f0: 49ea c8bd 1912 2c3d efa1 81bd 8f9c febc
00000100: 82b2 183d 8a6c a2ba 954d 033c 3819 6c3c
00000110: db81 8bbc 65fd e536 80f0 26bd 0745 ae3c
00000120: 0c66 57bd d290 2bbc 6a9b 5d3c fcde 5fba
00000130: 3cb7 21bc e456 823a 985b bebc 7f70 01bd
00000140: 4564 afbc 02eb e13c ce0a 36bd 68ec 083c
00000150: a8e0 963a 4ca4 5f3b e893 b13b d25b a1bb
00000160: 3c7e a1bb 4ec6 20ba 4f3b 9dbd dbe7 0c3d
00000170: db4e 95bd 5a94 d9bc 4592 173d 94bc 69ba
00000180: 7e05 553c 2439 04bb 736e 2e3c 033c 9ebb
00000190: 2d2e b1bc 1203 e33c 4b7e 35bd 8d93 0a3c
000001a0: 8e05 7f3a 31f6 563b 8996 b23b 9bd8 9ebb
000001b0: dc73 a0bb 246f 1aba 5796 ccbd 07d2 2a3d
000001c0: 2a81 8bbd 834a 26bd 0a5b 543d c877 01ba
000001d0: 0ed0 cf3a 5cc3 0eb9 474c 18bc cdfd 1fbb
000001e0: 684d b0bc 3591 df3c 0298 36bd ece0 023c
000001f0: 0f8f f73a 6146 703b 6f62 bf3b 42e5 a3bb
00000200: 915e a8bb 1c9d 37ba 1f8e afbc 34ac df3c
00000210: a9a5 36bd 7e8b 033c 7521 e73a 597d 6e3b
00000220: 2357 b73b 23e4 a5bb 63e5 a3bb 7432 2eba
00000230: 1d6e aebc 2aa0 e03c aa1c 36bd d08d 053c
00000240: afa8 ac3a a916 703b 697a bb3b c08f a3bb
00000250: b20b a3bb 8da2 20ba 2e20 b1bc 3db3 e03c
00000260: d6a0 35bd a9f5 093c 7167 9b3a b3be 6f3b
00000270: f1a7 ab3b c561 a6bb 2517 9fbb 85a9 e5b9
00000280: c3d1 b0bc e930 e03c 29b8 35bd d005 083c
00000290: f690 af3a e6ea 773b d679 bc3b cd40 a7bb
000002a0: d512 a3bb 86c2 23ba 4467 bbbc 038a de3c
000002b0: 364a 34bd 4e48 1c3c c8c9 c53a 126c 8d3b
000002c0: 9500 a93b e288 afbb 4e38 abbb 30bc ebb9
000002d0: 640f d8bc 1d45 dc3c a1fd 2bbd 99b4 3f3c
000002e0: 0507 e13a 1ac2 873b e7fb 973b 7c72 d4bb
000002f0: cc6a aebb 5ac0 b6ba 04f3 b5bc df60 e33c
00000300: cc71 33bd 609a 1a3c 1afa 213a a0c0 5c3b
00000310: bf19 a53b 1911 a5bb ca76 a4bb 3fb9 aeb9
00000320: 583b b2bc ecdd e33c 57e0 33bd 5edd 193c
00000330: acf3 f839 3eee 6e3b c5ac a43b 14a5 a8bb
00000340: 98d5 9bbb 46cb 9bb9 665d b2bc 1d2a e23c
00000350: 7af1 34bd aee8 133c 7771 303a 59bb 6d3b
00000360: 2546 b63b aa1c a6bb aad8 a2bb a160 f4b9
00000370: 9abf 59bd 317f d53c 9f1c 40bd dac6 07bc
00000380: d5f4 863c 1590 503b cd28 bbbc 7cfe fd3b
00000390: 9efb d0bc f633 aabc 5e8b afbc b70b e23c
000003a0: c823 35bd 0584 0f3c 1658 4c3a f684 713b
000003b0: 8f38 b13b d7a7 a6bb 0c56 9dbb 7d4f dcb9
000003c0: 434f 3fbd 1ee3 1e3d 8df4 8cbc 93df fa3b
000003d0: bbf0 323c 4c4a f7ba 9abe 893c 32cf e03b
000003e0: d5b2 5bbd ed4d 69bc 80a6 aebc 0d15 e13c
000003f0: c006 36bd 542e 043c f058 d93a 883a 563b
-0.021493344 0.027099758 -0.04460421 0.0077605634 0.0021795288 0.0036817389 0.0060811266 -0.004952891
-0.0053222165 -0.00068723416 -0.022015607 0.027730444 -0.043630715 0.009317578 0.0006106772 0.0030605667
0.004559351 -0.004869944 -0.0049826927 -0.00037432823 -0.021260902 0.02745795 -0.04469681 0.007689825
0.002707078 0.003583574 0.0060652294 -0.0047764936 -0.00535096 -0.0006896597 -0.02135971 0.027283954
-0.044569537 0.008144149 0.0015232287 0.0036673064 0.005759001 -0.005021912 -0.0050420915 -0.0006751328
-0.021459118 0.027340207 -0.044620186 0.008070409 0.001442791 0.0035284446 0.0055482783 -0.0050007035
-0.005125016 -0.00057278026 -0.021468258 0.027641017 -0.044368546 0.008244441 0.0011066096 0.0034045056
0.005325496 -0.0048960987 -0.004908294 -0.0005556878 -0.09810311 0.042009447 -0.063297145 -0.031080512
0.037279613 -0.0012391966 0.0080141025 0.0144103095 -0.017029693 6.854231e-06 -0.040756702 0.02127315
-0.052587554 -0.01047154 0.013525823 -0.0008540002 -0.009870347 0.0009944108 -0.023237035 -0.031601425
-0.021410117 0.02757788 -0.044443898 0.008357145 0.0011511045 0.0034125028 0.005419243 -0.004924276
-0.0049283784 -0.00061330653 -0.07677328 0.034400802 -0.07290431 -0.026559997 0.037004728 -0.0008916345
0.013001798 -0.002017566 0.01064645 -0.0048289313 -0.021628464 0.027711425 -0.044309895 0.00845803
0.0009728306 0.003280055 0.005450074 -0.0048475987 -0.004896624 -0.0005891195 -0.099896125 0.041704204
-0.068117455 -0.040598404 0.051844634 -0.0004938808 0.0015854852 -0.00013614952 -0.00929553 -0.0024412752
-0.021521285 0.02729092 -0.04457856 0.007988196 0.0018887239 0.0036663043 0.0058405916 -0.005001695
-0.0051382263 -0.0007004307 -0.021430073 0.027303793 -0.04459158 0.008028863 0.0017633872 0.003639063
0.0055951043 -0.0050625964 -0.0050017103 -0.00066450913 -0.02129274 0.027420122 -0.04446093 0.0081514865
0.001317283 0.00366346 0.0057213795 -0.0049915016 -0.0049757594 -0.00061277376 -0.02162179 0.027429217
-0.04434284 0.008420386 0.001185639 0.0036582171 0.005238526 -0.005077573 -0.004855054 -0.00043804586
-0.021584397 0.027367072 -0.044365082 0.008302167 0.0013394642 0.003782922 0.0057518287 -0.0051041604
-0.00497661 -0.0006246943 -0.02287639 0.027165418 -0.044016086 0.009538723 0.0015090043 0.0043158615
0.00515754 -0.005356894 -0.005225218 -0.00044962903 -0.026374526 0.026888425 -0.041989926 0.011700773
0.001716823 0.0041430118 0.0046381834 -0.006483374 -0.00532279 -0.0013942823 -0.022210605 0.027756153
-0.043809697 0.00943622 0.00061789306 0.003368415 0.0050384696 -0.0050374386 -0.0050190436 -0.00033325885
-0.021756813 0.027815782 -0.04391512 0.009391157 0.00047483796 0.0036457921 0.0050254785 -0.005146632
-0.004755687 -0.00029715354 -0.021773051 0.027607972 -0.044175602 0.009027643 0.0006730775 0.0036274998
0.005562561 -0.005069335 -0.004969676 -0.000466113 -0.05316124 0.026061626 -0.046902295 -0.008287156
0.016474167 0.003182416 -0.022846604 0.007751284 -0.025510605 -0.02077673 -0.02142876 0.027593477
-0.044223577 0.008759503 0.0007795108 0.0036852933 0.0054083536 -0.005085926 -0.0048015174 -0.00042020893
-0.04670645 0.038790815 -0.017206455 0.0076560467 0.010921652 -0.0018866747 0.016814519 0.006860637
-0.053637344 -0.01423977 -0.021319628 0.027475858 -0.04444003 0.008067686 0.0016582292 0.0032688696

net_model.0.bias f4 [128]
00000000: e468 693c 4579 5b3c 4a3b 6e3c 4266 653c
00000010: 4342 623c 145e 633c 30d5 06bd c16d 03bb
00000020: 2cb1 633c c927 96bc d0a5 623c 5bf4 08bd
00000030: 5a7d 673c 27ec 643c 2320 663c 7fbf 5f3c
00000040: cbde 653c 993f 5d3c c82f 513c 7059 5e3c
00000050: d600 613c d6ba 623c fc85 4ebc 4c59 623c
00000060: 43a7 183c 81dd 653c 5fa7 683c 3a6a 653c
00000070: a05b 633c 2629 9abc 7ab6 693c 3899 643c
00000080: fcd2 5e3c 70a4 603c 2506 633c 67b5 613c
00000090: b1ee 613c 7523 603c 5afa 5f3c edec c0bc
000000a0: e9dc b7bc 13e7 7dbb 5363 673c 3aa3 673c
000000b0: 5d83 5b3c 3d36 5c3c 929f 5e3c 928a 603c
000000c0: c372 643c 9bf3 613c c6ef 5d3c 1c4f 683c
000000d0: edac 5e3c cfef 773c f330 f0bc 4e90 613c
000000e0: 5696 9d3c 622c 3e3c 30f2 5b3c fd80 673c
000000f0: ca86 663c 8aa9 603c 3ea2 1f3c 22b1 633c
00000100: 62f9 c6bc 3c09 603c f7f7 5b3c f076 663c
00000110: f43b 623c 6af3 623c 83b4 5e3c a7d3 603c
00000120: b8a7 673c 217a 613c 8320 643c 8faa 5c3c
00000130: e72b 803c c01a 663c 2bd8 623c a1e8 5e3c
00000140: 414f 613c 7bee 96bc 602d 3539 70db 5c3c
00000150: 582f 5e3c b417 663c a612 643c a1a0 843b
00000160: b04c 603c c8d1 663c 7ea5 b1bb b6bd 13bd
00000170: d90b 633c 53a0 6c3c 23f8 653c a147 6a3c
00000180: e838 a63c a51e 5f3c 5cdd 683c e70f 5d3c
00000190: c289 443c 7497 fabc 8ed0 613c cf4a 613c
000001a0: a281 633c 87fa 623c a928 7a3c ee9a 673c
000001b0: 41e2 643c 68ab 5e3c 9079 793c a15e 623c
000001c0: 8442 eebc 9a4b 603c 4791 5e3c 18dc 613c
000001d0: 2b16 5e3c ab58 5b3c e610 683c a6c0 ebbc
000001e0: 6e54 bebc 36b0 5f3c c7f1 5f3c 1b66 5f3c
000001f0: ad17 653c 8a45 643c 246a 6a3c ed6b 623c
0.014246199 0.013395612 0.014540503 0.014001431 0.013809743 0.01387741 -0.032918155 -0.0020054432
0.013897222 -0.018329518 0.013833478 -0.03343616 0.014129007 0.013972319 0.014045748 0.013656496
0.014030169 0.013503932 0.01276774 0.013571128 0.013733109 0.0138384905 -0.012605187 0.013815235
0.009317222 0.014029861 0.014200061 0.014002377 0.013876826 -0.01881845 0.014264697 0.013952546
0.013600107 0.01371108 0.013856445 0.01377616 0.013789819 0.013680329 0.013670528 -0.023550475
-0.022444205 -0.0038742467 0.014122802 0.014138037 0.013398019 0.013440666 0.013587849 0.013704913
0.013943377 0.01379099 0.013545936 0.014179017 0.013591033 0.015132858 -0.029320216 0.013767315
0.019236725 0.011607261 0.013424441 0.014129874 0.014070222 0.013712296 0.009743271 0.013897212
-0.024288837 0.013674077 0.013425819 0.014066443 0.013808239 0.01385198 0.013592842 0.013722337
0.014139108 0.013762028 0.013923767 0.013468399 0.015645934 0.014044464 0.013845484 0.013605268
0.013751806 -0.018424263 0.00017278409 0.013480052 0.013561092 0.014043737 0.013920462 0.004047469
0.013690159 0.014088102 -0.0054213395 -0.036069594 0.013857805 0.014442521 0.014036211 0.014299304
0.020290807 0.013618146 0.014212932 0.013492561 0.011995735 -0.030589797 0.0137826335 0.013750746
0.013885887 0.013853676 0.015268483 0.014136059 0.013969959 0.013590671 0.015226737 0.013816507
-0.029084451 0.0136899 0.0135844415 0.013785385 0.01355509 0.013387839 0.014164185 -0.028778385
-0.023233619 0.013652852 0.013668484 0.013635184 0.0139826955 0.013932595 0.014307532 0.013819677

net_model.2.weight f4 [64, 128]
00000000: 3ec3 8a3c c8e9 863c 6044 8a3c 8d6f 8a3c
00000010: e8be 8a3c 071e 8a3c f914 ed3d c995 393d
00000020: 0639 8a3c dfac c33d a27c 8a3c 5e24 fb3d
00000030: 6f91 8a3c be19 8a3c 70c0 8a3c 79e7 8a3c
00000040: bbcb 8b3c d715 8e3c 6dd0 8c3c 55fe 8a3c
00000050: 502c 8c3c bec8 8d3c e0db 533d 71c2 8c3c
00000060: 30f2 543d 57ab 883c 5d76 8a3c d69c 893c
00000070: f3fa 883c 1a30 973d e303 883c 85ac 893c
00000080: 1ce0 8a3c 3296 893c 4fd3 8a3c 26f9 8a3c
00000090: cd26 8b3c eae3 8a3c 145d 8a3c 1b30 b43d
000000a0: 30ce b33d 7dcc 433d 206b 8b3c 9f2d 863c
000000b0: f1dd 8c3c e58d 8a3c 5eeb 873c 870c 8d3c
000000c0: 72fd 8a3c a0a6 8a3c ca21 883c 8776 8b3c
000000d0: 9399 8b3c 96be db3c 8c68 aa3d 7025 8b3c
000000e0: d49f 52bd 8c26 a53c cd38 893c b2c8 8c3c
000000f0: d41b 8d3c ceb3 8a3c 968c 54bd d64a 893c
00000100: 9624 ac3d f618 8b3c 7c57 893c a9d2 8a3c
00000110: 6a58 8a3c 3792 893c 66a2 883c 5d6f 893c
00000120: 8959 8d3c aa10 8c3c 0901 8a3c c057 8a3c
00000130: 4c5d 40bd 6b74 883c 27e4 8b3c 6e71 8b3c
00000140: 8a99 8b3c 218f 9b3d 93b6 423d 0e70 893c
00000150: f268 893c b00e 8b3c 46b2 8c3c 9966 393d
00000160: 7555 893c a8a4 873c e96a 463d 7180 f13d
00000170: 4792 893c b1ed 8a3c 0b9c 893c 834a 893c
00000180: 4085 62bd f384 8b3c 1413 883c 7f5a 883c
00000190: d837 a53c ee92 e03d ab1f 8b3c 3c79 8a3c
000001a0: d5eb 893c 8b56 8b3c bf72 40bd a9d8 883c
000001b0: e059 8c3c e996 883c 6294 df3c e169 893c
000001c0: 7e0f a13d 07be 883c 6cd0 8a3c 0482 8a3c
000001d0: 97f1 893c 620e 8e3c cec6 873c ab56 813d
000001e0: a5dc c73d 3e4d 8d3c 8c6a 8b3c cbba 8c3c
000001f0: d266 893c 4f69 893c 49de 8a3c 9e84 893c
00000200: e4ee 6303 45b4 7682 0444 1f03 08cf 3e03
00000210: f243 3103 f277 d102 3025 0603 6cb3 9002
00000220: 8ae5 1f03 ac02 1d03 bfae 1f02 2476 0283
00000230: 4dec 4603 9292 5603 afee 3303 5e2c 6202
00000240: 90f5 2903 fa0b cc81 0951 e682 9ca5 1381
00000250: d09a 6b80 aca0 ab02 f045 0780 983e b202
00000260: 2d9a bf02 3662 3e03 da1a 5b03 53c5 4b03
00000270: 7050 d402 d8ef d480 e2b2 6003 13f3 eb02
00000280: 1c91 9781 5d63 2702 c4e6 8d02 1564 8402
00000290: 18ae c902 664a df01 08e4 e202 7c35 e881
000002a0: ac46 ce82 640c 5a83 80d6 5a03 4a87 6403
000002b0: a9f8 6d82 0eda d182 d40a 5f01 4a3c 8a81
000002c0: bf46 ef02 118d 1103 e061 d001 d3cd 5403
000002d0: e243 8282 387c cc82 e9e5 5182 706f 6d01
000002e0: 2d78 0b03 5700 1083 86da c782 27c4 5803
000002f0: 812e 1a03 8091 6301 2a4f 8902 1ec0 1b03
00000300: 146b 1802 72d7 8b01 06bf 9482 e653 2003
00000310: a8b8 0803 9663 1503 7a5f bf02 9e18 0603
00000320: 14b8 5403 58ee 3e00 bc68 6a03 5bb5 b382
00000330: a798 a882 82ce 3b03 14c2 df02 6de8 7c82
00000340: 9f05 5602 e857 5683 c437 6083 05cc 1982
00000350: bd07 2582 1610 4003 33c9 2b03 ba22 4383
00000360: c42b cd01 7a4a 4903 a06c 3080 fd11 0a03
00000370: ec2a 2403 004a 4503 6678 5903 a83b 6103
00000380: 3c53 cd81 f491 f281 4660 6c03 e673 3e82
00000390: 6a4e 1083 225c 8481 0b62 d202 3899 d802
000003a0: 6d47 1703 21f9 2103 9ac6 9182 72e6 3703
000003b0: 8e06 1703 5486 5b81 e6fb cb02 410b 3403
000003c0: bb4f 2403 610c 4403 8037 1180 159f 4402
000003d0: 6694 e281 084a 0701 f849 1e03 f56d 0883
000003e0: 4fab b602 bce2 5b81 bb18 0702 9af2 9a81
000003f0: ce76 ac02 f0a6 3003 7114 3603 948e 3103
0.016938802 0.016468897 0.016878307 0.016898895 0.016936734 0.016860021 0.11576266 0.045308862
0.016872894 0.09554457 0.016905133 0.12262796 0.016915051 0.016857978 0.016937464 0.016956078
0.01706492 0.017344398 0.017189229 0.016966978 0.017110974 0.017307635 0.05172336 0.01718256
0.05198878 0.016683264 0.016902143 0.016798418 0.016721224 0.073822215 0.016603416 0.016805897
0.016952567 0.016795252 0.016946463 0.016964506 0.016986275 0.016954381 0.016890086 0.08798238
0.087795615 0.047802437 0.017018855 0.016379176 0.017195674 0.016913364 0.016591724 0.017217888
0.016966555 0.016925156 0.016617674 0.017024292 0.017041003 0.026824277 0.08320722 0.016985625
-0.051421955 0.020159982 0.016750718 0.017185543 0.017225184 0.01693144 -0.051891886 0.016759317
0.08405416 0.016979676 0.016765349 0.016946154 0.016887862 0.016793353 0.016679 0.016776735
0.017254608 0.01709779 0.016846197 0.016887546 -0.046963975 0.016657075 0.017076565 0.01702186
0.017040987 0.07595659 0.047537398 0.016777065 0.016773675 0.016974777 0.017174851 0.04526386
0.016764382 0.016558006 0.0484418 0.117920764 0.016793383 0.016959043 0.01679804 0.016759163
-0.05530286 0.017031169 0.01661066 0.016644714 0.02016823 0.109655246 0.016982874 0.016903512
0.016836086 0.01700904 -0.04698443 0.016704874 0.0171327 0.016673522 0.027292434 0.01677412
0.07864283 0.016692175 0.016945086 0.0169077 0.016838832 0.017340843 0.01657429 0.06315359
0.097588815 0.017248746 0.017018579 0.017178914 0.016772661 0.016773848 0.016951697 0.01678687
6.6983537e-37 -1.812496e-37 4.680398e-37 5.607364e-37 5.2093622e-37 3.0778635e-37 3.942175e-37 2.1261881e-37
4.69894e-37 4.614122e-37 1.1731625e-37 -3.8339185e-37 5.845823e-37 6.30572e-37 5.2877368e-37 1.661659e-37
4.994653e-37 -7.495495e-38 -3.3841974e-37 -2.7118455e-38 -9.881934e-39 2.5218413e-37 -6.67937e-40 2.6190676e-37
2.815342e-37 5.5948722e-37 6.438914e-37 5.9882855e-37 3.119677e-37 -1.9555165e-38 6.603303e-37 3.4669664e-37
-5.567686e-38 1.2297738e-37 2.085054e-37 1.94531e-37 2.963422e-37 8.202402e-38 3.33386e-37 -8.5300087e-38
-3.0309543e-37 -6.4078666e-37 6.4310676e-37 6.715848e-37 -1.7483372e-37 -3.0834947e-37 4.09664e-38 -5.0779704e-38
3.51585e-37 4.2773607e-37 7.6547577e-38 6.2537475e-37 -1.9140746e-37 -3.0046404e-37 -1.5420876e-37 4.3609978e-38
4.0986384e-37 -4.2318187e-37 -2.9365848e-37 6.3701867e-37 4.5309916e-37 4.1797706e-38 2.0175779e-37 4.5770946e-37
1.1197926e-37 5.1369685e-38 -2.1856288e-37 4.7116085e-37 4.0178783e-37 4.3901484e-37 2.8119728e-37 3.940732e-37
6.251251e-37 5.779302e-39 6.888665e-37 -2.640578e-37 -2.4773e-37 5.519142e-37 3.28783e-37 -1.8580739e-37
1.572385e-37 -6.298986e-37 -6.58917e-37 -1.1299215e-37 -1.2124506e-37 5.6442195e-37 5.048335e-37 -5.7345214e-37
7.536791e-38 5.9154086e-37 -4.447071e-39 4.0575205e-37 4.824454e-37 5.7978045e-37 6.390878e-37 6.619004e-37
-7.542454e-38 -8.910619e-38 6.9464683e-37 -1.3992257e-37 -4.240781e-37 -4.8621346e-38 3.0913e-37 3.182629e-37
4.4456905e-37 4.7599634e-37 -2.1419827e-37 5.4043405e-37 4.4382436e-37 -4.0320323e-38 2.9972752e-37 5.2910165e-37
4.8286794e-37 5.7613433e-37 -1.581113e-39 1.444546e-37 -8.323223e-38 2.48487e-38 4.651694e-37 -4.0093032e-37
2.6840823e-37 -4.038662e-38 9.925331e-38 -5.691878e-38 2.534132e-37 5.1913386e-37 5.350846e-37 5.2179297e-37

net_model.2.bias f4 [64]
00000000: f4c4 2b3c 20bc 9b97 b182 823d 9e6e 2b3c
00000010: b4e6 7c3d 867b 0db5 56a5 2b3c 1029 18bb
00000020: bb06 8dad d5df 733d aa86 2b3c 75c5 2b3c
00000030: 71ac 2b3c 5fb6 2b3c 93d7 2a3c bc02 2b3c
00000040: 890e 1f3c 1bb0 2b3c 91f2 4aba 0e94 31bb
00000050: 39e6 2b3c 397a 1e3c 51e2 2b3c 24b2 2b3c
00000060: c229 2abb fd15 5c3d af1e f43c 899d 0abd
00000070: 1b0b dc3d de54 553d 7e35 393d 74ce 2b3c
00000080: f3c4 2b3c 02cf 2b3c 4bb6 2b3c 7daa 2b3c
00000090: bd3e 2b3c 2982 7bb9 88da ce3c 40f4 f33b
000000a0: d3d7 2b3c c401 30ad fbc3 2a3c 60e0 2b3c
000000b0: 9c52 073c 7d54 0a3c 8624 2b3c eb46 1a3c
000000c0: ffac 2b3c edcf 2b3c 2d70 aa9d d693 2b3c
000000d0: b2d0 27b9 9fd9 2b3c df3b 2b3c cbd6 31ba
000000e0: 2297 ab3d a1b3 2b3c 97b3 793d b3c5 2b3c
000000f0: 99f3 2b3c 37ca 2b3c 2170 d3ba eddd f03b
0.010483969 -1.006413e-24 0.06372584 0.010463385 0.061743453 -5.2706343e-07 0.010476431 -0.0023217835
-1.6032833e-11 0.059539635 0.010469118 0.010484089 0.010478125 0.010480492 0.010427373 0.010437664
0.009708055 0.010478999 -0.00077418337 -0.0027096304 0.010491901 0.009672695 0.01049097 0.010479484
-0.002596483 0.053731907 0.029799787 -0.033841643 0.10744306 0.05208289 0.04521703 0.010486234
0.010483968 0.010486366 0.010480474 0.010477659 0.01045197 -0.00023985714 0.025250688 0.0074448884
0.010488468 -1.0004834e-11 0.010422702 0.010490507 0.008259442 0.008442995 0.01044572 0.009416322
0.010478257 0.010486585 -4.5114612e-21 0.010472259 -0.00016004106 0.010488897 0.010451286 -0.0006784021
0.08378436 0.010479839 0.060962286 0.010484147 0.01049509 0.0104852235 -0.001613144 0.0073506744

net_model.4.weight f4 [32, 64]
00000000: 2e68 2d3d dc61 3783 47f0 aabd 2145 2d3d
00000010: 969d 99bd 8ff0 e782 2347 2d3d a503 2f3a
00000020: cb2e 4f92 aa3b 8ebd fcc8 2c3d 000c 2d3d
00000030: bc29 2c3d 7ee7 2c3d 1ea9 2d3d 0090 2d3d
00000040: 3a0b 313d 6b67 2d3d 0215 03b9 3e02 1a3b
00000050: 823b 2d3d 7069 313d bf31 2d3d 93e8 2c3d
00000060: 0f7b 413b 324d a6bd 785f 5bbd e10b c33d
00000070: 5685 7b3c d777 a1bd 9f26 66bd 49b0 2c3d
00000080: 8f41 2d3d dd6f 2d3d 7bd8 2c3d ded5 2d3d
00000090: 006d 2d3d a4bc 01b7 3569 6cbc 4b9c 433d
000000a0: d0cc 2c3d d87c 8e2d f82f 2d3d 892f 2d3d
000000b0: feb1 473d 3241 483d 4d01 2d3d f22b 343d
000000c0: b147 2d3d 1ca5 2d3d 0d72 2583 14e7 2c3d
000000d0: df84 82b1 a4b1 2c3d e25f 2d3d 1673 223b
000000e0: 5f8b 113d 134d 2c3d f849 95bd 55d8 2c3d
000000f0: dc2b 2d3d cc8c 2d3d d294 a739 bca2 433d
00000100: b049 4a02 31a2 5703 ee35 8681 61b2 2783
00000110: 967e 2603 dcc8 0483 74f2 d282 665c 9782
00000120: 0e44 5603 10ee 3c83 dc32 6003 f9d0 4b03
00000130: 209e 5c83 c082 5d02 24fc 1783 2d51 1402
00000140: 0d74 f282 bc98 2903 28a9 1c83 366b 5183
00000150: 58e5 3703 1a07 8f82 6cd4 5c82 443c fa81
00000160: 1f62 3d03 746b de82 c39a 2603 4050 2403
00000170: 93d1 4882 a448 b682 00f7 1883 284f 6c03
00000180: 2abb 4c83 050b 4103 a902 5e03 85b0 4482
00000190: 0037 0183 563a 5483 59d2 3603 68f9 fc02
000001a0: e0ee 4d03 dcc0 2083 9716 5c03 483d 2083
000001b0: 6e02 0382 33c3 9f82 5080 0800 ea49 3083
000001c0: f892 1603 35b9 2303 a8e2 3103 f6a1 0683
000001d0: 2cca 4803 c8d8 4283 d0b6 1503 93e7 2e83
000001e0: ca3c de02 f83e 3f03 99a3 0283 9c87 1d83
000001f0: e496 5883 00d0 2403 c4e6 4783 bc8f 4a83
00000200: 980a 4f03 30f2 8d02 8d86 1083 7048 0903
00000210: f6b7 2283 6dfc 6483 3de0 3803 1f78 0c03
00000220: 3474 0403 2137 2d83 3b31 1c83 aa3d 3483
00000230: 0109 1883 58dd ff82 6c45 cb82 d692 4683
00000240: 2fae 2003 0f36 2d83 ebfa 1b03 b6e8 3803
00000250: 66a8 4d03 c5ad 2183 e96a b202 2851 2e03
00000260: 4793 1683 9b72 0602 f6c6 1183 5830 0d03
00000270: f546 1403 c4b2 0683 07bb 3783 fe34 cd01
00000280: 3a6b 5f83 1767 0283 6971 2203 4124 4303
00000290: 8c77 3f02 6cf9 1d03 5426 1f03 78b6 2903
000002a0: 056f 2103 225a 6883 cc37 a482 dc96 0503
000002b0: a856 0382 9429 9982 e408 0303 398f 3603
000002c0: 3f08 6283 df7b 0603 310c 6102 624d ba82
000002d0: 80f3 d680 9da7 1b03 64a4 4603 c1b3 9482
000002e0: db04 ec82 b06b 0a83 01f5 5c03 0dd2 ac82
000002f0: 6c02 4e03 186f 3483 9f65 3883 fd8c 0503
00000300: 2432 2803 d200 4d83 d1ad 2503 14ee 1383
00000310: 482d 2581 1b4c 1983 8ab5 5b83 0852 b602
00000320: d4ce e002 d1f4 d382 45d5 0c03 abba 6583
00000330: 28fe b482 f614 5e83 d249 a802 058b 6903
00000340: 7183 bd02 f905 5203 da9a 4083 148a a102
00000350: 3568 6683 a989 0283 d71d 4383 ebd6 2103
00000360: e642 b582 cd9c 2203 d1de 3783 270e 2103
00000370: 0d19 2b83 6a34 3883 caea d682 4cf0 2803
00000380: 7a8e 3f03 839d 4c83 67b3 9a82 8e32 4a03
00000390: 90a7 3803 f546 1f03 eea5 2283 34e2 5b83
000003a0: 1b98 6703 56be 4d03 022f 4603 7b46 6d03
000003b0: f5c5 6a82 44b5 1b82 7ec4 4283 818d 5303
000003c0: 3877 7202 79f1 4203 323a 4b83 2e41 1703
000003d0: bb12 0783 fe3e 3f83 9b7e 1202 d65f f982
000003e0: 5570 2003 fa76 a981 8a1a 8682 cc11 2303
000003f0: 23c4 4283 821d 5283 9255 1f83 3777 6183
0.04233568 -5.3891204e-37 -0.083466105 0.042302255 -0.0750076 -3.4080473e-37 0.04230417 0.00066762633
-6.537536e-28 -0.06944974 0.04218386 0.042247772 0.04203199 0.042212956 0.04239761 0.042373657
0.043223597 0.042334955 -0.0001250096 0.0023499872 0.04229308 0.043313444 0.04228377 0.042213988
0.0029522812 -0.081201926 -0.053557843 0.0952375 0.015351614 -0.07884186 -0.056189176 0.042160306
0.04229885 0.04234301 0.04219864 0.042440288 0.04234028 -7.7329205e-06 -0.01442938 0.047756474
0.042187512 1.6198973e-11 0.042282075 0.04228166 0.04875373 0.0488903 0.04223757 0.043987222
0.0423047 0.04239379 -4.8620066e-37 0.04221256 -3.7986037e-09 0.0421616 0.04232777 0.0024787835
0.035533305 0.04206569 -0.07289499 0.042198498 0.042278156 0.042370602 0.00031963602 0.047762617
1.4861763e-37 6.336901e-37 -4.930121e-38 -4.928166e-37 4.892833e-37 -3.902189e-37 -3.0995888e-37 -2.224049e-37
6.296707e-37 -5.5521517e-37 6.5886067e-37 5.9896227e-37 -6.483371e-37 1.6274039e-37 -4.4664355e-37 1.0896619e-37
-3.5625314e-37 4.9839967e-37 -4.603846e-37 -6.154265e-37 5.404214e-37 -2.1016038e-37 -1.6224009e-37 -9.1921973e-38
5.5654746e-37 -3.2681643e-37 4.8960673e-37 4.828739e-37 -1.4753824e-37 -2.678419e-37 -4.4952327e-37 6.9445034e-37
-6.0165066e-37 5.673025e-37 6.524299e-37 -1.4450464e-37 -3.797283e-37 -6.2368167e-37 5.372646e-37 3.7171224e-37
6.05183e-37 -4.7241166e-37 6.467812e-37 -4.709012e-37 -9.625057e-38 -2.347499e-37 7.80714e-40 -5.18066e-37
4.424975e-37 4.8114e-37 5.2275814e-37 -3.9564983e-37 5.90068e-37 -5.726033e-37 4.3997023e-37 -5.139984e-37
3.265486e-37 5.620214e-37 -3.8391367e-37 -4.6293825e-37 -6.364991e-37 4.843404e-37 -5.874575e-37 -5.9527464e-37
6.0843994e-37 2.0857097e-37 -4.2472253e-37 4.0343836e-37 -4.78187e-37 -6.729295e-37 5.4330153e-37 4.1280195e-37
3.892471e-37 -5.0903416e-37 -4.5900793e-37 -5.2968033e-37 -4.467912e-37 -3.7595928e-37 -2.9868015e-37 -5.835553e-37
4.7219727e-37 -5.0902187e-37 4.5838446e-37 5.433988e-37 6.0437397e-37 -4.7513125e-37 2.6216113e-37 5.1227167e-37
-4.4250104e-37 9.877655e-38 -4.2840066e-37 4.149167e-37 4.3574746e-37 -3.9584274e-37 -5.3993563e-37 7.5381147e-38
-6.56569e-37 -3.8321908e-37 4.773771e-37 5.7346967e-37 1.4066772e-37 4.6424476e-37 4.67699e-37 4.98741e-37
4.744109e-37 -6.828214e-37 -2.412966e-37 3.9258365e-37 -9.649229e-38 -2.2505194e-37 3.8507646e-37 5.3649405e-37
-6.6424897e-37 3.952126e-37 1.6533888e-37 -2.737466e-37 -1.9740148e-38 4.5742817e-37 5.837568e-37 -2.184982e-37
-3.467987e-37 -4.0678174e-37 6.493344e-37 -2.5393692e-37 6.054074e-37 -5.3024775e-37 -5.4189395e-37 3.9247034e-37
4.942832e-37 -6.0245027e-37 4.8688673e-37 -4.3472718e-37 -3.0338201e-38 -4.5050024e-37 -6.4566712e-37 2.678958e-37
3.3032555e-37 -3.1144181e-37 4.1387124e-37 -6.7511336e-37 -2.6594501e-37 -6.5264e-37 2.4727752e-37 6.8632133e-37
2.7846498e-37 6.172031e-37 -5.660149e-37 2.3736077e-37 -6.771055e-37 -3.8361593e-37 -5.7339604e-37 4.756036e-37
-2.6633958e-37 4.778752e-37 -5.4034647e-37 4.7329894e-37 -5.028114e-37 -5.413291e-37 -3.1579236e-37 4.964661e-37
5.629341e-37 -6.0131026e-37 -2.2731238e-37 5.94205e-37 5.4265092e-37 4.6807355e-37 -4.7798e-37 -6.4617984e-37
6.8059407e-37 6.046258e-37 5.8240933e-37 6.972895e-37 -1.7248416e-37 -1.1439622e-37 -5.723704e-37 6.2169766e-37
1.7813566e-37 5.7288673e-37 -5.9723143e-37 4.4449734e-37 -3.9694436e-37 -5.6202167e-37 1.076272e-37 -3.6642269e-37
4.7148725e-37 -6.225152e-38 -1.9704763e-37 4.7921825e-37 -5.723663e-37 -6.1747327e-37 -4.682413e-37 -6.625841e-37

net_model.4.bias f4 [32]
00000000: 643a de3b 2909 07ba 33b6 e6b9 9d44 18ba
00000010: 85de de3b 375d b4b9 f697 10ba e725 de3b
00000020: 44a5 14ba 9390 de3b 6775 de3b 7913 0dba
00000030: 92cb dd3b de18 de3b d94b e0b9 9ed9 de3b
00000040: bb1d 12ba 2021 9cb9 a694 de3b 48ed efaf
00000050: ceb0 de3b c487 de3b 5645 13ba 9f9a e3b7
00000060: dd52 f0b9 6696 de3b 3cab dab9 6a0b de3b
00000070: f8e2 9c3d 4f34 de3b 3e34 de3b e07a dd3b
0.006781863 -0.0005151206 -0.00044004768 -0.0005808564 0.0068014287 -0.00034401726 -0.0005515808 0.0067794207
-0.00056703785 0.006792137 0.006788898 -0.0005381625 0.0067686522 0.0067778667 -0.0004278112 0.0068008443
-0.0005573888 -0.0002977932 0.0067926226 -4.3642445e-10 0.006795979 0.006791087 -0.0005617937 -2.713251e-05
-0.00045838105 0.0067928312 -0.0004170778 0.006776263 0.07660478 0.006781138 0.00678113 0.0067590326

net_model.6.weight f4 [1, 32]
00000000: 6867 3bbd 40ed 5683 72f7 9b01 8b31 4a83
00000010: 57ab 3bbd e3d7 2d83 d45a 4b83 3461 3bbd
00000020: d02b 6183 779d 3bbd 726c 3bbd 16d1 2a83
00000030: 55d9 3bbd 6163 3bbd 68d6 0fba 7cd2 3bbd
00000040: 6867 5a83 7829 13ba 3394 3bbd 7805 6d83
00000050: e481 3bbd 15ab 3bbd 98e2 4f83 3647 4b03
00000060: 6cfb 3783 f16e 3bbd e48a 4783 1d63 3bbd
00000070: b994 b73d 0971 3bbd d468 3bbd a180 3bbd
-0.045752913 -6.3161297e-37 5.7293074e-38 -5.9419337e-37 -0.0458177 -5.1087956e-37 -5.9760604e-37 -0.045746997
-6.617185e-37 -0.045804467 -0.04575772 -5.019853e-37 -0.04586156 -0.045749072 -0.0005486966 -0.04585503
-6.4183147e-37 -0.00056137843 -0.04579563 -6.965432e-37 -0.04577817 -0.045817453 -6.109195e-37 5.9738084e-37
-5.4067485e-37 -0.0457601 -5.8640283e-37 -0.04574882 0.089639135 -0.045762096 -0.04575427 -0.045776967
