src/t1dsim_ai/models/IndividualModel/T1DEXI-01-0102/individual_model.pt (torch, 50089 bytes, 7 tensors)

net_model.0.weight f4 [128, 10]
00000000: a427 35bc b913 fd3c 1b84 37bd 71f2 ab3c
00000010: f27c 0b3a 1f0d f739 2184 413b 6676 98bb
00000020: 525f b83a ef9e a2ba 42d2 e0bc 42f7 f73c
00000030: f58d 35bd 3407 4e3c 0154 353b c73a 8a3a
00000040: 9486 0c3c feff 3fba 1941 5b3c ee92 063b
00000050: d496 31bc c5e7 ff3c 37f6 37bd 9ca3 ac3c
00000060: 32c5 493a dc5b 093a a751 423b 6e9a 96bb
00000070: 1904 b43a 70c2 9dba 0900 39bc 92ba fc3c
00000080: 897f 38bd f2f0 a93c dd46 153a a815 c939
00000090: baf0 443b 013e 9fbb ac15 c83a b413 c5ba
000000a0: 4315 42bc 0faf fc3c dbd0 38bd 1524 a63c
000000b0: 99f7 41b9 ba50 d339 2c22 573b 2ff8 a3bb
000000c0: ce37 ef3a 2251 c8ba ced4 8abc 1b22 003d
000000d0: 23e4 2fbd 328c 983c 1ee1 58bb e2ec 7d3b
000000e0: bcb0 ad3b 9d93 25bc 4a6d 9fba b5e6 1ebc
000000f0: c40c e3bd 2dbd 583d a990 2abd bbc8 40bd
00000100: 1f9a 743d 8cc2 de3b bfff 6a3c fe94 043c
00000110: 574b d03b e7c1 873b 89b3 7cbd 9ee4 2e3b
00000120: 145a 733c d011 5c3c ccea fd3c db17 cdbb
00000130: 9dbb 7b3b 4067 27bd 6d02 4c3c 579b 4a3c
00000140: b505 47bc d7e9 fd3c a4eb 38bd 5316 a03c
00000150: e6fe b039 72a4 f039 3c4d 4e3b ade2 b2bb
00000160: 6a4d e63a 1a39 33bb 3972 863d 26c5 4fbd
00000170: e4ee 083d 6e81 0ebc f626 723d 2613 0dbb
00000180: ccb8 643d a875 bfbd 56de 013d 61f7 083d
00000190: 2ec0 a6bc 75c3 da3c 2a83 5cbd e37f e4bb
000001a0: c531 bbba 8321 9239 48a0 69bb 0e21 61ba
000001b0: 2fbe 893c 5d5c 473c a634 a1bd 8bf8 783d
000001c0: 530a 3dbd c5e1 85bd 09b0 493d 7375 13ba
000001d0: 5125 8d3b 2ce6 88bb c4e2 65bb 8014 2c3a
000001e0: 9fa5 3fbc a2ff fc3c fe9e 38bd c473 a33c
000001f0: 773f 4c3a 1a1e 093a d024 433b e4a7 a2bb
00000200: 56e8 ca3a f7d2 efba 7b04 3ebc 6ab3 fc3c
00000210: 5dd2 38bd c989 a33c aee2 483a 9a13 063a
00000220: cb83 433b bc62 a4bb be52 cc3a e000 f4ba
00000230: 90e9 38bc 910d fd3c 9808 38bd 82f3 aa3c
00000240: e47c c339 b80e cd39 25e5 453b 4bf9 9cbb
00000250: 307c c73a 3845 b0ba eee5 9cbc 8f1f ee3c
00000260: a480 3dbd 88c7 343c c5dd 92bb cae9 4a3b
00000270: a428 fb3b 7e99 06bc ad9f 793b aeed 4bbb
00000280: 04f5 3fbc a3e4 fc3c 3332 38bd 2485 a13c
00000290: b004 4f3a 2f36 123a 29c3 473b 7ab1 a4bb
000002a0: a6ee d03a 0213 04bb 1b47 83bc b37f fc3c
000002b0: 312d 35bd 9e14 943c a45c 43bb c6c5 333b
000002c0: 8c0f 933b bd36 14bc 54d6 0d3a 8e7f 01bc
000002d0: 3deb c1bd f143 82bb 08a5 be3c 0829 1c3c
000002e0: c652 a3bc b21d c23a 21ef 593c e5d0 b73b
000002f0: ee87 6d3c a38c 1e3c 8fd9 c1bc 3467 f73c
00000300: 43b3 5bbd 0ded 8ebb 6c2f 163c 41da a7b6
00000310: 69cf 083b d538 a43a 2133 253c 20c7 043c
00000320: 845a 95bc 4ce1 fc3c 5fa3 2ebd 0a2b 9b3c
00000330: a4c6 79bb a151 9a3b 93b0 c63b 734d 33bc
00000340: 580e 12bb cef5 31bc 9036 4cbc 2d11 fd3c
00000350: d907 39bd 887f 9e3c 9af1 a8b9 264b 053a
00000360: f4a3 5a3b 8008 a9bb 9b5f 023b 7604 0ebb
00000370: 0e68 8abd ed8d 7a3d fba0 50bd 9afb 8abd
00000380: 3c64 373d 08c0 3cb5 a29f 9f3b a01a f3bb
00000390: 3aa5 4abc b097 5ebb 351f 40bc 0423 fd3c
000003a0: fa2b 38bd e953 a73c 3963 d1b9 9504 f039
000003b0: 0f92 633b 85ad a1bb cbc8 ff3a e092 acba
000003c0: d8c0 dfbd af96 733d 9f90 fbbc a324 41bd
000003d0: a4e8 5c3d bb87 103b 885b 943c 477b ae3b
000003e0: 9a3b 8d3a c04b 813b 401b 40bc 4b5c fc3c
000003f0: 72e7 38bd d155 a43c 1513 0e3a 1b47 b939
-0.011056814 0.030893194 -0.04480372 0.020989629 0.00053210475 0.00047121287 0.0029528218 -0.004652786
0.0014066494 -0.0012406985 -0.027444009 0.030269269 -0.044324834 0.01257496 0.0027668478 0.0010546081
0.008577008 -0.00073242176 0.01338222 0.0020534354 -0.010839183 0.031238446 -0.044912543 0.021074109
0.0007696926 0.00052398234 0.002965072 -0.004596046 0.0013734131 -0.0012036096 -0.011291512 0.030850682
-0.045043502 0.020744774 0.00056944584 0.00038353843 0.003005071 -0.0048596864 0.0015265248 -0.0015035779
-0.0118458895 0.030845193 -0.045121055 0.020280877 -0.00018498152 0.00040305202 0.0032826765 -0.005003951
0.0018250884 -0.0015282969 -0.016947176 0.031282526 -0.042942178 0.018621538 -0.0033093165 0.003874593
0.0053006094 -0.0101059945 -0.0012163308 -0.0096985595 -0.11086419 0.052914787 -0.041641865 -0.04706643
0.059717294 0.006798094 0.014343201 0.008092163 0.0063566375 0.004142988 -0.061694656 0.002668656
0.014853019 0.013431981 0.030995749 -0.0062589473 0.0038411387 -0.04086995 0.01245175 0.0123661375
-0.012147357 0.030995293 -0.0451466 0.019541895 0.0003375925 0.00045898888 0.003147914 -0.0054591508
0.0017570679 -0.0027347268 0.06564755 -0.050725125 0.03343095 -0.008697851 0.059119187 -0.0021526306
0.0558403 -0.09348613 0.031706177 0.033439044 -0.02035531 0.02670453 -0.053836025 -0.006973253
-0.00142818 0.00027872258 -0.0035648514 -0.00085879944 0.01681432 0.012168017 -0.0787137 0.060783904
-0.046152424 -0.06537203 0.049240146 -0.0005625106 0.004307427 -0.0041778293 -0.003507779 0.0006564334
-0.011697202 0.030883614 -0.0450735 0.019952662 0.00077914394 0.0005230621 0.002977658 -0.004963862
0.0015480618 -0.0018297125 -0.011597748 0.03084727 -0.045122493 0.019963162 0.00076631724 0.0005114615
0.0029833193 -0.005016653 0.0015588624 -0.0018615983 -0.011286154 0.030890258 -0.04493007 0.020868067
0.0003728635 0.00039111613 0.0030196395 -0.00479046 0.0015219506 -0.0013448363 -0.019152608 0.029067783
-0.04626526 0.0110339 -0.0044820034 0.0030962103 0.007664757 -0.008215306 0.003808956 -0.003111701
-0.011716131 0.030870741 -0.04496975 0.019716807 0.0007897122 0.0005577532 0.0030481315 -0.0050260397
0.0015940263 -0.002015293 -0.016025117 0.03082261 -0.04423255 0.018076237 -0.0029809857 0.0027431115
0.0044879373 -0.009046254 0.00054106605 -0.007903947 -0.09468696 -0.0039753844 0.023272052 0.009531267
-0.01993693 0.0014809875 0.013301642 0.005609619 0.01449774 0.009677085 -0.02366331 0.030200578
-0.053637754 -0.0043617547 0.00916658 -5.002396e-06 0.002087558 0.0012529144 0.010082991 0.008104116
-0.018231638 0.030869149 -0.04263627 0.018941421 -0.0038112784 0.004709438 0.0060635298 -0.010943758
-0.0022286382 -0.010861827 -0.012464181 0.03089198 -0.0451735 0.019347921 -0.00032223464 0.00050847454
0.0033361884 -0.005158484 0.001989341 -0.002167014 -0.06758128 0.061170507 -0.050934773 -0.067862704
0.044773325 -7.03149e-07 0.0048713246 -0.0074189454 -0.012368495 -0.0033964925 -0.01172619 0.030900486
-0.044963814 0.020425754 -0.00039937513 0.0004577978 0.003472451 -0.004934015 0.0019514797 -0.0013166331
-0.10925454 0.059469875 -0.03070861 -0.04715408 0.0539328 0.0022053558 0.018110052 0.0053247544
0.0010775209 0.0039457977 -0.011725247 0.030805727 -0.0451426 0.020060452 0.00054197136 0.00035338927

net_model.0.bias f4 [128]
00000000: a008 183c 10fb 6b3b 11ac 1a3c 2066 173c
00000010: feae 123c 3a9f d83b 0d4f b2bc 5576 b63c
00000020: 4a43 0f3c d1be 9cbc 78d6 243b a6ff 7dbc
00000030: 3b41 143c 3c97 143c 99b4 173c bb04 b03b
00000040: 0fc5 133c 69ce e63b 6c57 f53c 160b 07bb
00000050: 68fc d63b 8620 0d3c 9f7f 5fbc 477b 143c
00000060: ecc0 fabc 0422 143c 409a 163c c067 143c
00000070: 613f 123c dd83 543b b3d3 163c cab1 123c
00000080: 1bfb 863b c3f4 6b3b c437 de3b 0b9b 073c
00000090: 37c8 123c be57 7abc d932 a53b 269e e739
000000a0: 328a d638 208a 623b f879 163c a312 fd3b
000000b0: a1e7 9c3b bb04 8bbb 1057 733b 9ddb f33b
000000c0: e0f2 053c 1fbb 133c 061c 533b 0fec 183c
000000d0: 56e3 bebc a9d2 7c3b 6cd5 7fbc 9a1c 0f3c
000000e0: c6f6 03bd d02e 583c 975e bdbc a744 193c
000000f0: dd37 fc3b 5548 003c 9476 5dbc dfdb 0b3c
00000100: a819 3bbc 6b29 bfbc 92e1 183b 9f6f 143c
00000110: 445b 033c c52c fc3b b09a 983b bd76 983b
00000120: d62a 1a3c 3c34 0d3c 6bef 133c 209b 4fbb
00000130: a885 d03c 570a 173c b75a 123c 1f66 9739
00000140: 9d15 a03b 2173 a53b 1aee 7dbc c2f7 f1bb
00000150: 3ca8 4f3b 6065 103c 33c6 073c 7d88 c73c
00000160: 8680 f53b 331e fd3b 03fe b5bb 6577 a63b
00000170: a9f6 f33b f12d 173c 202b 153c 2fc6 193c
00000180: ed77 9b3c f6d0 4abb 627a 133c e6e2 7b3b
00000190: 17f6 5a3b 4d44 04bc 512a f73b 5668 ae3b
000001a0: a4aa 163c 3755 173c fbd9 c93c bf7e 023c
000001b0: f8cb 123c 9314 6e3b 358f 44bc d6a6 fa3b
000001c0: 6a16 103c af12 973b 9be0 d93b 5064 df3b
000001d0: 1696 7d3b d053 fe3b aa81 093c c41a 4dbc
000001e0: 74ff a03c 2f41 fa3b e06f da3b 333d 0c3c
000001f0: 80ed 093c 0e53 153c c5d2 1a3c a69f 0e3c
0.0092794 0.00360078 0.009440438 0.009240657 0.008952854 0.006610778 -0.02176621 0.022273222
0.00874407 -0.019133957 0.0025152247 -0.015502846 0.009048755 0.00906926 0.009259366 0.0053716577
0.00901915 0.007043649 0.029948913 -0.0020605973 0.006560851 0.008613711 -0.013641267 0.009062595
-0.03060957 0.009041313 0.0091920495 0.009057939 0.0089262435 0.003242723 0.009205746 0.008953521
0.0041192896 0.0036004044 0.00678155 0.008276711 0.008958868 -0.015279708 0.005041462 0.00044177583
0.00010230056 0.0034567192 0.009184353 0.007723169 0.0047883545 -0.0042425073 0.003713075 0.0074419514
0.008175582 0.009016781 0.0032212748 0.0093336245 -0.023301762 0.0038577712 -0.015614849 0.0087348465
-0.032217763 0.013194755 -0.023116393 0.009354747 0.007697089 0.007829745 -0.013517041 0.008536308
-0.011419691 -0.02333518 0.002332781 0.009059816 0.008017365 0.0076957666 0.004657112 0.0046528266
0.009409627 0.008618411 0.00902925 -0.0031678155 0.025454357 0.009218774 0.008932761 0.0002887705
0.004885389 0.005049125 -0.015498662 -0.0073842714 0.003168597 0.008813232 0.0082870005 0.024357075
0.007492128 0.0077245473 -0.005553962 0.005080151 0.0074451757 0.009227262 0.00910452 0.00938563
0.018978084 -0.0030947304 0.009001346 0.0038434803 0.003341084 -0.008072925 0.0075428863 0.0053224964
0.009195957 0.009236625 0.024640074 0.007964789 0.008959763 0.003632818 -0.011997034 0.007649283
0.008794406 0.0046103816 0.0066490895 0.006817378 0.0038694195 0.007761456 0.008392731 -0.012518588
0.01965306 0.007637165 0.0066661686 0.008559513 0.008418441 0.00911404 0.009449665 0.008705055

net_model.2.weight f4 [64, 128]
00000000: 3d16 733c 4ea6 933c 5dea 733c ac26 733c
00000010: 83df 723c fe84 793c fe8c d33d cbdb 47bd
00000020: 2b96 6f3c 6c7b e3bd 2962 c43c 9ed6 c33d
00000030: 9780 6f3c d97b 703c 8b42 733c f4ad 5c3c
00000040: ff0f 6e3c 3cad 6e3c 775e 5ebd 2f74 cd3c
00000050: 8e35 823c 2544 6e3c 276c be3d 994e 733c
00000060: aa8d cc3d 41e7 703c 0b77 713c f986 723c
00000070: a099 6f3c 0f1e 823c b0e9 713c 2eb6 733c
00000080: ff31 643c 5cbe 933c d488 7d3c 8bc7 6c3c
00000090: cfce 713c 04b4 c03d ce90 b63c 6762 cb3c
000000a0: 2490 80bd 6a6b 8e3c dc74 713c 207e 6d3c
000000b0: 1c80 b23c f623 e63c 48c9 983c e7fc 6d3c
000000c0: 5233 6d3c dbba 703c 92ae 7b3c 0bdc 743c
000000d0: d622 cd3d d628 673c 9e53 c43d 476e 6c3c
000000e0: 62fb c73d 1099 77bd 58f7 cd3d bc24 733c
000000f0: 0ee1 6d3c 78a8 613c e559 ba3d a015 6b3c
00000100: 688d 8c3d 36c7 cd3d 2e15 c23c e79b 733c
00000110: 553a 603c b9e5 6f3c effb b23c ce17 5a3c
00000120: 982b 783c 2695 683c a847 703c da54 d03c
00000130: 077c 4fbd e848 723c 16b7 6d3c 59d8 c43c
00000140: 5bd3 c83c e72b cb3c 3067 c23d e05b 1c3d
00000150: a4f8 c13c cfd9 6d3c 66f2 6c3c 8977 51bd
00000160: 192f 6f3c a6fd 6e3c 400c 413d 67aa c73c
00000170: 0c0f 5e3c 5f6d 723c fc41 713c cd22 753c
00000180: a22a 51bd 31fe d43c e7b2 6f3c f4b0 c43c
00000190: fd85 833c 8b57 2c3d 01f8 6b3c 201e 5c3c
000001a0: 37e9 713c 238d 763c 6c05 51bd 46d7 6d3c
000001b0: 2886 703c b2d2 963c 6238 9f3d 07d7 6f3c
000001c0: 7565 8ebd 2867 533c 526c 803c 9540 6f3c
000001d0: 7627 a03c fce9 6e3c fdc5 5e3c 6cad 9fbd
000001e0: 1a7f 5ebd 399a 6f3c 0e2a 853c bec6 6d3c
000001f0: 4479 603c 581c 6e3c 10c0 793c d224 6e3c
00000200: 5056 573c e1aa 7b3c ed6a 503c a2ee 5f3c
00000210: f6ca 6b3c 8528 9d3c 8442 fb3d 5a15 74bd
00000220: eacd 703c 291b e9bd 29ce f33c 8215 e03d
00000230: 7ed6 643c 3881 653c 7244 5f3c d554 b63c
00000240: 042f 633c dc89 983c 5f34 06bd abe2 eb3c
00000250: af99 aa3c 55d3 763c 1c4f dc3d 5a8c 663c
00000260: c1cc ee3d 968a 693c 077d 5e3c a6a0 663c
00000270: ed75 663c 1e47 8e3c 4135 623c 84f3 6b3c
00000280: 210f be3c 7924 783c 858b 9b3c 8614 803c
00000290: e8cb 673c 18c7 dc3d 16ac b73c 7a07 ee3c
000002a0: 7d10 4ebd 1177 823c 120f 5d3c c1de 803c
000002b0: 07b4 a53c 55e6 093d 63fc 783c 6b81 7e3c
000002c0: b4b4 6d3c 0808 673c d7ba 953c c108 583c
000002d0: c785 f33d b043 be3c 035c e03d 8984 693c
000002e0: 3a2f e73d 8325 3abd d9b7 f43d 00a9 523c
000002f0: a9ce 7a3c 0811 973c 6bd1 d83d c4d7 703c
00000300: 0333 9e3d 2476 f43d 8484 f83c 2bca 693c
00000310: 6990 913c e932 7a3c 2dff bf3c 4b6d ba3c
00000320: 5ab9 563c f48a 813c 5256 693c 9bc9 f53c
00000330: 267c 19bd 72dc 633c f106 633c c6c9 eb3c
00000340: 2b45 df3c db76 dd3c d880 de3d b332 383d
00000350: d695 f13c 5a9a 683c 44de 723c b11d 16bd
00000360: 4d79 823c fba8 7b3c 2ac4 4e3d 3ac3 dd3c
00000370: 5859 983c 9843 5c3c 7934 643c 1ae8 573c
00000380: 217a 2abd e361 f93c 2729 683c 1fc3 ee3c
00000390: 1f12 8f3c f5d1 3f3d e5cf 7c3c f503 b83c
000003a0: dc32 613c 54d4 5b3c 0fee 0ebd 2734 753c
000003b0: b9fb 693c f5e3 7a3c fce9 b43d 23f2 7d3c
000003c0: 1e81 36bd 3af6 b43c 329d 9b3c 119c 9e3c
000003d0: 29cf 833c d605 793c e9a0 8a3c 9b2e adbd
000003e0: e645 13bd 516c 7a3c c422 a83c 7c7c 793c
000003f0: fa9e 8b3c 383e 653c 63e6 583c 1e66 6a3c
0.014836845 0.018023636 0.0148874195 0.014840763 0.014823797 0.015229462 0.103296265 -0.048793595
0.014623205 -0.11107525 0.023972588 0.09562419 0.014618061 0.014677965 0.014847408 0.013469208
0.014530181 0.0145676695 -0.054289307 0.025079815 0.015894677 0.014542614 0.09297972 0.014850282
0.09987958 0.014703573 0.014737855 0.014802688 0.014624029 0.015883474 0.014765188 0.014874978
0.013927936 0.018035106 0.015474517 0.014451872 0.01475878 0.09409335 0.022285845 0.024827195
-0.06277493 0.017385203 0.014737334 0.014495403 0.021789603 0.02809332 0.018650666 0.014525629
0.014477568 0.014692987 0.015361445 0.01494504 0.1001641 0.014108857 0.09586261 0.014430589
0.09764744 -0.060448706 0.10056943 0.014840301 0.014518989 0.013773076 0.09099177 0.0143484175
0.068629086 0.10047762 0.02369174 0.014868713 0.013685782 0.0146421725 0.021848647 0.01331134
0.015147112 0.014195716 0.014665522 0.025431085 -0.05065539 0.01478789 0.014508983 0.024028944
0.024514845 0.024801208 0.09492338 0.038173556 0.023678131 0.014517262 0.014462089 -0.05113939
0.014598631 0.014586842 0.047130823 0.024373246 0.013553392 0.014796584 0.014725205 0.01496191
-0.05106605 0.026000114 0.014630056 0.02401016 0.016055102 0.042075675 0.01440239 0.013434917
0.014765075 0.015048298 -0.05103056 0.014516657 0.014680423 0.018411014 0.07774426 0.014638669
-0.06952945 0.012903012 0.015676651 0.0146028 0.019550066 0.014582153 0.013597009 -0.077967495
-0.054320432 0.014624172 0.016255405 0.014512716 0.013700787 0.014533125 0.015243545 0.014535146
0.013143137 0.015360565 0.012720806 0.013667734 0.014391651 0.01918436 0.12268546 -0.059590675
0.014697531 -0.113821335 0.02976139 0.10941602 0.013967155 0.014007859 0.0136271585 0.022257248
0.01386619 0.018620424 -0.03276479 0.028794607 0.020825235 0.015065034 0.107572764 0.014071548
0.116601475 0.014254233 0.0135796135 0.0140763875 0.014066202 0.017367896 0.013806642 0.01440132
0.023200573 0.0151454145 0.018987427 0.015634786 0.014147736 0.107801616 0.022420924 0.0290563
-0.050308693 0.015925916 0.013492363 0.015731217 0.020227445 0.033666927 0.015196892 0.015533785
0.014508415 0.014101036 0.018277569 0.013185681 0.118907504 0.023225635 0.1095505 0.01425279
0.112883046 -0.04544593 0.11949129 0.012857676 0.015308061 0.018440738 0.10586818 0.01469988
0.077245735 0.11936596 0.030336626 0.014269392 0.017769055 0.015270927 0.023437107 0.022757193
0.013105715 0.015813328 0.014241772 0.03000336 -0.037471913 0.013907539 0.013856635 0.028782737
0.027254662 0.027034214 0.10864419 0.044970226 0.029490393 0.0141969565 0.0148235 -0.03664941
0.015926981 0.015360112 0.050480045 0.02707063 0.01859729 0.01344385 0.013928526 0.013177896
-0.041620377 0.030442184 0.014169968 0.029145775 0.017464695 0.04683109 0.015430425 0.022462824
0.013745036 0.013417322 -0.034895 0.014966047 0.014281207 0.015313138 0.088336915 0.015499624
-0.04455673 0.022090066 0.018995855 0.019361528 0.016089993 0.015199145 0.016922431 -0.08456155
-0.035955332 0.015284614 0.02052439 0.015227433 0.01704358 0.013991885 0.013238522 0.014306573

net_model.2.bias f4 [64]
00000000: 7560 cb3b bd39 b0bc 6b32 c73b 9150 903b
00000010: f07b 22a6 2708 d3ba 08bd 2fba d051 c73b
00000020: 27a9 17bb 3235 a1b4 97b2 abbc 6854 cb3b
00000030: bdc9 0aad 5385 ca3b 0eb9 c63b 77ed ca3b
00000040: 60e0 a0bc b601 ca3b 9f86 8ab4 cc9d 938e
00000050: 3d05 cc3b e127 19ba 3344 cc3b fdd4 ca3b
00000060: ef8f c83b 2ad6 6aba f4f4 033d dba8 e53c
00000070: 8fbd 76a6 5168 64b6 b391 8abb eb6c ca3b
00000080: 7270 cb3b 11df ca3b a0d3 ca3b 017b ca3b
00000090: 8284 c83b deb0 9cba 43a2 99a0 0c28 e3b3
000000a0: 70e8 ca3b 2751 aeab c54f c73b 2cb0 cb3b
000000b0: 5790 cf3c da2c 903b b4c4 ca3b 6b14 c4af
000000c0: ff5f cb3b e64c cb3b a258 afbc 40b1 ca3b
000000d0: fbb3 88b2 e85e cb3b 8260 ca3b cc2e 0abb
000000e0: 63a7 81b8 61f9 c93b ab28 19b9 6b5b cb3b
000000f0: 41c4 cb3b 60d8 ca3b 415f 84b4 455e f93c
0.006206567 -0.021511907 0.0060790083 0.0044041355 -5.6373007e-16 -0.0016100452 -0.0006703888 0.006082751
-0.0023141594 -3.0027292e-07 -0.020959182 0.0062051304 -7.889187e-12 0.0061804443 0.0060645407 0.006192859
-0.01963824 0.0061647547 -2.5802453e-07 -3.639025e-30 0.0062262104 -0.0005842429 0.006233716 0.006189941
0.006120674 -0.00089583045 0.032216027 0.028034618 -8.5605295e-16 -3.4035368e-06 -0.0042287945 0.006177535
0.006208473 0.0061911424 0.0061897784 0.006179214 0.006119312 -0.0011954566 -2.6026584e-19 -1.0577796e-07
0.0061922595 -1.2385968e-12 0.0060825073 0.0062160697 0.025337381 0.004399878 0.0061879996 -3.56667e-10
0.006206512 0.0062042354 -0.021404568 0.0061856806 -1.591433e-08 0.006206382 0.0061760554 -0.0021085022
-6.1823775e-05 0.0061637615 -0.00014606367 0.006205966 0.0062184636 0.0061903447 -2.4656222e-07 0.030440459

net_model.4.weight f4 [32, 64]
00000000: 8f4f 323d 066c 853d 233e 333d 55c7 343d
00000010: 8598 f722 ad0b 0235 7afd 6bb0 542b 323d
00000020: 9765 1538 1164 1703 cab8 5f3d 70ff 313d
00000030: 3893 3e83 4ad2 313d 1b70 323d d277 323d
00000040: 606b 563d e44a 323d 8a92 262f 4e2c 0702
00000050: c529 323d 28fd 4932 db2a 323d c0d6 313d
00000060: f425 323d 201e d339 6622 893d 2584 75bd
00000070: 30f8 6c03 4fda 1b83 12c3 243a 83a2 313d
00000080: 8027 323d d35e 323d 80c6 313d bfc3 323d
00000090: 9f35 323d 85e2 8732 b4b3 1e03 e7eb 5803
000000a0: c7b9 313d 5541 2c02 bf0c 323d 5422 323d
000000b0: 65c4 84bd 8b4a 353d bde1 313d ded6 f481
000000c0: 032c 323d f294 323d 381b 873d a0ce 313d
000000d0: dcc9 3603 23a5 313d 1647 323d fdd0 5eb8
000000e0: e3df 899f 8a34 313d 2df6 0192 b6ce 313d
000000f0: 3821 323d 7279 323d 432f f0af 1e2f 75bd
00000100: 102a 8501 9b1b 5903 87af 1e02 6139 3a83
00000110: c208 4703 bab2 1f83 a8ef 2483 d2a9 9082
00000120: 0efb 4503 f626 4383 7157 3603 92ee 1b03
00000130: 15e4 4483 c717 3902 d1fe 0583 c26e 2d83
00000140: 8a71 2783 f803 4003 0a36 7d82 3997 6483
00000150: 1a3a 2c03 65ab 3182 b93f 0683 caf8 d781
00000160: 1444 3803 60e3 2483 496c 1503 7741 0e03
00000170: 8556 0282 220e 2783 4c15 2883 6c37 3303
00000180: dcec 2e83 ac9d 2b03 f192 6e03 0204 bc81
00000190: 0037 0183 5602 5a83 d888 4803 4700 0c03
000001a0: 3b95 5803 280d 5083 7f03 3703 4416 0f83
000001b0: 3d91 9382 4600 b082 d453 9381 ec6d 2683
000001c0: 7994 0703 b710 4003 8714 1603 656e 2283
000001d0: f8e2 d880 7291 4a83 e873 3103 e7f4 2983
000001e0: a526 ea02 cc33 4103 95b5 ec82 972b 2283
000001f0: d9f0 6b83 b863 2403 e16a 4483 e9ef 4583
00000200: 94fc 3e03 00cf 8101 c89a c182 05f0 1a03
00000210: f618 1183 a653 5883 9029 5303 6271 3903
00000220: ae9f 1003 d630 1883 6fe5 2583 c936 2f83
00000230: 60c7 1183 be53 fe82 ee5d c682 c79f 3b83
00000240: 64a3 4603 af5e 3b83 80e7 1e03 df4a 5403
00000250: 06bb 3c03 93c4 1b83 8084 e000 1348 1603
00000260: 2d5d 1c83 f767 c682 2a7e ef82 f783 0203
00000270: 6eea 1f03 4e65 0883 a872 5883 1831 ce01
00000280: 5ce7 5183 d6a0 0f83 f0fe 3203 1a00 2203
00000290: 608a b302 70e1 3c03 c4ef 1603 7413 2e03
000002a0: 9c74 3903 2452 5b83 0c35 a182 3aeb b102
000002b0: 02fd ac81 a41a 9582 8507 1d03 769d 3d03
000002c0: 6249 5883 6e0f d002 c257 5a02 9f97 b282
000002d0: 809c 7801 3ed0 1503 d9b3 4103 d0d3 ac82
000002e0: b172 3f83 182d 2883 9b2c 2c03 da5a d582
000002f0: 1f99 4c03 925d 3183 4cdb 0b83 aa6b 2103
00000300: 6299 1403 cc84 1983 b77b 4003 6faa 1c83
00000310: 944a 3482 ae92 3d83 c23b 3983 38ad af02
00000320: e6ab 1003 9d3f f882 64bc 1703 5fe9 1983
00000330: a957 0302 86c9 3083 5f4a 6f02 ea32 5603
00000340: 6c2a b202 1d1e 1f03 0cb8 4a83 91c2 cb02
00000350: 8cef 5083 a2d1 0e83 ecb1 6183 6ad9 2503
00000360: f970 0683 fed6 f802 0bcc 6b83 0ee2 2603
00000370: f5d1 1983 daed 4283 c8ad 1383 c6de 1603
00000380: 64cb 5a03 9881 5183 cdd7 d582 be37 3f03
00000390: 602b 5103 e6f1 3903 60ba 1583 9928 5883
000003a0: 3164 6303 a5de 4503 8ec2 2b03 0e85 5d03
000003b0: 431c 2e82 543f af82 0f92 4e83 9664 4503
000003c0: 503b 3b03 6e26 4403 30d3 4983 f884 1a03
000003d0: d24d 2483 2acc 5283 e470 4281 af2c 1583
000003e0: 3e15 2603 84de 9881 6ec6 db81 a8a5 fe02
000003f0: 4209 4783 aaf0 5783 fb10 2583 6638 4583
0.043532904 0.065147445 0.04376043 0.04413541 6.711097e-18 4.8445764e-07 -8.5852714e-10 0.043498352
3.561898e-05 4.4489782e-37 0.054619588 0.043456495 -5.600498e-37 0.043413438 0.043563943 0.0435713
0.052348495 0.043528453 1.5149673e-10 9.930948e-38 0.043496866 1.1757301e-08 0.0434979 0.043417692
0.043493226 0.000402675 0.06696014 -0.059940476 6.963907e-37 -4.580101e-37 0.0006285171 0.043367874
0.0434947 0.043547463 0.043402195 0.04364371 0.04350817 1.5819078e-08 4.6638316e-37 6.3747498e-37
0.04339006 1.2655314e-37 0.043469187 0.04348977 -0.06482772 0.044260543 0.04342817 -8.9939764e-38
0.043499004 0.043599077 0.065969884 0.043409944 5.3716716e-37 0.043370377 0.043524824 -5.312356e-05
-5.8392146e-20 0.043262996 -4.100866e-28 0.043410026 0.04348871 0.04357285 -4.3689327e-10 -0.059859388
4.891684e-38 6.380226e-37 1.1658381e-37 -5.4726355e-37 5.8490897e-37 -4.693107e-37 -4.847038e-37 -2.125637e-37
5.8181293e-37 -5.7350075e-37 5.358537e-37 4.582427e-37 -5.786105e-37 1.3598477e-37 -3.93777e-37 -5.0967274e-37
-4.9207226e-37 5.6428285e-37 -1.8603013e-37 -6.7176773e-37 5.0612954e-37 -1.3053094e-37 -3.945221e-37 -7.933552e-38
5.415089e-37 -4.845628e-37 4.391147e-37 4.18052e-37 -9.575721e-38 -4.9093113e-37 -4.939521e-37 5.2666993e-37
-5.1405905e-37 5.043338e-37 7.0110594e-37 -6.9066044e-38 -3.797283e-37 -6.4067124e-37 5.8931806e-37 4.114262e-37
6.3648003e-37 -6.114081e-37 5.378288e-37 -4.2049483e-37 -2.1683071e-37 -2.5861033e-37 -5.411956e-38 -4.89092e-37
3.9843373e-37 5.6442917e-37 4.4104602e-37 -4.773425e-37 -1.9917888e-38 -5.9529428e-37 5.214868e-37 -4.994577e-37
3.440539e-37 5.6777062e-37 -3.4781306e-37 -4.765756e-37 -6.9336773e-37 4.830974e-37 -5.7721914e-37 -5.81685e-37
5.6125927e-37 4.7684146e-38 -2.8447641e-37 4.553206e-37 -4.2640324e-37 -6.357272e-37 6.205504e-37 5.449677e-37
4.25011e-37 -4.4724846e-37 -4.875252e-37 -5.149077e-37 -4.284054e-37 -3.7370011e-37 -2.9147398e-37 -5.5137776e-37
5.8374534e-37 -5.5063052e-37 4.6697776e-37 6.238715e-37 5.5462927e-37 -4.577606e-37 2.0618683e-38 4.4163775e-37
-4.595124e-37 -2.9153158e-37 -3.5190308e-37 3.8355055e-37 4.6995013e-37 -4.00831e-37 -6.3608314e-37 7.5742895e-38
-6.1685167e-37 -4.2208554e-37 5.2602153e-37 4.760764e-37 2.638111e-37 5.5507024e-37 4.4356276e-37 5.1156335e-37
5.4500475e-37 -6.445261e-37 -2.3687271e-37 2.6142826e-37 -6.354587e-38 -2.1908873e-37 4.6146785e-37 5.5722864e-37
-6.3560934e-37 3.057171e-37 1.6041296e-37 -2.6241776e-37 4.566269e-38 4.4026215e-37 5.6924057e-37 -2.5394703e-37
-5.6261515e-37 -4.942253e-37 5.059746e-37 -3.1349683e-37 6.0125986e-37 -5.212304e-37 -4.110017e-37 4.743724e-37
4.3669366e-37 -4.5115102e-37 5.6565747e-37 -4.603993e-37 -1.3245714e-37 -5.571049e-37 -5.4435212e-37 2.5813362e-37
4.2515126e-37 -3.6476837e-37 4.4591174e-37 -4.5230556e-37 9.649517e-38 -5.195309e-37 1.758029e-37 6.2947394e-37
2.6179098e-37 4.676047e-37 -5.957374e-37 2.9939845e-37 -6.1400693e-37 -4.1970696e-37 -6.63258e-37 4.873872e-37
-3.9508747e-37 3.6563724e-37 -6.9294523e-37 4.9042514e-37 -4.520368e-37 -5.7284516e-37 -4.339891e-37 4.433677e-37
6.4297923e-37 -6.1568346e-37 -3.14214e-37 5.6193844e-37 6.146937e-37 5.46443e-37 -4.4001113e-37 -6.35233e-37
6.682432e-37 5.814868e-37 5.047572e-37 6.50988e-37 -1.2791612e-37 -2.5750287e-37 -6.0705626e-37 5.8008564e-37
5.502245e-37 5.764334e-37 -5.9311022e-37 4.5409173e-37 -4.82846e-37 -6.1947822e-37 -3.5713168e-38 -4.383846e-37
4.88074e-37 -5.6155276e-38 -8.073263e-38 3.7417028e-37 -5.849147e-37 -6.345909e-37 -4.8508635e-37 -5.795784e-37

net_model.4.bias f4 [32]
00000000: 6cf4 723b 1ce9 0bba 8bbb e2b9 f141 18ba
00000010: fefd 683b 54db 8ab9 1da3 09ba fedb 723b
00000020: 8326 14ba 2402 6a3b 0112 693b 8997 0fba
00000030: c8ba 683b 2803 6a3b a24a d3b9 8a13 693b
00000040: a5c5 0aba f2c7 dcbb f00d 693b 5ffa bbb9
00000050: 57ce 723b 8b06 693b 7fab 0eba ee1c 01b5
00000060: f167 cdb9 508e 6d3b 028f 55b9 6563 9a3b
00000070: 4e3b a0bb 727a 6d3b c366 6d3b 40e5 723b
0.0037071956 -0.0005337165 -0.0004324581 -0.0005808166 0.0035551782 -0.00026484823 -0.0005250441 0.0037057395
-0.00056514906 0.0035706842 0.003556371 -0.00054775976 0.003551172 0.0035707448 -0.00040300662 0.0035564625
-0.00052937336 -0.0067377025 0.0035561286 -0.0003585396 0.0037049258 0.0035556878 -0.0005442425 -4.8098343e-07
-0.0003917809 0.0036248155 -0.00020366538 0.004711556 -0.004889882 0.0036236313 0.003622458 0.0037062913

net_model.6.weight f4 [1, 32]
00000000: 86c7 2fbd f072 3a83 7407 2b82 6056 4e83
00000010: ebd9 2fbd fd58 2783 a9fc 6983 e1df 2fbd
00000020: aeb3 cc82 31c6 2fbd ecc7 2fbd 5ac9 4a83
00000030: 8430 30bd 5ad3 2fbd 2b2f 20ba 5aec 2fbd
00000040: 2fe6 4183 fbea 33bd e100 30bd 437e 14ba
00000050: 97c9 2fbd 1dce 2fbd 6699 6183 637f 4003
00000060: 7e89 5083 84c2 2fbd 5b9a 4483 4305 30bd
00000070: 5d98 32bd c8d9 2fbd 51e1 2fbd 1811 30bd
-0.04291489 -5.479243e-37 -1.2565235e-37 -6.0637113e-37 -0.042932432 -4.9179043e-37 -6.8762586e-37 -0.042938117
-3.0078237e-37 -0.04291362 -0.04291527 -5.9593605e-37 -0.043015018 -0.04292617 -0.0006110544 -0.04295001
-5.698184e-37 -0.043925267 -0.04296959 -0.00056645664 -0.04291686 -0.042921174 -6.629765e-37 5.656996e-37
-6.128354e-37 -0.042910114 -5.7776415e-37 -0.042973768 -0.043602336 -0.0429323 -0.042939488 -0.042985052
