src/t1dsim_ai/models/IndividualModel/T1DEXI-01-0880/individual_model.pt (torch, 50089 bytes, 7 tensors)

net_model.0.weight f4 [128, 10]
000000 c9 58 49 bd 0e 35 42 3d 50 ac 52 bd 78 61 83 bc
       -0.049156938 0.04741388 -0.05143386 -0.016037688
000010 99 9b b4 3c 51 48 ba 3a 40 5c 88 3b 8b a4 a8 bb
       0.022046851 0.0014212226 0.0041613877 -0.005146568
000020 88 e9 f2 bb 0e 36 96 3c a5 e0 67 bd 71 4c 51 3d
       -0.007413093 0.018336322 -0.056610722 0.05109829
000030 7f 9e 31 bd 49 56 88 bc 7c ee b1 3c 25 a8 90 b9
       -0.043364044 -0.016642706 0.021720164 -0.00027591098
000040 d9 8e 2e 3b d7 f6 00 bc be ee 5e bb c9 ba 4b 3c
       0.0026635437 -0.007871351 -0.0034016813 0.01243467
000050 71 a7 48 bd 68 7d 43 3d 59 4e 53 bd 9b f9 81 bc
       -0.04898781 0.04772702 -0.05158839 -0.015866091
000060 a5 25 b6 3c 0d b8 cb 3a 02 3b 87 3b b8 50 ac bb
       0.022234747 0.0015542522 0.0041269073 -0.005258646
000070 8d a5 f1 bb 52 3a 97 3c 53 64 49 bd d9 5e 42 3d
       -0.0073744715 0.018460426 -0.049167942 0.047453735
000080 08 6c 53 bd e5 e8 82 bc 6e d3 b4 3c 35 5d a5 3a
       -0.0516167 -0.015980193 0.022073474 0.0012616279
000090 bb 73 8a 3b f7 2e aa bb 81 08 f1 bb ab 8f 95 3c
       0.004225222 -0.005193587 -0.00735575 0.018256983
0000a0 ef 30 4b bd 2f 6e 42 3d 8e ac 53 bd 3e 2d 85 bc
       -0.049607214 0.04746836 -0.051678233 -0.016256925
0000b0 36 a5 b3 3c 41 9f 91 3a 12 64 84 3b a9 c9 a3 bb
       0.021929365 0.0011110083 0.0040402496 -0.004998405
0000c0 28 6f f0 bb 56 be 94 3c 11 bc 4a bd 30 35 43 3d
       -0.0073374696 0.018157165 -0.04949576 0.047658145
0000d0 63 1c 53 bd d8 4f 85 bc ee 1e b4 3c a9 d3 a4 3a
       -0.051540744 -0.016273424 0.021987405 0.0012575287
0000e0 72 49 83 3b 54 48 a3 bb 6e f0 ee bb 22 67 95 3c
       0.004006558 -0.0049829874 -0.007291845 0.018237654
0000f0 d0 37 b5 bd b7 fa 37 bd a9 bc 07 3d 4a fb 26 3d
       -0.08848536 -0.044916835 0.033138905 0.04076699
000100 bc 35 32 bd 81 8f 4a bc 6b 6a 10 3d dc c0 c8 3c
       -0.043508276 -0.012363316 0.035257738 0.024506025
000110 c2 4e 02 bd 91 6d 1a 3c f5 7b af bd 8a 38 39 bd
       -0.03181339 0.009425537 -0.08568565 -0.045219935
000120 a8 6f e9 3c a8 c0 6a 3d 11 07 c0 bc ab 39 bb bc
       0.028495625 0.057312638 -0.02344087 -0.022854647
000130 9b 0a 8f 3c 13 13 1e 3c 15 71 4c bc a1 07 1f 3c
       0.017461112 0.009648102 -0.012478133 0.009706409
000140 aa fb 49 bd 5d 19 43 3d 9a a7 53 bd 2f 32 83 bc
       -0.04931227 0.04763161 -0.05167351 -0.01601514
000150 d4 01 b5 3c ef 94 9a 3a 21 75 87 3b d4 7a a9 bb
       0.022095598 0.0011793653 0.004133836 -0.005172113
000160 c2 d4 ee bb eb 93 95 3c 80 7c 6b bd 13 09 53 3d
       -0.0072885463 0.01825901 -0.05749178 0.051522326
000170 fc cd 2d bd 9c 05 99 bc 93 26 b2 3c c9 8b 48 b9
       -0.04243277 -0.018679433 0.02174691 -0.0001912556
000180 dc 92 31 3b 0f f8 06 bc 95 63 0d bb 8d 8d 21 3c
       0.0027095592 -0.008237853 -0.0021574248 0.0098604085
000190 69 35 4c bd 08 a8 43 3d da ec 52 bd 91 46 84 bc
       -0.049855623 0.04776767 -0.05149541 -0.01614693
0001a0 65 97 b3 3c 1e 99 6c 3a 38 b2 88 3b bd 85 a3 bb
       0.021922776 0.0009025502 0.004171636 -0.004990308
0001b0 e0 e4 e8 bb 22 f2 94 3c 3c fb 8a bd 48 15 6c 3d
       -0.007107362 0.018181864 -0.067862004 0.057637483
0001c0 75 75 04 bd 50 5f 61 bc e8 26 be 3c 45 55 2e 3a
       -0.03233858 -0.013755634 0.023211911 0.00066502794
0001d0 7d 25 11 bc 19 c9 52 bb 05 91 a0 bc cc 61 2d 3d
       -0.008859036 -0.003216332 -0.0196004 0.042329594
0001e0 57 94 49 bd a8 dd 42 3d 99 ff 52 bd d3 25 83 bc
       -0.049213734 0.04757467 -0.05151329 -0.016009247
0001f0 42 e8 b5 3c 73 4f b4 3a 4a e5 88 3b a1 28 ac bb
       0.022205476 0.0013756588 0.004177724 -0.005253867
000200 7d 55 f1 bb 8a 36 96 3c 92 a4 49 bd 56 91 42 3d
       -0.0073649273 0.018336553 -0.049229212 0.047501884
000210 d8 55 53 bd e9 b3 83 bc e1 5a b5 3c b2 2c ae 3a
       -0.05159554 -0.016076999 0.022138061 0.0013288467
000220 22 5c 85 3b ad 48 ab bb 2e 0f f1 bb 95 0f 96 3c
       0.004069821 -0.0052271695 -0.007356546 0.018317977
000230 39 dd 48 bd 09 cb 42 3d 2b e6 52 bd ee 26 82 bc
       -0.0490391 0.04755691 -0.051489037 -0.015887704
000240 d9 0d b4 3c d1 7d ad 3a 91 a9 89 3b 50 df a9 bb
       0.02197926 0.0013236349 0.004201122 -0.0051840916
000250 54 7c f0 bb 3b 17 96 3c f1 81 4a bd 82 c4 42 3d
       -0.00733904 0.018321624 -0.049440328 0.047550686
000260 5a 79 53 bd 93 40 85 bc 96 75 b3 3c 8f 2d 98 3a
       -0.0516294 -0.016266143 0.021906655 0.0011610257
000270 6f df 87 3b dd 73 ad bb 6e a6 ec bb 92 5f 95 3c
       0.0041465084 -0.005293353 -0.0072219884 0.018234048
000280 d6 c8 4a bd 94 e4 42 3d 07 68 52 bd f9 76 84 bc
       -0.04950794 0.04758127 -0.05136874 -0.016170012
000290 66 47 b4 3c e0 10 a3 3a 2d 87 86 3b ce cd a7 bb
       0.022006702 0.0012440942 0.0041054697 -0.0051209694
0002a0 f3 b6 ef bb cf de 95 3c 3c 85 4b bd 50 57 43 3d
       -0.0073155104 0.01829472 -0.04968761 0.04769069
0002b0 38 93 53 bd c5 e2 84 bc 24 04 b3 3c 6b 08 9c 3a
       -0.05165407 -0.016221413 0.02185256 0.0011904364
0002c0 d9 09 87 3b 15 43 a7 bb 30 64 ef bb 53 db 95 3c
       0.004121047 -0.0051044323 -0.0073056445 0.018293058
0002d0 38 48 8c bd 32 d4 5e 3d 86 90 0d bd cd ae c1 bc
       -0.06849712 0.054401584 -0.034561656 -0.023642922
0002e0 35 18 bf 3c 2c 7f 3b 39 b4 68 c0 bb af 82 c3 bb
       0.023326972 0.00017881085 -0.0058718566 -0.0059665064
0002f0 dc d2 3d bc ba 12 f0 3c dd 0a 4b bd d0 08 43 3d
       -0.011585917 0.029305805 -0.049570907 0.047615826
000300 3c f3 52 bd 95 c2 83 bc e2 00 b5 3c 16 96 99 3a
       -0.051501498 -0.016083995 0.022095148 0.0011717703
000310 b9 f0 84 3b c7 3b a8 bb a6 a1 ef bb 79 04 96 3c
       0.0040570167 -0.005134079 -0.007312971 0.01831268
000320 bf 99 4a bd 08 1e 43 3d 5c 47 53 bd 38 06 84 bc
       -0.04946303 0.047636062 -0.051581725 -0.016116247
000330 b9 26 b4 3c 81 fa 9e 3a 43 52 82 3b a9 38 ac bb
       0.02199112 0.0012129099 0.0039770915 -0.005255778
000340 ab d1 ee bb b7 a0 96 3c 67 8c 4a bd 75 e1 42 3d
       -0.007288178 0.018387182 -0.049450304 0.047578294
000350 af 29 53 bd 51 7f 83 bc 30 2a b4 3c db d5 9f 3a
       -0.051553424 -0.01605192 0.021992773 0.0012194471
000360 4f 74 88 3b d5 7a a3 bb 3a 26 f2 bb 9a 62 95 3c
       0.0041642557 -0.004989008 -0.007389811 0.018235493
000370 97 e4 7e bd e4 f8 4f 3d 59 ff 26 bd 16 3b b4 bc
       -0.06222972 0.05077447 -0.040770862 -0.02200083
000380 e6 f5 b4 3c 5e 3e b2 b9 64 13 87 3b 2a fd 6a bc
       0.02208991 -0.00033997273 0.0041221846 -0.014342586
000390 94 42 9f b9 57 61 b9 3b e7 6c 49 bd b7 93 42 3d
       -0.00030376448 0.0056573558 -0.049176123 0.047504153
0003a0 43 10 53 bd 7b d3 82 bc b1 93 b3 3c 07 66 a6 3a
       -0.05152918 -0.015969982 0.02192101 0.0012695201
0003b0 b6 33 88 3b 57 9f ac bb b7 bc ee bb d2 13 96 3c
       0.004156555 -0.005268018 -0.00728568 0.018319998
0003c0 d2 1d 8c bd 18 3e 5e 3d bb 59 0d bd c2 0f c4 bc
       -0.06841625 0.054258436 -0.0345094 -0.023933295
0003d0 8e a3 bf 3c 73 7a 31 39 2e dd bd bb 0b 61 c5 bb
       0.023393419 0.00016925651 -0.005794189 -0.0060235313
0003e0 29 28 39 bc 2c 3e ea 3c 02 bc 49 bd ac d5 42 3d
       -0.011301079 0.028594099 -0.049251564 0.047567055
0003f0 b8 5d 53 bd 99 c3 83 bc 64 10 b5 3c 05 4a 9b 3a
       -0.05160305 -0.01608448 0.022102542 0.0011847621

net_model.0.bias f4 [128]
000000 af 4e 16 3b e7 a9 a9 bb 55 d5 1d 3b c1 dc 14 3b
       0.0022935083 -0.0051777246 0.0024083455 0.0022714587
000010 7b c7 0c 3b db dd 11 3b eb 8e cc 3c dd ff 0b 3d
       0.0021481204 0.002225748 0.024970492 0.034179557
000020 70 43 16 3b 58 27 ca bb 73 b1 07 3b e5 63 31 bc
       0.002292838 -0.006169241 0.0020705133 -0.010827039
000030 09 ef 17 3b ec dc 14 3b 52 f7 16 3b 4b 7e 11 3b
       0.0023183248 0.0022714688 0.0023035598 0.002220052
000040 bd e6 0e 3b 0e c6 0c 3b be 5c 35 bc a7 7d 0f 3b
       0.0021805011 0.0021480354 -0.011069475 0.0021894963
000050 eb d5 11 3b 08 30 0c 3b 67 6c 02 bc 4a bc 11 3b
       0.002225275 0.0021390934 -0.007960415 0.0022237473
000060 0c 16 37 bc 98 85 16 3b 03 5a 17 3b 0f d7 19 3b
       -0.01117469 0.0022967812 0.0023094423 0.0023474132
000070 31 48 10 3b 75 f5 05 bc a4 24 14 3b 69 89 10 3b
       0.0022015686 -0.008176197 0.0022604847 0.002205456
000080 05 04 02 3b 15 28 0a 3b a7 ef 0a 3b 43 85 0d 3b
       0.0019838822 0.002108102 0.0021199973 0.0021594323
000090 fe f3 0a 3b bf 22 a7 bb f8 1b 12 3b 06 ea c7 bb
       0.002120256 -0.0051005776 0.0022294503 -0.006100896
0000a0 f5 32 04 3d dc a8 c1 bb 3a d8 15 3b 78 07 18 3b
       0.03227516 -0.005910022 0.0022864477 0.002319781
0000b0 9c 86 07 3b de e8 d7 bb 7d bd db bb 1f 10 0d 3b
       0.0020679599 -0.006589039 -0.0067059384 0.0021524501
0000c0 41 ff 12 3b d0 5c 14 3b 20 ae 0d 3b df 8e 12 3b
       0.0022429975 0.0022638328 0.002161868 0.002236299
0000d0 96 50 0a 3b c2 06 06 3b 76 ea 31 bc 91 4a 12 3b
       0.0021105162 0.0020450805 -0.0108591225 0.0022322277
0000e0 39 1f 33 bc fd 7e de bb 4b 73 1a bc ca 12 17 3b
       -0.010932737 -0.0067900405 -0.009426902 0.002305197
0000f0 b6 e0 14 3b 1e fb 0c 3b a0 d5 03 3d 3b f6 0c 3b
       0.0022716946 0.0021511982 0.03218615 0.002150907
000100 03 b1 19 bc fc 0e be bb 5f ca 9a bb 1c 43 14 3b
       -0.009380582 -0.005800126 -0.0047238315 0.0022623008
000110 54 51 60 3a 23 e3 0f 3b 83 b0 0b 3b 06 12 03 3b
       0.0008557041 0.0021955452 0.0021314926 0.0019999756
000120 f4 51 16 3b 4e 18 09 3b 4c 07 17 3b a4 fa a3 bb
       0.0022937031 0.0020919028 0.002304512 -0.005004244
000130 28 f7 0e 3d 92 30 19 3b 75 d5 f3 3a 68 b4 9f 3a
       0.034903675 0.0023374897 0.0018603044 0.0012184503
000140 23 20 0d 3b 1a eb f5 3a ef ed bd bb cb df 0a 3b
       0.0021534048 0.0018762082 -0.005796186 0.002119052
000150 8e ce a8 bb b3 1b 11 3b 84 7e 0b 3b f5 17 e1 bb
       -0.0051515764 0.0022141754 0.0021285126 -0.006869311
000160 16 99 11 bb 1d f5 16 3b bd 0c 22 bc bc 3a d1 bb
       -0.002221649 0.0023034282 -0.009890732 -0.0063851755
000170 46 14 12 3b f5 97 19 3b d4 d6 19 3b a7 10 1a 3b
       0.0022289916 0.002343652 0.0023473995 0.002350846
000180 a6 a7 cd 3c b4 72 0c 3b 86 5d 18 3b 4f 27 9f ba
       0.025104355 0.0021430673 0.0023249104 -0.0012142452
000190 6a c8 09 ba 18 26 31 bc 69 c4 fd 3a f3 2a 0b 3b
       -0.0005255999 -0.010812305 0.0019360903 0.0021235317
0001a0 5f cd 13 3b 0b 63 12 3b 9b 07 32 bc b4 3d 17 3b
       0.002255283 0.0022336866 -0.010866071 0.002307755
0001b0 e5 bb 15 3b a5 0f 87 bb 67 fb 30 bc 7b 9b 14 3b
       0.002284759 -0.004121738 -0.0108021265 0.0022675681
0001c0 52 62 ce 3c 0d 24 0b 3b 3a 98 00 3b ce e9 0f 3b
       0.025193367 0.0021231205 0.0019621984 0.0021959427
0001d0 b6 c7 0b 3b 63 d5 10 3b 4b 35 14 3b 09 bb 33 bc
       0.0021328754 0.0022099845 0.0022614773 -0.010969886
0001e0 52 a8 07 3d 14 9d 13 3b 92 97 bd bb e5 05 f4 3a
       0.033119507 0.0022524046 -0.005785891 0.0018617479
0001f0 43 7d 15 3b 3c 51 15 3b 24 60 17 3b fa cc 17 3b
       0.0022810258 0.0022784015 0.0023098076 0.0023162947

net_model.2.weight f4 [64, 128]
000000 23 2b 07 3d ed ef 0c 3d b3 be 06 3d 98 0b 07 3d
       0.033000123 0.0344085 0.03289671 0.03297004
000010 6e c3 08 3d 91 85 08 3d 4f db 8e bd 14 d2 8b bd
       0.0333895 0.033330504 -0.069754235 -0.068271786
000020 8e d0 07 3d 50 e5 10 3d 71 a2 09 3d 7e 04 51 3d
       0.033157878 0.03537494 0.03360218 0.051029675
000030 27 45 07 3d 70 8e 07 3d 7b c6 06 3d 26 df 07 3d
       0.033024933 0.033094823 0.03290413 0.033171795
000040 89 2e 08 3d 1a e1 08 3d dd ba 3f 3d 9b 43 08 3d
       0.033247504 0.0334178 0.046809066 0.0332676
000050 ba 84 07 3d 92 9d 08 3d 84 26 1b 3d d0 93 07 3d
       0.033085562 0.033353396 0.03787853 0.03309995
000060 7e f8 3e 3d 6d 8c 07 3d 0c ed 06 3d 5a 27 07 3d
       0.0466237 0.033092905 0.03294091 0.032996513
000070 08 a4 08 3d 4d d6 1b 3d 6b 35 07 3d 4b 54 08 3d
       0.033359557 0.03804617 0.033009928 0.033283513
000080 c9 84 09 3d 82 67 08 3d c3 d4 08 3d 00 c8 08 3d
       0.0335739 0.033301838 0.03340603 0.03339386
000090 a2 23 09 3d a6 45 0d 3d 9b 13 08 3d 68 00 10 3d
       0.033481248 0.03449025 0.033221822 0.035156637
0000a0 3a 44 82 bd 45 1f 0f 3d 56 09 07 3d 8a cb 07 3d
       -0.063606694 0.03494193 0.032967888 0.033153094
0000b0 e0 01 09 3d 30 de 13 3d b5 86 12 3d f2 3a 08 3d
       0.033449054 0.036100566 0.035772998 0.03325934
0000c0 1c 83 07 3d b6 9c 07 3d c9 c4 08 3d 81 c4 07 3d
       0.03308402 0.033108436 0.033390794 0.033146385
0000d0 98 5d 09 3d 34 5f 09 3d 0b a9 2c 3d d0 e1 07 3d
       0.033536524 0.03353806 0.0421534 0.033174336
0000e0 eb 0d 30 3d a1 fc 13 3d a5 20 20 3d a8 aa 06 3d
       0.042982023 0.036129598 0.039093632 0.032877594
0000f0 17 fa 07 3d d9 ea 08 3d 2a f8 81 bd ba 12 08 3d
       0.03319749 0.033427093 -0.06346162 0.033220984
000100 f4 43 21 3d 77 cb 0e 3d ba 4e 0d 3d ba 33 08 3d
       0.039371446 0.034862008 0.034498908 0.033252455
000110 04 10 0a 3d 3b 25 08 3d 63 ad 08 3d 79 6f 09 3d
       0.03370668 0.03323863 0.03336848 0.033553574
000120 0f b2 07 3d e2 2d 08 3d 26 e8 06 3d 9b 07 0d 3d
       0.033128794 0.033246882 0.032936238 0.03443108
000130 1d 29 8e bd 53 e0 06 3d 96 6f 09 3d 03 fc 09 3d
       -0.069414355 0.032928776 0.033553682 0.033687603
000140 aa dc 08 3d cf f1 09 3d 1e f0 0d 3d 90 9d 08 3d
       0.033413567 0.033677872 0.03465282 0.03335339
000150 0a 9a 0d 3d 4c 9a 07 3d 43 c0 08 3d 36 ea 15 3d
       0.03457073 0.033106133 0.03338648 0.036600314
000160 89 fa 0b 3d 9f f1 06 3d bb 9e 27 3d f3 0a 11 3d
       0.034174476 0.03294527 0.04092286 0.035410833
000170 08 99 08 3d 25 51 07 3d 79 ba 06 3d 0d f5 06 3d
       0.033349067 0.03303637 0.032892678 0.032948542
000180 fc 81 93 bd 44 72 09 3d 98 4d 07 3d 60 29 0b 3d
       -0.07202527 0.033556238 0.033032984 0.033975005
000190 ed a3 0a 3d 0f 39 2e 3d 73 fb 08 3d 34 58 09 3d
       0.033847738 0.042534884 0.033442926 0.033531383
0001a0 8c 53 07 3d ab 1d 08 3d 60 1b 5c 3d 8f d9 07 3d
       0.03303866 0.03323142 0.053737044 0.033166464
0001b0 fb c7 07 3d 42 c6 0c 3d 67 3e 2e 3d ae e1 07 3d
       0.0331497 0.03436876 0.04253998 0.03317421
0001c0 b3 98 8e bd 66 bc 08 3d 02 6f 09 3d 24 f9 07 3d
       -0.06962719 0.033382796 0.03355313 0.033196583
0001d0 d4 ab 08 3d 9a b2 07 3d f6 d9 07 3d 5a d8 2f 3d
       0.033366993 0.033129312 0.033166848 0.04293094
0001e0 12 48 80 bd 3e 80 07 3d 7a d7 0e 3d c8 2b 0a 3d
       -0.06263746 0.033081286 0.034873463 0.03373316
0001f0 dc 83 07 3d 79 c7 06 3d c9 4f 07 3d 9c 00 07 3d
       0.033084735 0.032905076 0.033035073 0.032959566
000200 3c b1 22 b6 16 39 fd b5 0f b4 2e b6 79 a8 21 b6
       -2.4243045e-06 -1.8866583e-06 -2.6032828e-06 -2.4088934e-06
000210 f8 46 0f b6 60 74 12 b6 ee ea 8e b6 f4 a7 5a b6
       -2.134997e-06 -2.1823435e-06 -4.259279e-06 -3.2582293e-06
000220 16 ff 1c b6 4c a7 c7 b5 d8 16 09 b6 58 27 48 af
       -2.339429e-06 -1.4875345e-06 -2.0427888e-06 -1.8203872e-10
000230 a6 b3 2a b6 76 fc 23 b6 24 80 1b b6 7c 24 19 b6
       -2.5436543e-06 -2.4435844e-06 -2.3171388e-06 -2.2820013e-06
000240 9c 54 17 b6 16 8e 0f b6 c2 e3 08 b1 33 30 19 b6
       -2.2550003e-06 -2.1391365e-06 -1.992007e-09 -2.2826832e-06
000250 1b 8e 17 b6 2c 53 12 b6 5e 33 82 b5 ff fe 19 b6
       -2.258347e-06 -2.1804108e-06 -9.700705e-07 -2.2947204e-06
000260 66 bf 11 b1 66 d4 1a b6 23 cc 2b b6 fc cc 29 b6
       -2.1209074e-09 -2.307142e-06 -2.5599809e-06 -2.530228e-06
000270 36 c0 19 b6 ce 23 69 b5 3a 5b 1d b6 fa 61 15 b6
       -2.2910658e-06 -8.6851367e-07 -2.3447924e-06 -2.225976e-06
000280 f5 2e 0c b6 94 8f 04 b6 46 b9 07 b6 f0 a7 04 b6
       -2.0888958e-06 -1.9753106e-06 -2.022441e-06 -1.9767285e-06
000290 de 29 0e b6 48 1b ee b5 b9 0b 29 b6 36 b4 ea b5
       -2.1184019e-06 -1.7740322e-06 -2.5189786e-06 -1.7486807e-06
0002a0 5e 25 01 b7 81 03 e9 b5 b4 19 24 b6 64 66 26 b6
       -7.697699e-06 -1.7360873e-06 -2.4452866e-06 -2.4795527e-06
0002b0 0b dd 0e b6 8e cf e2 b5 68 18 c7 b5 5a a9 1b b6
       -2.1288313e-06 -1.6898719e-06 -1.4833759e-06 -2.3195375e-06
0002c0 4c f6 1d b6 f7 15 27 b6 52 d4 19 b6 c6 47 1f b6
       -2.3538187e-06 -2.4897724e-06 -2.2922363e-06 -2.3734624e-06
0002d0 1e 65 0b b6 bf 15 21 b6 fb ec 9c b3 cd 97 18 b6
       -2.0771472e-06 -2.4003527e-06 -7.3074226e-08 -2.2738125e-06
0002e0 32 f4 ec b2 84 78 e0 b5 7c cd 23 b5 1c 15 28 b6
       -2.7585063e-08 -1.6724375e-06 -6.102125e-07 -2.5046238e-06
0002f0 c2 e5 20 b6 22 99 04 b6 39 f0 ff b6 7e 84 11 b6
       -2.3975595e-06 -1.9758668e-06 -7.627558e-06 -2.1683804e-06
000300 ad 5c 16 b5 f4 af 02 b6 52 1b f0 b5 5b 1b 16 b6
       -5.6014215e-07 -1.9473928e-06 -1.7889345e-06 -2.2367665e-06
000310 36 78 00 b6 cc 46 19 b6 1c 9b 1a b6 6d f9 0a b6
       -1.9143458e-06 -2.2839986e-06 -2.3038074e-06 -2.0708787e-06
000320 65 39 1b b6 8d e3 0b b6 6d b5 23 b6 99 2d 02 b6
       -2.3130208e-06 -2.0845066e-06 -2.4394496e-06 -1.939805e-06
000330 3a 2c a3 b6 01 7e 22 b6 f1 71 0e b6 32 49 0d b6
       -4.862927e-06 -2.4213225e-06 -2.1225972e-06 -2.1053243e-06
000340 1c e1 14 b6 47 09 08 b6 01 34 fe b5 80 b7 16 b6
       -2.218475e-06 -2.027098e-06 -1.893961e-06 -2.2458553e-06
000350 3f 20 f7 b5 b2 15 24 b6 29 12 19 b6 6f 12 d6 b5
       -1.8412319e-06 -2.4450533e-06 -2.2809347e-06 -1.5949607e-06
000360 cc 9b f0 b5 04 b6 21 b6 8e df 30 b4 38 bf dc b5
       -1.7926736e-06 -2.4096817e-06 -1.6472606e-07 -1.6446929e-06
000370 d3 78 18 b6 15 ec 32 b6 cd 01 31 b6 8a 1f 21 b6
       -2.2720094e-06 -2.6661485e-06 -2.6376104e-06 -2.4009228e-06
000380 f8 37 c1 b7 51 f9 0b b6 1d 4b 2a b6 eb 9d 02 b6
       -2.3033455e-05 -2.0857735e-06 -2.5375696e-06 -1.946343e-06
000390 0f 90 f6 b5 06 9a 5a b3 f0 08 08 b6 2f 2b 0b b6
       -1.8370355e-06 -5.0897164e-08 -2.0270782e-06 -2.073775e-06
0003a0 d8 66 1f b6 68 38 1f b6 d1 11 3c ae 51 f3 1b b6
       -2.375271e-06 -2.372568e-06 -4.2762075e-11 -2.3238429e-06
0003b0 5a 8a 21 b6 bf 8f f1 b5 e9 ad 65 b3 42 d9 23 b6
       -2.40714e-06 -1.7997735e-06 -5.3476388e-08 -2.4415353e-06
0003c0 80 87 87 b6 f4 ce 1b b6 e8 f9 07 b6 ea 71 10 b6
       -4.039088e-06 -2.3217262e-06 -2.0262032e-06 -2.1523979e-06
0003d0 34 42 0a b6 3d f3 22 b6 30 87 16 b6 ee d0 04 b3
       -2.0602138e-06 -2.4281464e-06 -2.2430431e-06 -3.0923665e-08
0003e0 84 1c 2d b7 c4 d2 1e b6 a9 5a e3 b5 b3 6f 02 b6
       -1.0318243e-05 -2.3666516e-06 -1.6939204e-06 -1.9436527e-06
0003f0 b6 00 16 b6 42 c3 1d b6 7b a0 16 b6 fb 8f 2d b6
       -2.2352156e-06 -2.3508478e-06 -2.2445154e-06 -2.5862817e-06

net_model.2.bias f4 [64]
000000 5c 89 4a 3b 94 d7 f9 ba e1 60 3f 3b 63 e0 44 3b
       0.0030904626 -0.001906144 0.0029202031 0.0030040971
000010 2c 4e 24 3d ba 96 15 9d e6 b7 1c ba b2 ef 3c 3b
       0.040113613 -1.979791e-21 -0.0005978331 0.0028829393
000020 5e 17 42 98 89 27 21 b7 aa b8 2e bd cc bc 4a 3b
       -2.508571e-24 -9.605553e-06 -0.042656578 0.0030935286
000030 10 cd 0e bb c0 e3 48 3b 83 fd 3f 3b 23 78 4a 3b
       -0.0021789707 0.0030653328 0.0029295392 0.003089436
000040 42 90 86 b9 03 8b 48 3b ca 0a 7b ae 8c b0 3b bb
       -0.00025665952 0.0030600436 -5.7080375e-11 -0.0028639166
000050 5a 26 4c 3b 44 50 25 18 95 90 4c 3b 47 1e 4a 3b
       0.003115079 2.1366274e-24 0.0031214107 0.00308408
000060 a2 d0 48 3b f2 1a 4a 3b 7e b5 15 bb cd c2 3c 3b
       0.0030641933 0.0030838815 -0.0022843773 0.0028802634
000070 40 89 74 bb c6 26 44 b7 9a 62 1c bb d3 65 4a 3b
       -0.0037313253 -1.1691538e-05 -0.0023862482 0.0030883446
000080 06 4f 4b 3b a1 9b 4a 3b 66 59 4a 3b ec 0e 48 3b
       0.0031022443 0.0030915516 0.003087604 0.0030526472
000090 86 70 90 b5 55 fd cf b8 72 ec ba b2 3a 5a e3 b7
       -1.0761585e-06 -9.917716e-05 -2.1760773e-08 -2.7102524e-05
0000a0 ea 81 4a 3b a4 28 6f ba 67 9b 40 3b 66 55 4b 3b
       0.0030900189 -0.00091231824 0.0029389502 0.0031026243
0000b0 2c a5 05 bc 1d 62 30 ba 68 e4 49 3b 20 42 42 3d
       -0.008157056 -0.0006728487 0.0030806307 0.047426343
0000c0 2f 66 49 3b df fa 4a 3b ce 6f 6c 8f 10 c3 43 3b
       0.0030731072 0.0030972285 -1.1657231e-29 0.0029870905
0000d0 77 98 d3 ba d3 e2 4a 3b 26 30 48 3b ad b4 35 bb
       -0.001614346 0.0030957952 0.0030546277 -0.00277261
0000e0 0e 87 41 3a d9 5c 4a 3b 6c b5 49 3b 19 72 4a 3b
       0.00073824904 0.0030878095 0.0030778302 0.0030890761
0000f0 c3 37 4c 3b e2 42 49 3b c3 c8 11 bb f7 6f d4 ba
       0.0031161166 0.0030710031 -0.0022244907 -0.0016207685

net_model.4.weight f4 [32, 64]
000000 fd 97 18 3d 0e 8f 1e 39 c7 7a 19 3d 84 5e 18 3d
       0.037254322 0.00015121346 0.037470605 0.037199512
000010 e2 85 36 bd 54 73 21 83 c7 cf 63 39 1a 59 18 3d
       -0.044561274 -4.744604e-37 0.0002172581 0.03719435
000020 d6 eb 5f 03 96 48 00 0a 25 d8 20 3d 7e 56 18 3d
       6.5804536e-37 6.176628e-33 0.03926863 0.03719186
000030 da e1 88 3a 2f 0b 18 3d 2d bf 18 3d 4f c1 18 3d
       0.0010443286 0.03712004 0.037291694 0.03729373
000040 20 42 16 3d 5b 85 18 3d e6 bf 24 01 79 59 9d ba
       0.036684155 0.037236553 3.0259723e-38 -0.0012004814
000050 32 7c 18 3d 7c bd 41 17 61 8e 18 3d e2 15 18 3d
       0.037227817 6.2600826e-25 0.037245158 0.037130244
000060 f0 68 18 3d 64 71 18 3d 00 a6 33 b9 72 2e 18 3d
       0.03720945 0.037217513 -0.0001713261 0.03715367
000070 f3 35 a5 3a 25 7e c6 ac ff 92 d3 ba cf dd 17 3d
       0.0012604579 -5.6415033e-12 -0.0016141831 0.037076768
000080 59 74 18 3d 56 ad 18 3d 9f 02 18 3d 89 fa 18 3d
       0.037220333 0.03727468 0.037111875 0.037348304
000090 9a c8 64 30 6f 49 ab 3a 87 8b bf b0 b4 f8 5a 03
       8.323099e-10 0.001306815 -1.3936735e-09 6.434994e-37
0000a0 66 f6 17 3d d9 8f d3 3a bb 51 18 3d 87 6b 18 3d
       0.03710022 0.0016140892 0.03718732 0.03721192
0000b0 f1 38 19 3d fc d5 42 b9 34 1f 18 3d 2d 98 5f bd
       0.03740782 -0.00018580997 0.037139133 -0.054588486
0000c0 c9 6c 18 3d 72 d5 18 3d 1e e4 d1 82 bc 0f 18 3d
       0.03721312 0.037312932 -3.0840723e-37 0.03712438
0000d0 ff ef 1c bb b1 e3 17 3d 99 82 18 3d 72 ab 22 bb
       -0.002394676 0.037082378 0.037233923 -0.0024821428
0000e0 0b f5 9c 3c 0a 72 17 3d b3 51 18 3d 4b 16 18 3d
       0.019159814 0.03697399 0.03718729 0.037130635
0000f0 4e 76 18 3d bb b3 18 3d 41 4d 32 37 e2 8b 09 3b
       0.0372222 0.03728078 1.0627614e-05 0.0020987918
000100 2d 52 9a 02 47 bd 67 03 c9 bb 07 02 18 c6 2b 83
       2.2675433e-37 6.810208e-37 9.972125e-38 -5.0479784e-37
000110 fe 4f 22 03 ee 66 45 83 63 db 11 82 fe df 90 82
       4.7699348e-37 -5.8011254e-37 -1.0715878e-37 -2.1287464e-37
000120 a6 52 65 03 ec 67 bf 01 50 3d 5e 03 b4 87 5d 03
       6.7391927e-37 7.031144e-38 6.531032e-37 6.5101842e-37
000130 f6 49 69 83 ec 8e b2 02 4c 2b 03 83 50 2b ce 00
       -6.855745e-37 2.6236782e-37 -3.8547142e-37 1.893365e-38
000140 78 38 1b 83 0d 8a 43 03 a8 49 e2 81 45 1f 54 83
       -4.561523e-37 5.7463824e-37 -8.312498e-38 -6.2337096e-37
000150 73 56 4f 03 db 63 94 82 a4 3b 71 01 4a 3b bb 81
       6.093107e-37 -2.180396e-37 4.43075e-38 -6.8778027e-38
000160 84 25 30 03 49 c3 6d 83 cc 02 23 03 98 02 20 03
       5.1764817e-37 -6.9872217e-37 4.7904605e-37 4.702275e-37
000170 5d 26 84 82 70 fa 48 80 31 f7 28 83 fb 44 41 03
       -1.9417676e-37 -6.701996e-39 -4.9654525e-37 5.679679e-37
000180 69 e2 18 83 c0 d2 43 03 42 6e 4c 03 3f d0 42 82
       -4.492869e-37 5.754728e-37 6.007678e-37 -1.4312633e-37
000190 39 67 35 83 6a 39 46 83 46 2c 35 03 5c 54 f9 02
       -5.3309613e-37 -5.825288e-37 5.3241943e-37 3.6635682e-37
0001a0 f8 48 59 03 34 ba 53 83 c6 40 6b 03 8e c2 19 83
       6.3854333e-37 -6.2221078e-37 6.913465e-37 -4.5185997e-37
0001b0 ab 95 0c 82 08 c1 b6 82 31 c9 15 82 a4 b2 29 83
       -1.0328528e-37 -2.685329e-37 -1.100453e-37 -4.9869706e-37
0001c0 16 2e 29 03 8c 48 26 03 05 46 26 03 a5 49 30 83
       4.971754e-37 4.8866295e-37 4.8863394e-37 -5.180629e-37
0001d0 d0 5f 29 83 ab e3 30 83 4f c5 4f 03 a5 db 23 83
       -4.9774624e-37 -5.19831e-37 6.105833e-37 -4.8153534e-37
0001e0 b6 7f f8 02 1f b2 48 03 24 e9 10 83 a9 09 0d 83
       3.6513627e-37 5.897919e-37 -4.258543e-37 -4.1447265e-37
0001f0 4c d7 68 83 07 b3 25 03 fe 1d 3a 83 60 97 40 83
       -6.842582e-37 4.8694655e-37 -5.4694917e-37 -5.65975e-37
000200 96 88 42 03 44 bf 36 83 fc 57 05 83 04 80 1e 03
       5.716827e-37 -5.3704555e-37 -3.918619e-37 4.657898e-37
000210 4d 1c 0f 83 a4 12 60 83 15 53 4b 03 00 4a 42 03
       -4.205641e-37 -6.584908e-37 5.975171e-37 5.7096424e-37
000220 1a a4 20 03 e4 30 33 83 92 cb 32 83 b6 95 00 83
       4.7208153e-37 -5.2659496e-37 -5.2543186e-37 -3.778768e-37
000230 0d 71 1c 83 1c 1b f3 82 a1 6e c4 82 fa 48 46 83
       -4.5974056e-37 -3.57212e-37 -2.886311e-37 -5.8270743e-37
000240 d4 68 57 03 e9 cf 23 83 c6 32 15 03 25 05 4e 03
       6.330316e-37 -4.8140064e-37 4.384545e-37 6.0543865e-37
000250 26 53 3d 03 18 6f 01 83 48 a6 b8 82 af 6f 1a 03
       5.563756e-37 -3.803722e-37 -2.713181e-37 4.538474e-37
000260 6d 2a 49 83 c8 0b 4d 82 e9 ab 0e 83 19 eb 0b 03
       -5.9117294e-37 -1.5064402e-37 -4.1927393e-37 4.1118308e-37
000270 28 d1 46 03 09 f0 28 83 b7 5d 2b 83 7a 97 82 01
       5.842707e-37 -4.964631e-37 -5.0359963e-37 4.7971816e-38
000280 98 8c 33 83 80 9e 09 83 a6 0f 27 03 26 44 3a 03
       -5.2764766e-37 -4.044263e-37 4.9094853e-37 5.473872e-37
000290 70 7a b4 02 58 6a 35 03 22 d4 27 03 44 40 f6 02
       2.6518899e-37 5.3313196e-37 4.9320406e-37 3.6183338e-37
0002a0 e6 f4 18 03 60 68 6b 83 08 bc f7 80 46 a4 e1 02
       4.4949915e-37 -6.918011e-37 -2.275082e-38 3.3155067e-37
0002b0 ca 18 74 82 04 41 8a 82 11 f2 15 03 fa db 52 03
       -1.7933403e-37 -2.0314595e-37 4.4065043e-37 6.1965974e-37
0002c0 8f 54 41 83 02 bb 1c 03 93 ae a9 02 1c c9 c5 82
       -5.681467e-37 4.6058954e-37 2.4932519e-37 -2.906198e-37
0002d0 27 b5 25 82 28 bb 39 03 e7 53 34 03 54 6d 90 82
       -1.2174274e-37 5.458146e-37 5.299356e-37 -2.122165e-37
0002e0 08 a6 67 82 97 6c 45 83 ae 20 ef 82 82 6f f6 82
       -1.7018848e-37 -5.801775e-37 -3.513665e-37 -3.6210454e-37
0002f0 5f ec 4d 03 1a cb 4b 83 2f 1b 31 83 76 c3 15 03
       6.0515426e-37 -5.9889487e-37 -5.204683e-37 4.4011543e-37
000300 ab 8f 25 03 d3 9a e4 82 cb c5 3f 03 52 25 26 83
       4.8654065e-37 -3.3590454e-37 5.635691e-37 -4.8825857e-37
000310 c4 38 b9 02 ff 3d 50 83 ce e2 41 83 2a 67 bc 02
       2.7215889e-37 -6.1196874e-37 -5.697796e-37 2.768333e-37
000320 92 29 06 03 9a 79 92 82 b4 11 15 03 30 a9 37 83
       3.942678e-37 -2.1522568e-37 4.3807487e-37 -5.3973084e-37
000330 cd c6 81 02 2a 53 3e 83 48 28 8d 02 40 62 99 02
       1.9068952e-37 -5.593145e-37 2.0741208e-37 2.2537722e-37
000340 ea a8 ad 02 f9 3b fc 02 ad cb 2e 83 d0 24 bc 02
       2.5517017e-37 3.7062495e-37 -5.1367813e-37 2.7645247e-37
000350 54 46 52 83 2d ee 0d 83 60 ac 0e 83 30 a5 30 03
       -6.1794186e-37 -4.170959e-37 -4.1927926e-37 5.1911377e-37
000360 9f 33 7c 82 69 25 3a 83 f6 5c 4b 83 e8 27 42 03
       -1.852885e-37 -5.470343e-37 -5.976305e-37 5.7057286e-37
000370 62 11 f0 81 d2 68 ac 82 7a bb 05 83 6f 61 16 03
       -8.818702e-38 -2.5333292e-37 -3.93004e-37 4.4192886e-37
000380 c4 a5 ef 02 86 2a 55 83 5c 3e 9d 82 65 46 1d 03
       3.5213039e-37 -6.264389e-37 -2.310487e-37 4.621896e-37
000390 2e 05 47 03 26 11 55 03 e9 22 07 02 80 4f 3d 83
       5.848679e-37 6.261476e-37 9.928252e-38 -5.563337e-37
0003a0 ab 0a 52 03 25 08 43 03 06 ba 50 03 dc d9 43 03
       6.17257e-37 5.73147e-37 6.133925e-37 5.755544e-37
0003b0 89 d5 71 82 22 e1 8c 82 bf 2b 4b 83 da 2b 46 03
       -1.7767165e-37 -2.070037e-37 -5.9706556e-37 5.823731e-37
0003c0 16 d0 6a 02 e1 2f 2e 03 90 8a 69 83 e5 6e 0f 03
       1.7251323e-37 5.1188967e-37 -6.863161e-37 4.2151224e-37
0003d0 85 d3 51 83 49 ad 59 83 cc 24 2c 01 c3 0a 5b 82
       -6.1662392e-37 -6.396949e-37 3.161781e-38 -1.6092667e-37
0003e0 bd a3 00 03 9e fd 8f 81 5f 70 66 02 fd 9b 1b 03
       3.780378e-37 -5.2893827e-38 1.692998e-37 4.572947e-37
0003f0 dc e4 43 83 dc b0 3a 83 bd 55 27 83 38 48 4e 83
       -5.7568067e-37 -5.486351e-37 -4.917531e-37 -6.062086e-37

net_model.4.bias f4 [32]
000000 44 85 9c ba 56 44 18 ba 3f f2 0c ba f5 c1 1b ba
       -0.0011941572 -0.00058085227 -0.00053766737 -0.00059416826
000010 7f 85 e9 ba 6b 4c 03 ba 6c 9d 18 ba 5f 7e 99 ba
       -0.0017816274 -0.00050086406 -0.00058217975 -0.0011710635
000020 93 3a 1a ba 0a dc f2 ba 8a 39 d0 ba 1b 8e 13 ba
       -0.0005883362 -0.0018528712 -0.0015886289 -0.00056287803
000030 6f 4c d1 ba d6 23 a1 ba c4 ab 5b b3 87 8e f2 ba
       -0.0015968214 -0.0012294005 -5.114613e-08 -0.0018505611
000040 b1 e9 14 ba f8 9c 93 9a 34 97 e8 ba 84 f7 25 b8
       -0.00056805747 -6.105137e-23 -0.0017745257 -3.9569582e-05
000050 bc 18 d6 ba 95 f1 fd ba c9 08 19 ba ba 95 00 b6
       -0.0016334276 -0.0019374365 -0.0005837796 -1.9160639e-06
000060 37 bb 06 ba fa 90 a0 ba 07 40 c0 b9 02 f0 96 ba
       -0.00051395915 -0.0012250238 -0.00036668798 -0.001151562
000070 09 06 0a ba 1c 7d a1 ba ad 07 a1 ba 38 a0 9c ba
       -0.00052651815 -0.0012320611 -0.0012285613 -0.0011949604

net_model.6.weight f4 [1, 32]
000000 82 23 0e bd d2 e2 e2 82 06 e2 d6 02 ce be c2 02
       -0.03470183 -3.3337904e-37 3.1574205e-37 2.8615255e-37
000010 de 12 0e bd 40 15 61 02 ca c6 22 83 a2 2f 0e bd
       -0.034685962 1.6536488e-37 -4.783572e-37 -0.034713395
000020 80 36 69 80 7b fb 0d bd 1c 14 0e bd 9f ad 57 83
       -9.662278e-39 -0.03466366 -0.034687147 -6.338213e-37
000030 21 47 0e bd 6b 10 0e bd f1 8a 6b 83 23 04 0e bd
       -0.034735803 -0.034683626 -6.921979e-37 -0.034671914
000040 1c 88 68 83 21 8b 27 83 8c 2d 0e bd 20 3b 5c 83
       -6.833492e-37 -4.92366e-37 -0.034711406 -6.472006e-37
000050 98 03 0e bd a6 f4 0d bd af 10 34 83 0c b7 6d 03
       -0.034671396 -0.034657143 -5.2916398e-37 6.985817e-37
000060 06 2d 49 83 6d 06 0e bd 42 72 39 83 da 40 0e bd
       -5.9120276e-37 -0.034674097 -5.4497775e-37 -0.034729816
000070 34 c1 38 83 37 19 0e bd 9f 16 0e bd 1a 3c 0e bd
       -5.4294526e-37 -0.034692015 -0.034689542 -0.034725286
