src/t1dsim_ai/models/PopulationModel/population_model_05022024_epoch_15.pt (torch, 40795 bytes, 30 tensors)

net_dS1.0.weight f4 [174, 2]
000000 49 ef 5b be 85 10 cb 3c dc ef 4f be 3c a5 bc 3c
       -0.21477999 0.02478815 -0.20306343 0.023028009
000010 e1 44 c5 3d 5a a7 83 bd 2b e8 67 be 1b c2 d0 3c
       0.09632278 -0.06428404 -0.22647159 0.025483182
000020 1c a6 82 bd 10 db 1c bc c3 6a d7 bd 10 5e 86 bb
       -0.06379339 -0.009573713 -0.1051841 -0.0041005686
000030 ca 8f 44 bc 12 c6 5a 3d 95 b9 3c be 68 63 3b bb
       -0.011997173 0.05341155 -0.18430169 -0.0028593186
000040 47 08 35 be 3c 28 7c bc ef 96 c7 bc e0 7a a6 bc
       -0.17678939 -0.015390452 -0.024363963 -0.020322263
000050 a5 ba 85 bc 7d 0c 9e bc 8b b6 d7 bd 4e 4e 71 3d
       -0.01632435 -0.019293064 -0.10532864 0.058912568
000060 05 a0 83 bd 98 fd 14 3d b8 f2 c0 b9 d8 c0 9b b7
       -0.06427006 0.03637466 -0.00036801933 -1.856724e-05
000070 fb c1 40 be 33 fe a2 bc 07 45 16 bd 2c f0 c3 bb
       -0.18823998 -0.019896602 -0.036686923 -0.0059795585
000080 66 a7 f2 37 13 26 26 bc 88 a1 9f b9 d0 cf 3d bc
       2.8926599e-05 -0.010140914 -0.00030447193 -0.011585191
000090 9e b3 5a bd 4d 32 a8 bb 53 ee c0 bc ed 19 1c bc
       -0.053393953 -0.0051329494 -0.023551142 -0.009527666
0000a0 c5 93 f7 bb 5b fa e2 bc 1d 43 6b bd 51 69 d5 bd
       -0.0075554573 -0.02770727 -0.05743705 -0.10420478
0000b0 04 7c b8 b7 f8 25 0e 37 8d 5d 24 bc f1 05 ed bd
       -2.1992259e-05 8.4727e-06 -0.01003207 -0.11573399
0000c0 e4 d8 29 3c ca 6d d2 3c fe c4 4d bd 81 37 17 bc
       0.010366652 0.025687117 -0.050236695 -0.009229542
0000d0 59 5e 2e be 06 57 73 bc 7e 50 05 be bc 70 03 bc
       -0.17028178 -0.014852291 -0.13018987 -0.008022483
0000e0 2e 27 01 bf 86 38 73 3d fc 35 2a 3d 37 b0 86 be
       -0.5045041 0.059380077 0.04155539 -0.26306316
0000f0 88 4f 67 bd f3 5e cb bb f2 f4 62 ba cd c5 b9 bb
       -0.05647233 -0.006206387 -0.00086577155 -0.0056693316
000100 14 64 9b b8 f4 c0 f6 b7 4b 96 80 bd 81 b4 0d 3d
       -7.409617e-05 -2.9415336e-05 -0.06278666 0.03459597
000110 06 02 da bd 75 d3 1c bc 56 7e 6e bd 3f 5f 8a bb
       -0.10644917 -0.0095719 -0.058225952 -0.00422278
000120 9c ff 79 b8 46 6f ba b7 d8 95 83 bd 4e 79 50 bc
       -5.960428e-05 -2.2224744e-05 -0.06425065 -0.012724234
000130 07 89 40 be 70 bb a2 bc af 83 b7 3c 4a 41 7f 3d
       -0.18802272 -0.019864768 0.022401659 0.062318124
000140 c4 d6 c7 bd a3 99 5f 3d b2 c7 b2 bc 1b 35 da b9
       -0.0975776 0.05458988 -0.021823738 -0.00041619767
000150 b5 1b 6a bd 8c 8d d9 bd 5e cf 21 bd 85 a5 83 bc
       -0.05715533 -0.10622701 -0.0395044 -0.016070137
000160 8d d0 c9 bd c9 68 1d bc 1a e6 e5 be d0 c0 1d 3d
       -0.09854231 -0.009607502 -0.44902116 0.03851396
000170 fa 6f 54 bc 54 e0 6c 3d b9 31 32 3e c4 75 4e bc
       -0.01296615 0.057831123 0.1740178 -0.01260132
000180 2f d7 c7 bd fd 9c 5f 3d 83 55 0d be 8b 30 2a bc
       -0.0975784 0.054593075 -0.13802151 -0.01038755
000190 60 2c d9 bc 5b c3 42 3d 36 9c 25 b8 65 2d db 35
       -0.026510417 0.047549587 -3.948455e-05 1.6329983e-06
0001a0 2f c4 cd bc 15 4f 04 bb 56 50 6c b8 f2 ce 24 b7
       -0.025117962 -0.0020188738 -5.6341603e-05 -9.823345e-06
0001b0 53 92 27 be 14 e6 48 bc a9 61 5a bd c4 9f d3 bd
       -0.16364412 -0.012261886 -0.053315792 -0.10333207
0001c0 0f 69 58 bd 69 78 7f bc dd 4c 82 36 15 03 2e b6
       -0.052834567 -0.015592673 3.88325e-06 -2.5929814e-06
0001d0 20 01 38 bd 89 ee 59 bc 2b ba d0 be 8f 44 20 3e
       -0.044922948 -0.0133015 -0.40767035 0.15651153
0001e0 71 f3 c5 bd 28 76 5d 3d 56 26 9c bb e2 60 9d 37
       -0.096655734 0.05406776 -0.004765312 1.8760973e-05
0001f0 60 40 6a b8 56 b8 f3 35 fa 3d c3 bc 0f d8 14 3d
       -5.58499e-05 1.815856e-06 -0.023833264 0.036338862
000200 33 b0 04 be af 5e 05 bc b8 21 1c be 07 9b 31 bc
       -0.1295784 -0.00814025 -0.15247238 -0.010840184
000210 74 01 a0 bc f3 c5 bc bc 17 41 f7 be bb 96 58 3d
       -0.019531943 -0.023043608 -0.48291847 0.052878123
000220 82 33 81 be da fc 10 3d b3 48 f9 bc 55 1f 04 38
       -0.2523461 0.035397388 -0.030430174 3.1500433e-05
000230 74 9e c5 bd 53 91 7e bb 1c 8b 11 bf 89 0e 43 3d
       -0.09649363 -0.0038843944 -0.5685289 0.047621284
000240 f0 7e 63 bd 7e 83 49 bb 76 15 3a b6 86 77 81 bb
       -0.05554098 -0.0030748541 -2.7728652e-06 -0.003951016
000250 0e 87 e4 bd ed 46 28 bc 9f 92 a0 bd 2e 35 32 3d
       -0.11158572 -0.010270816 -0.07840466 0.043507747
000260 ac 47 8b be 7d 52 ff 3c e7 ff 82 bd b7 51 10 3d
       -0.2720312 0.031167263 -0.06396466 0.03523418
000270 7c 75 c8 bd 98 65 60 3d 47 5c 45 be 9b df a7 bc
       -0.09788033 0.054784387 -0.19273482 -0.020492366
000280 50 31 2b bd cc 22 a1 bd 24 86 52 bd 0b 00 59 bc
       -0.041795075 -0.07867965 -0.051397458 -0.013244639
000290 cf ad dc bd c9 66 14 bc ea 36 5e be ed 53 c8 3c
       -0.10775339 -0.009057709 -0.21700636 0.024454081
0002a0 7c 33 5c bd ed f5 d7 bd 77 26 c0 bd 3c dc 56 3d
       -0.053760037 -0.105449535 -0.093823366 0.052456126
0002b0 83 0a 3d bd d8 50 f4 bc e3 43 bf bd c3 17 36 bb
       -0.046152603 -0.029823706 -0.0933912 -0.002778516
0002c0 49 e8 0e ba 48 cc 23 b9 fb 22 91 b8 1c f9 6b b7
       -0.00054514833 -0.00015620992 -6.9206544e-05 -1.4065092e-05
0002d0 13 c0 2f be b9 00 75 bc d7 ca 33 be 67 70 7a bc
       -0.17163114 -0.014953786 -0.17557846 -0.015285588
0002e0 ca 0f c7 bd 89 cd 05 bc e9 1d 80 bd 10 40 23 bc
       -0.097198084 -0.008166679 -0.06255705 -0.009964004
0002f0 fc d1 4c be 20 c8 bc 3c 52 23 e9 bc 17 ff f3 bc
       -0.20001978 0.023044646 -0.028459225 -0.029784722
000300 e6 72 0c be 55 30 85 3c 71 a6 9a 37 03 84 32 b7
       -0.13715705 0.016258398 1.8435736e-05 -1.0640363e-05
000310 69 71 98 b6 f6 72 86 bc 4d 43 bd bd d8 8c 53 3d
       -4.5431557e-06 -0.01641224 -0.09241352 0.05164799
000320 3b 6b 5a bd 5c 16 1d bd ab 4f 74 bd ec ab e0 bb
       -0.05332492 -0.0383514 -0.05964629 -0.006856432
000330 af 75 54 bf d1 b3 8d 3d 34 ae 42 be 65 e2 60 bc
       -0.8299207 0.06919063 -0.19011766 -0.013725852
000340 7f 23 5f bd 1f 91 f3 3c fc ba b2 bd 42 7d 47 3d
       -0.05447721 0.029732285 -0.08727071 0.04870344
000350 2c 2d c4 ba 52 f9 3d b7 a3 64 68 be 8e 20 d1 3c
       -0.0014967076 -1.1323327e-05 -0.2269464 0.025528219
000360 e0 d9 69 be d8 1a d1 3c 7b 91 8c ba a6 6b 51 b8
       -0.22837019 0.025525495 -0.0010724509 -4.992974e-05
000370 33 3e 51 bd 9f 31 d3 3d 49 5b c1 b8 30 ac 4b b6
       -0.05108471 0.10312199 -9.21996e-05 -3.0349584e-06
000380 76 3c 87 be 9f 57 f0 3c f5 5a 23 bd 0a 0b 8c bd
       -0.26413316 0.029338656 -0.039881665 -0.06838043
000390 dc a1 44 be e4 cd b2 3c 1b ed ce bd 3f 7a 12 bc
       -0.1920237 0.021826692 -0.10103818 -0.008940279
0003a0 08 b0 39 bd 21 24 48 bc cd 0d 09 bf 6c 8b 39 3d
       -0.045333892 -0.012215645 -0.53536683 0.04529898
0003b0 da 1a 8a be f9 d0 1a 3d 84 99 50 bd 79 9a 96 bc
       -0.2697361 0.037796948 -0.050927654 -0.018384205
0003c0 9f 72 4a be 99 57 ac bc 45 a2 20 bd 8d c1 44 bb
       -0.19770287 -0.021037864 -0.039217252 -0.0030022592
0003d0 a6 d0 7c bd eb 99 91 bb e3 0d 0a bf c6 ae 6f 3d
       -0.06172242 -0.0044433973 -0.5392744 0.058516286
0003e0 49 65 54 be 96 a7 c3 3c 28 c7 b2 be f5 cc 1d 3d
       -0.20741762 0.023883622 -0.3491757 0.03852554
0003f0 0d 9e 5b bd 25 58 d8 bd 03 5b a0 be 20 28 fd 3d
       -0.053617526 -0.10563687 -0.31319436 0.12361169

net_dS1.0.bias f4 [174]
000000 e9 9c 27 be a1 23 da bd 4d a9 6c 3e 35 20 c2 bd
       -0.1636845 -0.10651327 0.23111458 -0.09478799
000010 fa 81 a0 bd 28 f7 cb bd b0 99 97 bb 99 6b f7 3b
       -0.07837291 -0.09959251 -0.0046264753 0.0075506684
000020 b8 e2 d3 bc 34 60 99 bd 43 46 92 bd 25 6d bb 3b
       -0.025864944 -0.074890524 -0.071423076 0.005719798
000030 f3 15 ca bc cb 3d 0b bc b7 a0 f9 3b ad 26 45 bd
       -0.02466867 -0.008498619 0.0076180357 -0.048132587
000040 b9 65 98 bc 13 12 a0 bd af 4e 82 bd 7e c4 6e bd
       -0.018603193 -0.078159474 -0.06362664 -0.05829286
000050 d1 31 6c bd 0a 76 c7 bd 3a 97 53 bc f7 f3 bb bd
       -0.057664696 -0.09739311 -0.012914473 -0.09177392
000060 dd 82 6a bd 37 7b 81 bd c1 46 cc bc 99 ee 99 bd
       -0.057253707 -0.063223295 -0.024936082 -0.07516212
000070 ca b3 03 bf f2 e4 46 3d 65 8f 8b bd 6c 33 ab bc
       -0.5144621 0.048558183 -0.0681446 -0.020898543
000080 54 ce ea bb bf 70 34 3b 03 33 ba bd b8 34 a4 bd
       -0.0071657095 0.0027533022 -0.09091761 -0.08017868
000090 08 c3 c0 bb 3c 1b a6 bd 66 59 f9 3b a1 e0 4d bd
       -0.0058826245 -0.08110663 0.007609534 -0.05026305
0000a0 bb db ad 3b c5 0a c0 bd 6c 0c c8 bd c7 de 72 bd
       0.005305735 -0.09377054 -0.09767994 -0.05929449
0000b0 bd 5f ae bd d2 7f 69 be b9 d2 a7 bb ee a9 e3 bd
       -0.085143544 -0.22802666 -0.0051215556 -0.11116396
0000c0 8a 1d b2 3b 73 82 63 bd 69 17 59 3c ab 79 05 bb
       0.0054356502 -0.055544328 0.01325021 -0.002036671
0000d0 7a 2b f3 bc c4 c6 1f bb be 79 81 bd 8e 99 c0 bd
       -0.029683817 -0.0024379948 -0.063220486 -0.09404288
0000e0 90 28 94 bd 02 03 1a ba 2c 8a 74 bd 1e f0 20 bf
       -0.07234299 -0.0005875082 -0.059702083 -0.6286639
0000f0 b7 03 bd 3b 86 2a a4 bc 2b 0f 42 bb 6f 09 23 3c
       0.005768265 -0.020039808 -0.0029611092 0.00995098
000100 02 dd 97 bd c4 2e 76 bd fe 91 46 bd 06 d8 ef bc
       -0.07415201 -0.060103193 -0.048479073 -0.029277813
000110 13 b0 b7 3c 41 2f 91 bd 53 f6 bb bd c2 55 d7 bd
       0.022422826 -0.07089091 -0.09177842 -0.10514404
000120 6a de 86 bd d8 9c f1 bb 60 7a c3 bd 6f 56 d4 3c
       -0.06585391 -0.0073734336 -0.095448256 0.025920121
000130 72 03 4d be 16 ac ab 3c 19 72 ae 3b 45 af 00 3c
       -0.20020846 0.02095608 0.00532366 0.0078542875
000140 b8 dc 80 3d 73 4c b9 bd ac c8 c1 bd 2c 59 e1 bd
       0.06292099 -0.09047785 -0.09462103 -0.11003336
000150 ca 34 c1 bd 65 b1 a0 3b 16 1d 97 bd a0 31 b8 bd
       -0.09433897 0.0049039596 -0.073785946 -0.0899384
000160 7d 70 b4 bc 3b 3c 9f bb 5e 91 cd bc 5d 4f d2 bc
       -0.022026295 -0.004859475 -0.02509373 -0.025672609
000170 77 d6 ae bd 7b 3c 9e bd 39 e0 1b be 49 b0 6f bd
       -0.08537 -0.077263795 -0.15222253 -0.058517728
000180 48 74 17 be 50 21 8d bb b9 a7 6a bc e1 ec 9c 3b
       -0.14790452 -0.0043069497 -0.014322215 0.0047889804
000190 6c 59 b1 bd 99 d1 9a bd c6 29 0e 3d 30 71 90 bd
       -0.08659634 -0.07559509 0.034707807 -0.07052839
0001a0 ab 4c 91 3c ab ea 94 3b 92 f2 3f bd b2 91 c1 bd
       0.017736753 0.004544576 -0.046862192 -0.09451617
0001b0 89 9f be bd 52 3b 9d bc 10 a9 ec 3c 7b 56 17 bb
       -0.09307773 -0.019193325 0.028889209 -0.0023092318
0001c0 8e 57 b5 bd d7 8b bc bd c7 c0 d9 bd 30 23 b6 bd
       -0.0885459 -0.0920636 -0.106324725 -0.0889343
0001d0 c6 71 74 bd 33 5c 20 be a2 6b ce 3c ba 6e 8f bd
       -0.059678815 -0.15660171 0.025197808 -0.07003541
0001e0 4e 04 04 3c b7 f6 6f bd ab 88 94 bd d4 88 ae 3c
       0.008057667 -0.058584895 -0.0725263 0.02130548
0001f0 a3 2f 21 be f1 4a 54 bd f9 aa c4 bd 4c f9 57 bf
       -0.15740828 -0.051829282 -0.09602923 -0.8436477
000200 c4 7f 60 bd 55 5c 88 bd 26 28 89 bd 37 6c 92 bd
       -0.054809347 -0.06658236 -0.06697111 -0.071495466
000210 6c 95 c2 bd b9 33 9c bd 0e 15 0f 3c e2 ed 93 bd
       -0.09501156 -0.07627053 0.008733047 -0.07223107
000220 8c 99 18 bc f8 40 8b bd 48 bd 99 bd a6 cf 96 be
       -0.009313952 -0.06799501 -0.07506806 -0.29455298
000230 cc 15 f7 3a 99 8e 03 bb fb af 5e bd 51 41 b8 bd
       0.00188511 -0.0020074008 -0.054367047 -0.08996833
000240 86 f0 ad bd 48 43 bf bd c4 de 00 bc f4 ae c5 bd
       -0.08493142 -0.09339005 -0.007865611 -0.0965251
000250 94 3e 27 be 0c 0d b4 bf 05 34 c5 bd 68 ff da bd
       -0.16332465 -1.4066482 -0.096290626 -0.10693246
000260 e0 74 99 bd 45 c8 87 bd c5 24 a7 bd 72 f9 cb bd
       -0.07492995 -0.06629995 -0.0816131 -0.09959687
000270 86 ff 35 3b 66 6e d8 be f7 aa 85 3b 46 69 91 bd
       0.0027770712 -0.42271727 0.0040792185 -0.071001574
000280 74 61 bf bd 7e a1 c4 bd 61 cb c1 bd 2f 80 6b bb
       -0.093447596 -0.09601115 -0.094626196 -0.0035934558
000290 a2 5e 91 bd 04 d4 da bd d1 df 72 bc b0 e5 79 bd
       -0.07098128 -0.1068497 -0.01482387 -0.061010063
0002a0 2d d0 dd bd f1 a8 40 3d ca 42 8f bd c2 44 a9 3b
       -0.10830722 0.047036115 -0.06995161 0.0051656673
0002b0 27 65 13 be 81 f5 d0 bc
       -0.14394055 -0.02550769

net_dS1.2.weight f4 [1, 174]
000000 a7 68 61 3d 64 90 32 3d 6e 8f eb 3d d6 53 6d 3d
       0.055031445 0.043594733 0.115019664 0.05794128
000010 df c5 d4 3b e5 0f 3b 3b 6d d9 16 3d 94 c3 c5 3d
       0.0064933146 0.002854341 0.036828447 0.09656444
000020 c6 75 d7 3d bc 75 e5 bc 05 ee 65 3b 8e ae 62 3d
       0.105205104 -0.028010242 0.0035084498 0.05534225
000030 a3 9f f2 3c 75 37 99 38 4b 4b ca 3d ca 35 2c bc
       0.029617136 7.305938e-05 0.09877642 -0.010510871
000040 4f a5 3d 3c 27 1c 7b bc 87 91 ad 3c a3 07 9d bc
       0.011575057 -0.015326536 0.021187557 -0.01916868
000050 d4 a8 a4 bb 62 d1 03 be ca b7 96 b8 60 0f 45 be
       -0.0050250087 -0.12872842 -7.186791e-05 -0.19244146
000060 63 eb 6a 3c d0 ae b4 bc f6 10 d3 3d 02 e5 83 3d
       0.014338347 -0.022056013 0.103059694 0.06440164
000070 85 f1 aa 3e 09 60 d6 bd a7 a3 00 bc 72 d7 30 3c
       0.3338739 -0.10467536 -0.007851518 0.010793554
000080 9c 97 98 b7 33 a0 e2 3c 2a 7a ab 3c 84 52 a0 3b
       -1.819041e-05 0.02766428 0.020932276 0.004892649
000090 76 73 48 b7 4e ac 5d 3c d7 17 c8 3d 93 eb 26 3d
       -1.1947812e-05 0.01352985 0.09770172 0.040752005
0000a0 bc 0b 4e 3d b9 ca 92 3a 01 46 10 be f0 6b b7 3b
       0.05030416 0.0011199332 -0.14089204 0.005597584
0000b0 ad e4 13 3c eb 0d 60 be 54 54 24 3d 6a 53 9c bd
       0.0090266885 -0.2188031 0.040119484 -0.076330975
0000c0 f3 2b 4d 3d ea dc 76 3d 69 10 16 3d 4a 8d cb b5
       0.05009074 0.060269274 0.036636744 -1.5165799e-06
0000d0 89 f9 a2 ba 1e 21 a4 37 ae b4 f9 3d 87 e9 14 be
       -0.0012433986 1.9565745e-05 0.12192665 -0.14542209
0000e0 cf 88 1d bc 0e 53 53 b5 0e 46 50 3c 7e dd 7d be
       -0.009615137 -7.8724486e-07 0.012712015 -0.24791524
0000f0 db 35 4b 3d 91 60 84 39 b3 d2 7d 37 26 c0 cf 3c
       0.049611907 0.0002524895 1.5129032e-05 0.025360178
000100 05 b3 8c 3d 1b f2 f7 3d 0b cf d4 3c 86 7d 4a 3e
       0.06870083 0.12106725 0.025977632 0.19774446
000110 2d 17 a2 3d 22 f2 72 3a 36 b6 b8 bc f7 89 5e be
       0.07914577 0.0009267648 -0.022547822 -0.21732317
000120 2e 40 2f bd 3e 7a da 3b c8 48 28 3d f1 c3 19 3d
       -0.042785816 0.0066674044 0.041085035 0.03754038
000130 76 58 9a 3d e6 09 e9 3c 2a 4d 4f 3d 29 29 d6 3d
       0.07536404 0.028447103 0.0506107 0.104570694
000140 71 db 34 3d 17 9f 78 3c 3e bf ac 3c 14 08 56 3d
       0.044154588 0.015174649 0.021087285 0.052253798
000150 d8 92 3f be 36 20 43 3d f7 56 1a be 28 f9 52 bb
       -0.1870836 0.04763814 -0.15072237 -0.0032191966
000160 b2 c5 35 b9 31 f0 46 37 0f 93 d5 3d 97 ba d7 3d
       -0.00017335152 1.1857644e-05 0.1042844 0.10533636
000170 8c 82 05 3c 8d 86 12 3d c5 18 18 3d 14 62 ef bc
       0.008148801 0.03577285 0.037132997 -0.029221572
000180 bb a6 9d 3c 44 3d 58 b7 c2 e6 1f ba b8 5f 3e 3d
       0.019244542 -1.2888868e-05 -0.0006099754 0.046478003
000190 f1 a3 2c be cc 55 98 3b a6 77 f0 be 39 2a 23 3e
       -0.16859414 0.0046488997 -0.46966285 0.15934075
0001a0 2e b3 b2 3c 1f d9 31 3d 61 9c 17 ba 68 c8 6d 3d
       0.021813955 0.043419953 -0.0005783495 0.05805245
0001b0 a9 38 6f 3d 89 88 07 b8 66 f7 9d 3d dd 79 a2 37
       0.058403645 -3.2313666e-05 0.07713203 1.9368652e-05
0001c0 f7 fd 92 3d 13 f5 e5 bc 7e 77 1d 3d f8 8e 42 3c
       0.07177346 -0.028070962 0.038444035 0.011874907
0001d0 be ca 55 3c 56 d4 96 be be 3c ba 3d e9 47 14 bc
       0.013048826 -0.29458874 0.09093617 -0.009050348
0001e0 fe f8 dd 3d d2 05 68 bd 2e 4a b7 ba f0 b3 64 3e
       0.10838507 -0.056646176 -0.0013983899 0.22334266
0001f0 4c 1f 48 3d ae c5 15 3e 91 77 2c be 62 65 57 be
       0.048857972 0.1462619 -0.16842486 -0.21034768
000200 f4 92 6d 3d 39 eb d1 bc 2c f6 d8 3a 4e cf ed 39
       0.058001474 -0.025624858 0.0016552857 0.00045358617
000210 3a 8d d1 3d 2a df 3b 3d 4b b2 b1 3d 68 cd 72 bc
       0.10232015 0.045867123 0.08676585 -0.0148194805
000220 6f ab 41 38 ce 06 3c bc 97 69 12 bc 2c b8 9a 3e
       4.6174446e-05 -0.011476232 -0.008936307 0.30218637
000230 f2 fd 88 3c 46 81 c6 37 1a 32 ab bc 6b 5b 91 3c
       0.016722653 2.3663637e-05 -0.020897914 0.017743787
000240 3a b3 25 be 57 f2 07 bb 8c 36 11 38 45 df 20 be
       -0.16181651 -0.002074381 3.4621495e-05 -0.1571017
000250 5f 03 97 3d 29 f1 1d be a7 1e 24 3d b2 14 51 3d
       0.0737369 -0.15424027 0.040068295 0.051045127
000260 f3 b5 b1 bc 1a 8e 22 3c 83 3e 8b bc 76 53 6d 3d
       -0.021693205 0.009921575 -0.016997581 0.057940923
000270 6b 62 e0 3c f5 6e 24 3e 40 75 24 3d c8 d8 29 3c
       0.02739068 0.16057952 0.04015088 0.010366626
000280 fd a6 3e be f9 84 15 be 73 24 ca 3d bd fb aa 37
       -0.18618388 -0.14601506 0.098702334 2.0382804e-05
000290 c8 26 08 bc 14 51 4f 3d 1a 9c 8c b8 e0 42 d9 b9
       -0.008310027 0.05061443 -6.7047964e-05 -0.0004143929
0002a0 50 0d 0d 3d 6e de cc bd a7 1c 36 bc bb 8c 4d 3d
       0.034436524 -0.100033626 -0.01111523 0.05018304
0002b0 f0 6b 1c 3d f2 2b cf 3a
       0.038188875 0.0015805943

net_dS2.0.weight f4 [60, 2]
000000 08 93 82 bd 46 63 46 ba cc 25 07 3a 95 57 8c bd
       -0.063757 -0.00075678935 0.00051554735 -0.068526424
000010 45 d7 6b 38 cd 94 b6 bd df f2 51 3a 61 6c 92 bd
       5.622885e-05 -0.089151 0.0008008908 -0.07149578
000020 b8 f8 44 bc 6d f9 de 3d 11 ce 69 3d 8f 3d 4d be
       -0.01202219 0.10887418 0.057081286 -0.20043014
000030 b3 bb 87 bd 72 68 70 3c ab 3f 80 bc 93 4c 92 bd
       -0.06627598 0.014673339 -0.01565536 -0.071435116
000040 5c 69 90 3a 48 6c 74 bd fb bb b5 3d 63 41 71 be
       0.0011017728 -0.059673578 0.08873745 -0.235601
000050 13 01 c7 bd 13 3e eb 3b 89 bb 4e ba 0c cf 56 bb
       -0.09717002 0.0071790307 -0.0007886221 -0.0032777218
000060 38 d4 25 bd 0f fd ba bc 6b 72 19 bd 31 1f fd 39
       -0.04048559 -0.022825746 -0.037462633 0.0004827916
000070 87 12 a3 bc 67 31 53 3d 09 ff 00 bd b1 7c 9c bd
       -0.019906295 0.051560786 -0.03149322 -0.076409705
000080 12 f7 c4 3c 2e 90 37 be 03 8e 48 bb 5d 2d de 3d
       0.024043594 -0.17926094 -0.0030602224 0.10848496
000090 3f cf b7 36 60 8a c4 bd 35 37 af bd 81 19 51 3c
       5.4779516e-06 -0.095967054 -0.08555452 0.012762428
0000a0 aa d1 52 bd f6 ec a0 bc 5a 07 b7 bd 2c bd ec 3c
       -0.051469482 -0.019644242 -0.08936949 0.028898798
0000b0 3a 78 b8 ba 3c 10 b6 bd 47 52 62 bc 6f 25 98 bd
       -0.0014073916 -0.08889815 -0.013813562 -0.07429015
0000c0 13 97 a2 bd 94 fb c8 3b bd 4e 8d bd 55 5b 80 3c
       -0.07938971 0.006133506 -0.06899784 0.01566855
0000d0 ee 93 9c bd b7 70 a4 3c d4 f7 51 39 9b 42 c4 bd
       -0.07645403 0.020073278 0.00020024116 -0.095830165
0000e0 3a e7 87 bd 35 0c e0 ba 04 29 9b b8 d9 47 be bd
       -0.066359 -0.0017093482 -7.398616e-05 -0.092910476
0000f0 8e 9b 77 bc 6c 83 9a bd 6c 25 94 ba 65 b1 b3 bd
       -0.015112771 -0.07544598 -0.0011302656 -0.0877407
000100 c2 aa ee bd 51 58 49 3b ab a8 4f 3d 8f f9 26 3b
       -0.11653663 0.0030722807 0.050697964 0.0025478338
000110 bd 4d 20 bd 10 5a d2 bb 83 1a 34 bd b7 d6 dd bb
       -0.039136637 -0.0064194277 -0.043970596 -0.006769981
000120 f0 fd b7 b8 8c 0c 20 bb 84 f5 be bd 64 79 ba 3b
       -8.7734195e-05 -0.002442154 -0.09324172 0.0056907404
000130 fe 1f 6e be 7a a7 c6 3d 9c 99 f2 39 b8 c7 29 bd
       -0.23254392 0.09699912 0.00046272285 -0.041450232
000140 ff 4e 9e bd 5a 5e 7d 3a 3d 75 9b bc bd 8c e1 bd
       -0.07729911 0.00096652436 -0.018976802 -0.11013172
000150 45 4c 02 bd bc 0a d6 3d cd fc 5f 3c cc 3a 1a be
       -0.031811018 0.10451266 0.013671112 -0.15061492
000160 b4 fa 17 bd a6 2b 95 bb 5e c6 9d bd 5a 75 d1 3b
       -0.037104324 -0.0045523224 -0.07703851 0.006392163
000170 2f 92 55 3d 8b e4 eb bd 47 88 87 3c ae 9f 38 be
       0.052141365 -0.115182005 0.016544474 -0.18029663
000180 8f f6 87 bd 31 46 73 3c 3a 1c 01 3a 5b fd a6 bd
       -0.06638824 0.014848278 0.00049251656 -0.081537925
000190 ed 54 27 bd 5e 04 ef bb 5c d0 83 bd 57 ae 70 3c
       -0.040852476 -0.007294222 -0.06436226 0.014690003
0001a0 bf 53 0a bc 13 cc 74 3d 2c d2 7a 36 56 5b c0 bd
       -0.008442818 0.059764933 3.737524e-06 -0.09392421
0001b0 4f 83 95 bb 4f 0d 9a bd 7e 77 8b bd b5 af 77 3c
       -0.0045627723 -0.0752207 -0.06809901 0.015117575
0001c0 d1 4e bc 39 45 f3 9e bd 19 c5 a5 bd bb 9c 00 3c
       0.00035916877 -0.07761244 -0.08094234 0.007849867
0001d0 c7 9e 9a bd 3b 43 21 3e a7 30 1a 3b b3 b6 79 bd
       -0.075498156 0.15748303 0.0023527534 -0.06096525

net_dS2.0.bias f4 [60]
000000 63 59 af bd 8b a7 e9 bd b0 c7 c3 bd a1 1e f3 bd
       -0.08561971 -0.114089094 -0.09559572 -0.118710764
000010 ca 9a 1b 3e 33 75 82 be d0 c7 ca bd 18 ba b7 bd
       0.15195766 -0.2548004 -0.099013925 -0.089710414
000020 0f 34 fe bd d4 c5 1c be 0f 8b da bd a5 bb 9a bc
       -0.12412273 -0.1530984 -0.106710546 -0.018888304
000030 21 73 8c bd 2c 8a 80 bd 8d 62 25 bf 9a 42 6d bb
       -0.068578966 -0.06276354 -0.646035 -0.0036203028
000040 78 bc ab be 6b 14 56 3b cb 24 ff bd 74 a5 ea bd
       -0.33542228 0.0032665979 -0.124581896 -0.11457339
000050 ef 1f a3 bd 01 fa d5 bd f2 d2 c4 bd b7 e9 b9 bd
       -0.07965075 -0.10448075 -0.09610547 -0.09077781
000060 20 69 aa bd a7 fe d0 bd d5 b3 e2 bd 7b e2 dd bd
       -0.08320832 -0.10204821 -0.110694565 -0.10834213
000070 20 6d 9d bd 3f 88 d3 bd 92 7c bf bd 6f 33 c5 bd
       -0.076868296 -0.10328721 -0.09349932 -0.09628951
000080 74 59 d0 bd b1 42 fc 3d 3b 38 51 bd 50 b8 69 bd
       -0.10173312 0.12317408 -0.051079016 -0.05706054
000090 51 36 83 bc d0 d6 d9 bd 81 29 7b be 18 d3 d7 bd
       -0.016017111 -0.10636675 -0.24527551 -0.1053831
0000a0 a5 8f cb bd d8 8a 07 be 2b 33 ea 3c 74 bd 0b be
       -0.099395074 -0.13236558 0.028588852 -0.1364649
0000b0 e1 4b 74 bd fb 01 d0 bd c7 fa 66 be a3 7f 27 be
       -0.059642676 -0.10156628 -0.22556601 -0.16357283
0000c0 71 dc ca bd e5 29 d7 bd be 1e 5f bd be 60 c8 bd
       -0.09905327 -0.105060376 -0.054472677 -0.09784077
0000d0 74 61 d5 3d d2 c3 c3 bd f1 d2 e3 bd 63 3d cf bd
       0.10418978 -0.09558834 -0.11124218 -0.101191305
0000e0 cf d4 da bd b7 b3 bb bd 8d 1f ed 3d 37 f6 41 be
       -0.10685121 -0.09165137 0.115782835 -0.1894158

net_dS2.2.weight f4 [1, 60]
000000 4a 8c a2 3c 0f 6c ae b9 0e ff 13 b9 69 ea 61 3a
       0.019842286 -0.00033268376 -0.00014114028 0.00086179987
000010 48 09 5a 3d 98 35 16 be 17 7d 48 3d 13 5a 2d 3d
       0.053231508 -0.14668882 0.04894742 0.04232223
000020 05 17 4d 3b a3 f4 44 3e 56 0a 52 3e 11 bd 49 3b
       0.0031294238 0.19233947 0.20511755 0.0030782858
000030 3d c3 24 3d fd 6f d8 3c 4f 66 d5 be d0 c4 ff 3c
       0.040225256 0.026420588 -0.41679618 0.031221777
000040 b8 e2 47 3e 1e e6 dd bc 4c 05 84 3d 81 f7 0e 3e
       0.1952008 -0.027087267 0.06446323 0.13961603
000050 53 7b ab bc 57 4f e1 3d b6 71 3f 3b 3c ad 3c 3d
       -0.020932829 0.11001461 0.0029212064 0.046063647
000060 5c 8b 10 3d 16 e7 9a 3d 61 4e 07 3e 51 a9 95 b9
       0.035289153 0.075636074 0.13213493 -0.00028545645
000070 cd 4d a4 3c c0 c7 b0 3b 11 6c 68 3d 86 d5 58 39
       0.02005663 0.005394906 0.056743685 0.00020678909
000080 be f3 fa 3e 98 e3 75 3d 1a 5d cb 3c 4d 13 08 3d
       0.49014086 0.060031503 0.024824668 0.03322153
000090 d6 20 21 3a 40 6d c2 3d e1 15 ad be ec ee 53 3b
       0.00061465555 0.09493494 -0.33805755 0.0032338453
0000a0 28 7a 0a 3e d1 14 80 3d 27 bc 50 bd 9e 00 9f bd
       0.13523161 0.062539704 -0.050960686 -0.077637896
0000b0 0b e1 49 3c 1f 64 94 3d d7 9b d1 3d 24 94 ee bd
       0.012321721 0.07245659 0.10234802 -0.11649349
0000c0 60 aa 70 3d cf 79 a5 3a 42 ea 96 3c 62 7d 00 3d
       0.058756232 0.0012624803 0.01842225 0.031369574
0000d0 20 63 9b 3c 86 b0 6d 3b fd b4 43 3a 31 39 78 3d
       0.018968165 0.0036268546 0.0007465629 0.060601417
0000e0 03 3b 55 ba 13 a0 e2 3d ca 8e d4 bd c6 16 8a 3c
       -0.00081340986 0.11065688 -0.10378797 0.016856562

net_dI.0.weight f4 [197, 2]
000000 b4 f7 67 3d 57 6d 66 bd 15 27 6a bc a7 14 b3 bc
       0.056632712 -0.05625662 -0.014291544 -0.021860434
000010 96 83 b1 bd 3f 4f d9 3d 61 b1 04 3e df 7e 50 be
       -0.08667676 0.10610818 0.1295829 -0.20360897
000020 bd d1 23 bc 49 f0 0c bc 52 c9 e3 3d ed a1 12 be
       -0.009998736 -0.00860221 0.11122383 -0.14319582
000030 cf 0a 54 bc df fb 88 bd c0 8d cf bb ef dc a2 bb
       -0.01294203 -0.066886656 -0.0063340366 -0.004970185
000040 76 92 cd bb 0f 86 ea bb 67 4b 11 3e 7b f1 65 be
       -0.006273563 -0.0071570943 0.1418892 -0.22455399
000050 16 87 07 3b ee fe 79 bb d2 3e b1 bb 8f fe d3 bc
       0.0020679883 -0.0038146335 -0.0054091 -0.025878219
000060 7c 8f 9b bd 2f 41 fa 3d 86 db a6 bd 3a c2 08 3e
       -0.07595727 0.12219464 -0.081473395 0.13355342
000070 d4 a1 81 38 61 06 c1 3a 2d 41 11 bc 62 c4 99 bc
       6.181342e-05 0.0014726633 -0.008865637 -0.0187704
000080 55 29 ac bb 7e 47 d3 b9 3d 30 f9 bd 50 d2 ea 3c
       -0.0052539506 -0.00040298322 -0.12167404 0.028664738
000090 17 26 15 3b 81 31 c2 bc 10 bf 84 3d a7 35 95 bd
       0.00227583 -0.023705246 0.06481755 -0.07285624
0000a0 11 81 6c bc d2 ff 17 bb 66 db b6 bd aa 93 01 3e
       -0.014435069 -0.0023193252 -0.08928566 0.12653986
0000b0 44 a1 a3 bb 0f f8 06 bc b0 cf 1d bc be 2b e9 bc
       -0.0049935896 -0.008237853 -0.009632036 -0.02846324
0000c0 ff 83 96 3d 0b bd cd bd a6 01 1b bc cf 61 6f 39
       0.07349395 -0.10045823 -0.009460842 0.00022829253
0000d0 fd 1a 3f b9 88 45 e9 b6 37 92 f2 3d d4 ed 20 be
       -0.00018225233 -6.9520356e-06 0.118442945 -0.15715724
0000e0 89 19 a5 bd 8e 8c e5 3d 82 ee c1 3a 6b 03 2c bc
       -0.08061511 0.11208449 0.0014795812 -0.010498862
0000f0 be 8e 8e 3b 4b 34 87 bc 90 f7 de 3b b9 03 87 bc
       0.0043505123 -0.016504427 0.006804414 -0.016481267
000100 a0 95 a7 3c 48 b8 52 bd 9d 2a 63 bc 0c 49 c2 bc
       0.020457089 -0.051445276 -0.01386514 -0.023716472
000110 4c c9 4c bc 9a 47 13 bb 72 07 b4 bd 7f aa da 3d
       -0.012499165 -0.0022473098 -0.087904826 0.10677051
000120 bf 45 7b b9 83 cb 8b bc df de 4c bd 83 9e 23 be
       -0.00023963208 -0.017064815 -0.050017234 -0.15978436
000130 5f c8 33 bd fc 0b fe 3c eb 78 1b 3d 75 b6 5d bd
       -0.04389226 0.031011574 0.037957113 -0.054129083
000140 de ff 1a 3c 85 da b7 3d 26 bf c9 3b 85 1a 79 bc
       0.009460418 0.08977226 0.00615682 -0.015204077
000150 2e fe 64 38 10 57 d5 3a 19 06 99 3d bd e4 08 be
       5.459616e-05 0.0016276557 0.07471866 -0.13368507
000160 94 b7 ac 3c 52 f1 5f bd b1 ea 0f 3e e1 ee 07 be
       0.02108363 -0.0546735 0.14054371 -0.13274719
000170 7b d5 93 bc 0e 6c 78 bc 6e 0b 88 b9 c9 89 01 bc
       -0.018046131 -0.015162481 -0.00025948457 -0.007906386
000180 a8 07 a5 bb 6b 13 bc 3b 73 3b f5 3d ea 1e 3f be
       -0.005036313 0.0057396195 0.1197423 -0.18664137
000190 df b8 02 bc ba 2a 24 bc c4 3b 79 3b 8e bd e5 bb
       -0.007978647 -0.010019952 0.0038030008 -0.007011122
0001a0 31 6e 55 b9 5b c8 c4 3a bf 30 a7 bd 90 49 09 3e
       -0.00020354312 0.0015013324 -0.081635945 0.13406968
0001b0 e9 31 8d 3b 21 c7 d3 bc 1c 26 ab 39 de 18 e3 3a
       0.0043089283 -0.025851788 0.00032644055 0.0017326137
0001c0 1e 05 4f 3b 9d 9b 59 bc b8 ff e9 3d e3 3e af bd
       0.0031588743 -0.01328173 0.114257276 -0.085569166
0001d0 b2 f9 0f bc 87 2c f5 bc 10 ca 0c bc 73 46 e6 bc
       -0.008787559 -0.029928459 -0.008593097 -0.028109765
0001e0 3c ec 06 3e d6 b7 52 be 85 c4 9c 3a 66 6b 7c bb
       0.13176054 -0.2057794 0.0011960423 -0.0038516163
0001f0 48 49 34 bb 2c d8 d2 bb 97 39 0f bd 5a 32 8b 3b
       -0.00275095 -0.006434461 -0.03496703 0.0042479457
000200 2e b7 0c bc 1b 74 8e bc 11 03 a7 38 4e b5 31 b9
       -0.008588595 -0.017389348 7.963752e-05 -0.00016947577
000210 9e 31 13 3c dd 3d c1 3d fc 31 af bd ef 9b d6 3d
       0.008983998 0.094356276 -0.08554456 0.10478961
000220 66 ff 7b 3c d1 86 61 bd d0 d1 85 3b d3 65 f9 bb
       0.015380716 -0.05506021 0.0040838495 -0.0076110153
000230 d1 e7 b6 bd a8 75 d5 bc 46 e1 80 ba 24 d0 9c 3a
       -0.08930934 -0.02605708 -0.0009832762 0.0011963886
000240 71 1e 5b bc 9d 17 03 bd c8 13 da 3d e9 b1 0a be
       -0.013373957 -0.03200494 0.10648304 -0.1354443
000250 90 16 9a bd bc ad f3 3d cd 89 ec 3d 81 34 3a be
       -0.07523835 0.118983716 0.11549721 -0.18184091
000260 8f ff 4f 3b c2 33 61 bc 79 1a 6b 3b a1 10 dd bb
       0.0031738018 -0.01374525 0.0035873933 -0.006746367
000270 f7 3e 14 ba 35 24 92 bb d1 13 47 bc 4f 58 05 bd
       -0.00056551344 -0.0044598826 -0.012150721 -0.03255492
000280 c9 cb de 3a 94 21 d6 ba d2 ad a3 3b 47 31 8c bc
       0.0016997989 -0.0016336911 0.004995086 -0.017113341
000290 f0 db d3 3b 37 a8 47 bc de d7 d6 bb 67 7e af 38
       0.0064654276 -0.012186102 -0.006556495 8.3681945e-05
0002a0 ec 0c ce 3b 1e bc 5a bc d8 e1 bc 3b 3b 74 82 bc
       0.0062881615 -0.013350515 0.0057642274 -0.015924564
0002b0 0d ed 5b 3b 83 06 73 bc 5f a8 6b bc b3 2c 60 bb
       0.0033558041 -0.0148330955 -0.0143834045 -0.003420633
0002c0 9a 8c a2 b9 cb 7c 22 3b 8f e4 af bd e5 54 d7 3d
       -0.00031003804 0.002479362 -0.08588516 0.10514239
0002d0 55 c5 39 3d 47 f2 15 3e de 14 11 bb d1 2f 81 bc
       0.045354206 0.14643203 -0.0022137682 -0.015769871
0002e0 df 07 b8 3d 76 15 24 be eb 71 47 bc f1 0c a5 bb
       0.08985876 -0.16023812 -0.012173156 -0.005036943
0002f0 4e 3d a3 3b 69 1e a5 bc a0 88 56 bc 5e fb 0c bd
       0.0049816733 -0.020156102 -0.013094097 -0.03441941
000300 c8 d6 0d bb bd 9d c3 ba 99 3a 3c bb cc eb 09 bc
       -0.0021642912 -0.0014924329 -0.002872145 -0.008418035
000310 65 5a d9 3d 8a 39 0a be 51 35 a5 bb ee 0c 7b 3b
       0.106129445 -0.13498512 -0.005041756 0.0038307267
000320 0d 25 73 3a dc 24 8f bc b3 37 9e bd 34 16 01 3e
       0.00092752354 -0.01747363 -0.077254675 0.12606126
000330 82 65 c6 3b 45 f2 6e bc 23 73 89 bd 60 d0 be bc
       0.006054581 -0.014584129 -0.06711414 -0.02329272
000340 d5 28 1c bc 1a 52 e2 bb 5d 15 df ba cb 1a 3c 39
       -0.0095312195 -0.00690676 -0.0017019917 0.00017939058
000350 52 be 1a 3c 7d a0 ee bc 2f 64 23 bc 33 af d5 bc
       0.00944479 -0.029129261 -0.009972616 -0.026084518
000360 f1 e7 fd 3d 94 39 1a be 6d 1f e3 3b f5 f3 7c 3d
       0.12397755 -0.15061027 0.0069312365 0.061756093
000370 86 5b c7 3b f1 d6 92 bc 2a 94 7d ba f1 fc 69 bc
       0.0060839085 -0.017924758 -0.0009673262 -0.014281497
000380 16 bd ba b7 fd 44 7c 38 55 37 ed 3d 85 8c 2e be
       -2.2260978e-05 6.0145732e-05 0.11582819 -0.17045791
000390 4f 44 82 bb 35 9b 26 bc fc d1 ea bb 99 12 d3 bc
       -0.003975428 -0.01016884 -0.0071661454 -0.025765704
0003a0 7d 1b ff bb 2c bc e0 bc 0f a8 83 38 f7 f2 3a 38
       -0.0077852593 -0.027433477 6.27787e-05 4.4572134e-05
0003b0 55 b4 a1 b9 3e a6 f5 bb ff 19 5a 3a 86 c4 96 bc
       -0.0003084267 -0.0074966243 0.0008319914 -0.018404257
0003c0 8d d0 e3 bd a8 9b 3e 3c b1 f4 4e bb 6a 48 2f 3b
       -0.11123762 0.011633791 -0.0031578953 0.0026746043
0003d0 ec b0 95 3b 1e 97 e7 bb 20 d8 a7 3d 87 76 a0 bd
       0.00456821 -0.007067575 0.081955194 -0.07835107
0003e0 f9 0a b3 b9 53 e1 2d bc 58 85 8b ba a9 dd d8 bc
       -0.00034149716 -0.0106128035 -0.0010644598 -0.026472883
0003f0 df 38 cf 3c 9f a0 56 bd 69 0d 1c bc de 80 c7 bb
       0.025295673 -0.052399274 -0.009524682 -0.00608836

net_dI.0.bias f4 [197]
000000 1e 50 1c be ca 91 5c bd 97 e2 d9 3c 3c df 96 bd
       -0.15264937 -0.053849973 0.026597304 -0.07366797
000010 0f 0a 8d bd 56 a3 d1 bd aa f1 a6 bd 8d 7a 51 bd
       -0.06886684 -0.10236232 -0.081515625 -0.051142264
000020 4f 58 a9 bc 72 e4 a0 bd 45 38 2a bd 66 df 48 bd
       -0.020671992 -0.078560725 -0.04155757 -0.049041174
000030 ae 58 5b 3d 55 c5 7e 3d a4 cf 36 bd d7 0e 5d bd
       0.05355137 0.06219991 -0.044631615 -0.05396923
000040 44 05 70 bd 1f f2 0a be 78 10 68 bd c8 ec 41 bf
       -0.05859877 -0.13568924 -0.05665633 -0.75751925
000050 b1 e4 35 bd 0e f4 62 3d 10 b6 f5 bc 94 dd 5f bd
       -0.04440755 0.05540853 -0.02999404 -0.054654673
000060 1a e3 39 be c0 f8 c0 bc b6 45 6e bb 97 6b 8e be
       -0.18153039 -0.023556113 -0.003635747 -0.2781646
000070 83 64 40 3d 30 8e f5 bc 09 72 04 bd b9 16 6d bd
       0.046970855 -0.029975027 -0.032335315 -0.057883
000080 d0 c4 01 bd b7 4d 60 bd df d3 6b bd 82 81 06 3d
       -0.031681836 -0.054761615 -0.057575103 0.032838352
000090 ba 9d 87 bd 28 4d fc bd 83 52 8b bd c6 84 eb bd
       -0.06621881 -0.12319404 -0.06802847 -0.11499934
0000a0 d9 c6 ed 3d 7d b4 38 bd 01 12 2c bd e6 d5 97 be
       0.11610193 -0.045094002 -0.042009357 -0.2965538
0000b0 14 71 05 be 81 3f 62 3d 93 15 a0 bd 85 a7 32 bd
       -0.13031417 0.055236343 -0.07816615 -0.04361679
0000c0 9f 30 2e bd e9 34 88 bd 9f 90 25 bd 7e b3 e3 bc
       -0.042526837 -0.06650717 -0.040421125 -0.02779555
0000d0 6a 76 2b bd 7f 07 81 3d ce 11 81 bd ae 97 1f bd
       -0.041860975 0.06300258 -0.06302224 -0.038963012
0000e0 97 4d cc bc 56 97 37 bf 81 f7 81 bd 56 3c 5d bd
       -0.024939341 -0.71715295 -0.06346036 -0.05401262
0000f0 32 72 94 bd 1f 0f 08 bd 14 68 73 bd 59 8f 27 bd
       -0.072483435 -0.033217546 -0.05942543 -0.04090819
000100 68 d9 7c bd f9 2b 50 bb 02 35 cd 3d 49 f6 c8 3c
       -0.061730772 -0.003176449 0.10019876 0.0245315
000110 1a 49 f1 bd 24 46 e6 bc b1 a4 fc bd 3c 7c 34 bd
       -0.11781521 -0.028109618 -0.123361 -0.04406379
000120 6c 17 87 bd 78 64 80 be 72 40 55 3d aa 6d 83 bd
       -0.06596264 -0.25076652 0.052063413 -0.06417401
000130 27 1e cd bc eb 86 dd bc d6 22 ea bc 03 ba 4d bd
       -0.025038792 -0.027041873 -0.028581064 -0.050226223
000140 94 9b 21 bd 8d b6 34 bd aa 4d 3d bd 14 c0 1b bd
       -0.03945501 -0.044119406 -0.046216644 -0.038024977
000150 b3 74 2f bd 35 6d 2f bd 44 2e f0 bc b0 fa 16 bd
       -0.042835902 -0.042828757 -0.029318936 -0.036860168
000160 68 87 2f bd ea 26 ce 3c 5b 17 10 3e 6b 5b 2d bd
       -0.042853743 0.02516504 0.1407141 -0.04232351
000170 ce f1 c0 bd 53 6d 05 bd 7d e5 51 bd c6 51 72 bd
       -0.094211206 -0.032574963 -0.051244248 -0.059160016
000180 7f 97 67 bc 46 f0 85 bd fc 03 d3 bd cd b6 8e bc
       -0.014135241 -0.06539969 -0.10303494 -0.01742115
000190 f4 16 6f bd 57 bd 63 3d c5 dc 2f bd 60 a7 c5 bd
       -0.0583715 0.05560049 -0.04293515 -0.09651065
0001a0 d7 91 0c bd fd b6 71 bc 16 a9 84 bd 13 59 4d bd
       -0.03431877 -0.0147531 -0.06477563 -0.050133776
0001b0 d9 07 0f 3d 82 b0 b5 3d db 90 4d bd 3b e0 1b bd
       0.034919593 0.08871557 -0.050186973 -0.03805564
0001c0 e3 82 69 bb 40 a0 98 bd 1f e2 48 bd 83 69 a4 bd
       -0.0035630993 -0.0745244 -0.04904377 -0.08027937
0001d0 a3 56 81 bd 20 fb 4c bb 21 93 ae bc 97 65 d5 bd
       -0.06315353 -0.0031277612 -0.02131039 -0.10419767
0001e0 87 63 04 be 7f eb 84 bc 44 28 10 bd a8 66 1d bf
       -0.12928592 -0.016225575 -0.03519465 -0.61484766
0001f0 ff 66 13 bd 3d fd cc bd 70 59 0a 3d 69 87 23 bd
       -0.035986897 -0.10009239 0.0337767 -0.03992406
000200 4d 3d 3f bd f2 4d b9 bd 3a 31 3d bd db 08 bb 3d
       -0.04668932 -0.0904807 -0.046189524 0.091325484
000210 3a 72 10 3d 2a 93 1d 3d 83 f1 b9 bd 4f fb 3b bd
       0.035265185 0.038470425 -0.09079268 -0.045893963
000220 a2 6d 54 bd a8 fe 81 be 9c 47 35 bd a9 0c 22 bd
       -0.051862366 -0.253896 -0.044257745 -0.039562855
000230 a5 76 bd 3c 24 2a 1e bd 66 84 5a bc 1b 67 3b bd
       0.023127863 -0.038614407 -0.01333723 -0.045752626
000240 23 32 8d bd 32 3b 66 bd cf 10 08 bd 58 8c 67 bb
       -0.068943284 -0.056208797 -0.033219155 -0.0035331454
000250 7a 3a 35 bd 85 f8 1c bd c8 19 e0 3d d9 b4 44 bd
       -0.04424522 -0.038322944 0.109424174 -0.048024032
000260 bf 1a a6 bd 0f ab 32 bd c3 00 24 bd d2 0f 3a ba
       -0.0811057 -0.043620165 -0.04003979 -0.00070976943
000270 f9 97 82 bd 6f 81 a1 bd 24 e2 a0 3d 01 63 b7 3d
       -0.06376643 -0.078860156 0.07855633 0.0895443
000280 0a 92 20 be 8d 8f 54 3d 70 c7 79 3d ac 25 5f bd
       -0.1568071 0.051894713 0.060981214 -0.054479286
000290 f6 54 d7 3c 4a ed ab bd a9 56 3e bd a5 91 4c bd
       0.02628563 -0.08394869 -0.046469364 -0.049943585
0002a0 f2 ca b2 bd a7 f9 34 bd b3 d3 ac bd 26 7f d4 bc
       -0.08730115 -0.0441834 -0.08438816 -0.025939535
0002b0 7b 54 68 be 71 a1 fa bc d9 1c 8b be 69 37 b1 3c
       -0.22688477 -0.03059456 -0.27170447 0.021632867
0002c0 c2 bf 02 bd 0d 05 32 3d 1b b8 63 bd 17 ef 3c bd
       -0.031921156 0.043461848 -0.0555955 -0.04612645
0002d0 f5 c9 c0 bd ea 39 d0 bc 63 8f 09 3d 6b b0 af bc
       -0.0941352 -0.02541824 0.03358401 -0.021446427
0002e0 1d ca 6c bd 71 a0 5e 3d 50 64 0e be 79 d1 86 bd
       -0.057809938 0.054352228 -0.13905454 -0.065829225
0002f0 50 8d 66 3d 8d 71 d6 3c 92 28 0d bd 60 3c 7d be
       0.05628711 0.026177192 -0.03446252 -0.24730062
000300 ac bb 80 3d 61 3c e0 bc 40 7a e3 bd 12 56 e5 bc
       0.062857956 -0.02737254 -0.11107302 -0.027995143
000310 5c de b6 bc
       -0.022322826

net_dI.2.weight f4 [1, 197]
000000 47 c4 8f 3d 5d d4 98 3c 7b c9 bf bc b8 a5 a0 3e
       0.07019859 0.01865595 -0.023411503 0.31376433
000010 37 75 31 3c 44 48 15 be 7d da 2c 3d 4e 77 d1 3c
       0.010831169 -0.14578348 0.042200554 0.025569584
000020 da ee ee bb 33 ac 23 3f 02 0e 09 bb 31 6a 4a 3c
       -0.007291657 0.6393463 -0.002091289 0.01235442
000030 5f f2 4b bd 39 f8 a9 bd 4b 4f 9c ba c3 42 26 3c
       -0.04979169 -0.08299298 -0.0011925487 0.010147753
000040 2c a9 de 3c 65 0c 48 3e 6f 6c 3c 3b 30 e8 2e bf
       0.027180277 0.19535978 0.0028751155 -0.6832304
000050 57 f7 ca 3b 88 0b 8a bd ee 1a b7 3b 43 98 45 3c
       0.006194036 -0.06740481 0.005587927 0.012060228
000060 ef db 87 3d e6 9b 0e bc db 20 77 ba f0 ad 07 3f
       0.06633746 -0.008704161 -0.0009427198 0.5299978
000070 67 6f 0e bd a5 20 62 ba e3 12 9c 3b b9 07 c3 3c
       -0.03477421 -0.000862608 0.0047629937 0.023807393
000080 42 1d 40 3a 07 d4 94 3c 70 0b 93 38 55 5b de bc
       0.00073285785 0.018167509 7.0116366e-05 -0.02714316
000090 7d 92 93 3c 64 3d f4 bd 4b a4 ad 3c a0 79 eb 3c
       0.018014187 -0.11925772 0.021196505 0.028744519
0000a0 f0 b4 b0 3d ca d4 25 bb 9e ae 61 ba 37 33 f2 3e
       0.08628261 -0.0025303834 -0.0008609089 0.473047
0000b0 1c 96 a3 3c 18 0c 0a 3e c6 f5 d0 bc 8c 84 cd bb
       0.019969039 0.13481176 -0.025507819 -0.0062719043
0000c0 37 19 0b 3b 18 e9 bb 3e 62 3e ce 3b b4 36 d6 b7
       0.0021224746 0.36701274 0.0062940577 -2.5536261e-05
0000d0 16 35 9f 39 b9 0e b2 bd e4 ef 5a 3c f0 d6 b7 ba
       0.00030366395 -0.086942144 0.013362858 -0.0014025848
0000e0 8a 14 a6 ba b2 76 32 bf fd 1b 8f 3c e0 75 41 3c
       -0.0012670916 -0.69712365 0.0174694 0.011807889
0000f0 0b ba c6 3e 60 2c 0a ba 9d 3c ab bc 50 b5 ed 3c
       0.38813815 -0.00052708946 -0.020902926 0.02901712
000100 3e 2c a6 3b 9f c3 80 ba ef ce a2 3d bd d3 ac bc
       0.005071192 -0.0009823925 0.07949626 -0.021097058
000110 d8 35 2c 3d 24 a2 13 ba 22 ae ea 3d eb e1 21 39
       0.042043537 -0.0005631766 0.114589944 0.00015438317
000120 66 4d 8d 3c 65 27 ad 3e 55 c1 33 bd 2f c7 4f 3e
       0.01724882 0.33819118 -0.043885548 0.20290826
000130 8c df 1b 39 67 d9 c9 39 12 18 05 ba 81 a6 62 bc
       0.0001486523 0.00038499685 -0.0005077134 -0.013833643
000140 77 c9 88 39 0c e0 e6 ba 0c 58 8f 3c fb b8 e4 bb
       0.00026090044 -0.0017614379 0.017498039 -0.006980059
000150 93 be cb 3b 3f 45 6d bb 4c 29 21 3a 41 90 b6 3b
       0.0062177866 -0.0036204604 0.00061478163 0.0055713956
000160 5f a5 f1 ba 23 4c b2 bc cb b7 0b 3e 0a 0e 56 bc
       -0.0018436125 -0.02176482 0.1364433 -0.013064871
000170 d3 ff 0d be 7b b0 07 3c 4b 70 36 ba df e0 96 bc
       -0.1386712 0.008281822 -0.0006959482 -0.018417774
000180 40 17 15 bb fa f3 97 bc 7f 2e 07 be e6 20 37 3c
       -0.0022749454 -0.018548954 -0.1320133 0.011177277
000190 ea ad 44 3c 07 5a 71 bd eb ed 26 bb 4c 11 01 3e
       0.012004355 -0.058923747 -0.00254714 0.12604254
0001a0 84 04 6f 3b 08 dc 56 bb 01 33 80 bb 81 ce 6f 3c
       0.0036471197 -0.0032784957 -0.00391233 0.014636637
0001b0 29 f1 9a 3d b5 46 6b 3d ca fb 9c bb c8 c3 a0 bb
       0.07565529 0.05744048 -0.004790758 -0.0049061514
0001c0 54 38 58 ba 29 fa 44 3e 15 59 83 3b 31 fb a9 3c
       -0.00082481396 0.19236054 0.004008422 0.02074966
0001d0 3d d4 21 3c 35 d2 a8 ba 3e 11 8e b9 40 e9 ff 3b
       0.009877262 -0.0012880029 -0.00027097197 0.007809788
0001e0 c3 2f 68 3e 10 1a 37 3c 05 09 d6 ba d5 4b a9 be
       0.2267447 0.011175647 -0.0016329592 -0.33065668
0001f0 68 b8 b7 3b 10 f1 87 3b 7f 4e d4 3c 8f 00 f5 bb
       0.0056066997 0.00414861 0.025916336 -0.007476873
000200 54 68 bd ba ce 19 7b bc ba 96 94 3b 51 34 64 3d
       -0.0014450648 -0.015325977 0.0045345696 0.055713955
000210 83 e7 94 bc 2e 8c c8 3d 41 af 29 bc 41 e2 9b 3b
       -0.0181768 0.09792362 -0.010356725 0.004757196
000220 13 2e 18 bd bc 4e 30 bf ef 34 b3 3b 55 47 1d 3c
       -0.037153315 -0.6887014 0.0054689567 0.009599526
000230 13 d6 a5 bc 73 bd 22 3a 4c 1f 12 3c e4 9d 92 ba
       -0.02024368 0.00062080397 0.008918595 -0.0011185971
000240 04 5c ac bc 18 1b ae bb c5 cb 3c 3c 8f 41 60 ba
       -0.02103997 -0.0053132884 0.011523192 -0.0008554691
000250 3c 8b 16 ba 21 b7 ef ba 2e 7d 98 3d 0f 10 9d bb
       -0.00057427934 -0.001828883 0.07445751 -0.004793174
000260 1f fc 98 bd 1f 8f 8d 3b 0b f0 6f ba a8 ab b8 bd
       -0.07469963 0.00432004 -0.00091528957 -0.09017116
000270 be 57 f8 3b 09 aa 8c bc b7 b1 08 be 9e 2b 32 be
       0.007578819 -0.017170923 -0.13349043 -0.17399451
000280 2d ff ea 3d 97 ea 31 bd 24 ac bb 3c 0b 10 83 ba
       0.11474452 -0.043436613 0.022909231 -0.0009999288
000290 db 54 bd bc a6 38 c9 3d 11 7a 7b bb ec b1 79 3b
       -0.023111751 0.09825258 -0.0038372318 0.0038100434
0002a0 50 42 99 3d c7 7d 5e ba 4d bc a8 bc 11 66 1f bb
       0.07483351 -0.000848737 -0.020597601 -0.002432231
0002b0 96 55 b7 3d 35 0a 04 3b 8f c1 e7 3e 65 0a a5 bc
       0.08951871 0.0020147685 0.4526486 -0.020146558
0002c0 b3 95 47 3c eb 32 fc bc 38 f3 ee bb f0 70 12 bb
       0.012181687 -0.030785998 -0.0072921775 -0.0022345148
0002d0 c4 9a fc bd cf 53 24 bc 92 70 ae 3d a1 1a ec 3c
       -0.12334207 -0.010029747 0.08517565 0.028821291
0002e0 37 41 1b 3b 53 4e 58 bd 15 94 a3 3c 2f fc 7c bc
       0.0023689994 -0.05280907 0.019968072 -0.015440985
0002f0 ff 64 7b bd 34 01 bc bc 21 ee 43 3c 8e 4b 2b 3e
       -0.061375614 -0.022949792 0.01195863 0.1672804
000300 f1 b2 ae bd 8d 10 cc 3d 56 a2 a8 3c ad 0f 7b 3b
       -0.08530224 0.09964094 0.02058522 0.0038308904
000310 86 65 cc 3c
       0.024950754

net_dX1.0.weight f4 [191, 2]
000000 8d f8 e7 39 41 38 1d bd b0 ed 38 bc f9 3a f6 bc
       0.00044244938 -0.038383726 -0.011287138 -0.030057417
000010 9b 16 06 bb 46 12 ee ba 31 59 94 bb cd 15 d4 ba
       -0.0020460251 -0.0018163405 -0.004527234 -0.0016180814
000020 2c f0 23 bb e0 18 8f bc 63 88 4b bc 76 d8 d3 3c
       -0.002501498 -0.017467916 -0.012422654 0.025860053
000030 24 df c3 ba 4a 5b 0d 3b 23 8f 81 ba e5 53 ca bc
       -0.001494382 0.0021569305 -0.0009884577 -0.024698207
000040 0f d4 22 bb b1 11 91 bc d0 db 34 bc bd cc 0e 3c
       -0.0024845635 -0.017708631 -0.0110387355 0.008715806
000050 d6 14 94 bb 66 8c 3f bc 75 fd 60 3a 88 81 cb bc
       -0.0045190854 -0.011691188 0.000858269 -0.024842039
000060 c7 de 3c 3d 6f 34 a9 bd bc f5 db ba 84 9e 2e bc
       0.046110895 -0.08261954 -0.0016781609 -0.01065791
000070 43 b9 26 3b 6d 9d 1d bc 37 bc 6b 3a 72 10 2d bc
       0.0025440014 -0.009620053 0.0008992585 -0.010563003
000080 db e5 47 bb 3a 29 06 bc ce 47 dc ba b0 de 92 bc
       -0.0030501995 -0.00818854 -0.0016806067 -0.017928451
000090 06 76 fd ba 39 9f 10 bc b7 f6 eb 39 3a 00 73 b9
       -0.0019337542 -0.008827024 0.0004500651 -0.0002317437
0000a0 79 e7 d1 bc 61 d3 7b bb 4b ae 1d bd fd 27 cd 3b
       -0.02562307 -0.0038425552 -0.038496297 0.0062608705
0000b0 23 3b e4 3b ee 17 78 bd c7 63 5c bb b7 5b f9 bb
       0.0069650575 -0.060569696 -0.0033628808 -0.00760981
0000c0 10 79 87 39 6e 68 81 bc 14 cc 30 ba 80 aa 3a bc
       0.00025839405 -0.015796866 -0.0006744277 -0.011393189
0000d0 0a 52 9c bb 4e 91 26 bc 27 1e a6 bb 45 ca 9d bc
       -0.004770522 -0.010166479 -0.0050695124 -0.019261489
0000e0 c5 88 80 3b fa 2a 70 bc ab 88 18 bb bc 80 13 bc
       0.003922554 -0.014658684 -0.002327482 -0.009002861
0000f0 87 60 2d ba 2c 0c a9 bb 37 93 8b bd 0f b1 97 3d
       -0.000661381 -0.0051589217 -0.068151884 0.07406818
000100 17 88 a8 ba 0d 1f 18 bc e0 36 29 bb 38 14 67 bc
       -0.0012857941 -0.009284747 -0.0025820062 -0.014103942
000110 08 50 8f bc 52 50 22 bc b1 2e 47 bc de 65 6f 3b
       -0.017494217 -0.009906845 -0.012157128 0.0036529223
000120 f3 13 19 bb 56 33 01 bc c4 e6 49 bb d7 4b f9 bb
       -0.0023357838 -0.007885775 -0.0030807713 -0.0076079178
000130 cb 82 48 bc 44 10 29 3b b3 30 4a bb 2c eb 5c 3a
       -0.012238215 0.0025797049 -0.003085178 0.00084273773
000140 e2 e7 9e 39 01 d8 62 bb 0c fb 47 ba 3b 19 48 bd
       0.00030308875 -0.0034613612 -0.00076286565 -0.048852187
000150 7f 55 5e bd b2 bf 6a 3b ae 99 fc ba c9 15 5d bc
       -0.054280754 0.0035819826 -0.0019271874 -0.0134939635
000160 a1 19 81 bb 05 28 1c bc dc c8 7e bb 67 4b 57 bb
       -0.003939823 -0.009531026 -0.0038877046 -0.003285134
000170 a3 c4 e0 bb 91 dd b3 ba ff 9d 27 bb 52 7d fd bb
       -0.0068593784 -0.0013722648 -0.002557635 -0.0077358866
000180 37 75 27 ba f5 c6 23 bc d0 8f 1a 39 71 8c 2a bb
       -0.0006388011 -0.0099961655 0.00014740159 -0.002602365
000190 b0 3a 10 bb 8d b9 63 bc b9 ff 3c bc 1a d9 e2 bb
       -0.0022007637 -0.013899219 -0.011535578 -0.006922853
0001a0 00 a9 8c b9 af 35 b5 bc 9e 68 e3 bb 4f 32 2a 3d
       -0.00026828796 -0.022120325 -0.0069399616 0.041551884
0001b0 f2 61 6d bb f8 4d 48 bd 92 41 36 ba e1 3f 2d bc
       -0.003622171 -0.04890248 -0.000695252 -0.010574312
0001c0 15 18 a5 3a fe 36 d7 bb 33 a8 ce 3a b9 94 50 bc
       0.0012595678 -0.006567835 0.001576668 -0.012730771
0001d0 fe fe 24 3a 4e d2 2d bc 53 31 49 ba 0f ae f8 bb
       0.00062941003 -0.010609223 -0.00076748914 -0.007589109
0001e0 d0 9a 8b 3d ee d4 e6 bd c7 74 0c 38 c4 8e 63 bb
       0.068166375 -0.11271082 3.348736e-05 -0.0034722546
0001f0 4f af 0b ba d2 5a b0 bc df d9 86 bc 64 a2 a7 bc
       -0.0005328552 -0.021527681 -0.01646131 -0.020463176
000200 12 55 64 ba bc ef a0 bb b7 70 07 b9 0e 01 a1 bc
       -0.0008710186 -0.004911391 -0.00012916593 -0.019653823
000210 e6 d2 c3 b5 eb d4 1d bc fa eb 19 bb dd 10 1c bc
       -1.4590012e-06 -0.009633283 -0.00234866 -0.009525505
000220 fd 29 89 bb 4f 08 17 bc 06 6b 62 bb 0e 71 9d bc
       -0.0041859136 -0.0092182895 -0.0034548654 -0.019218948
000230 c5 47 fb bb 05 b7 06 bd 3a 0c ee b9 a2 d6 10 bc
       -0.0076684677 -0.032889385 -0.00045404007 -0.008840235
000240 29 28 53 bc 7a 3f 08 bd 43 dd ae bb bf e4 17 bb
       -0.012887993 -0.03326366 -0.005336435 -0.0023177115
000250 d3 6b 75 3a 28 a7 e9 bb 53 9f 73 bc ff f0 92 3b
       0.00093620754 -0.0071305223 -0.014869529 0.0044842954
000260 ec 2f fd ba 34 92 65 bd 10 10 0e bc d3 23 54 ba
       -0.001931665 -0.056047633 -0.008670822 -0.00080924964
000270 c5 46 67 b8 19 f1 50 bb 02 e1 d3 3b f7 f6 6d bd
       -5.51406e-05 -0.0031881987 0.006466032 -0.058096852
000280 8b bc 94 bc 3e 40 f2 bb 81 7f 9e ba 40 c8 6a 3c
       -0.01815631 -0.007392912 -0.0012092442 0.01432997
000290 24 3b 9d 3a 2f d1 b0 bb 16 6d 3a ba a6 73 ed bb
       0.0011995775 -0.0053960304 -0.0007111592 -0.0072464524
0002a0 c7 2d 65 3b 09 ae 93 bc 21 c8 a1 b7 2f 8a 20 bc
       0.0034969912 -0.018027322 -1.9285888e-05 -0.009798571
0002b0 bd 6c a0 ba 33 cf 87 bc 0c e2 a7 bb 75 04 01 bc
       -0.0012239438 -0.016578292 -0.0051233824 -0.007874598
0002c0 92 07 c8 bb f2 f9 72 bb 8b 6a 85 39 a6 02 27 bc
       -0.006104418 -0.0037075249 0.00025447118 -0.0101935025
0002d0 af 3e ca 3a ac f5 e9 bc d1 4d 37 3b 89 a1 d0 bc
       0.0015430058 -0.028559528 0.0027969966 -0.025467651
0002e0 06 11 fb 39 35 19 25 bb d5 05 35 ba f7 fd d0 bb
       0.00047887134 -0.0025192027 -0.0006905471 -0.006377931
0002f0 ac 0d 29 36 6c 76 1f bc 76 75 86 bc ba 8b 80 bc
       2.519092e-06 -0.009732824 -0.016413432 -0.015691627
000300 ac 06 7c bc 98 39 74 bc b4 e7 04 bc b7 25 ab 3a
       -0.01538245 -0.01490631 -0.008111883 0.0013057505
000310 5e 61 d9 ba 3e 56 ee bb 1f ff a7 39 3e 79 c8 bc
       -0.0016584804 -0.0072734645 0.00032042802 -0.024471875
000320 8d c2 4a bb 9a c3 07 bc 8b bd 89 bc 6f 80 0d 3b
       -0.0030938715 -0.008286381 -0.016814014 0.0021591445
000330 fb 05 6c bc f2 c8 0a bd df 80 f9 ba 35 bc 8e bc
       -0.014405723 -0.033883043 -0.0019035599 -0.017423728
000340 b8 09 17 38 73 4c 41 bb 93 05 13 bd f8 87 a0 3d
       3.6010257e-05 -0.002949503 -0.035893988 0.07838434
000350 f2 69 5d b9 16 5f 5a bb 04 20 1e bb 59 25 8e bc
       -0.0002111567 -0.0033320836 -0.002412797 -0.017351793
000360 68 2c 2b bb d5 5e 00 bc 76 d2 e7 3a 1b 75 f4 bc
       -0.0026118997 -0.00783511 0.0017686624 -0.029840996
000370 2a 78 d7 3a ed b3 2a bc a5 88 3d bc a9 7f 01 3c
       0.001643901 -0.010418874 -0.011568223 0.007903972
000380 c3 b9 0a bb 62 15 fe bb f8 50 f0 ba 14 c7 6f bc
       -0.0021167852 -0.007754014 -0.0018334677 -0.014634866
000390 ed a5 42 bb c2 3f 63 bc 9e 7d d1 ba 59 89 55 bb
       -0.002970095 -0.0138701815 -0.0015982871 -0.0032583086
0003a0 bc be 07 bc 44 45 7c bc bd 4f 52 bb 57 dd 56 bc
       -0.008285221 -0.015397374 -0.0032090985 -0.013114295
0003b0 c4 66 2c bb 73 4e 05 bc 26 d0 07 3a a7 95 a3 bc
       -0.002630637 -0.0081363795 0.0005180858 -0.01996882
0003c0 99 c6 0a bb 28 aa d2 bb 78 23 b0 bc c0 3b ab bc
       -0.0021175502 -0.0064289756 -0.021501288 -0.020902514
0003d0 34 04 7a ba 17 b4 55 bb 23 db 51 bc 8e b2 2a bc
       -0.00095373695 -0.0032608563 -0.012808594 -0.010418547
0003e0 d9 e0 cd 38 6d 99 57 bb 13 c1 54 bd d1 b4 88 3b
       9.817043e-05 -0.0032897845 -0.051941942 0.0041719456
0003f0 b2 6f 24 bb fb 95 66 bc 51 fc 1d ba 0f b2 24 bc
       -0.002509099 -0.014073844 -0.0006026673 -0.010052218
