src/t1dsim_ai/models/IndividualModel/T1DEXI-01-0794/individual_model.pt (torch, 50089 bytes, 7 tensors)

net_model.0.weight f4 [128, 10]
000000 64 a5 a6 3b 2e f0 31 bc 34 9f 38 3b b4 a4 3b 3d
       0.005085634 -0.010860486 0.0028171064 0.04581137
000010 c8 8a 4f 3c 17 54 13 3c 21 40 83 3c 63 e5 17 3d
       0.012667365 0.008992217 0.01602179 0.037083995
000020 6c 4e 84 bc 98 66 cf 3c 3c da 5a bb 4d 22 09 3d
       -0.016150676 0.025317475 -0.0033394238 0.033479977
000030 79 8f 0b bc 3e 20 9a bc a9 8c 5b 3d d2 c1 d3 bb
       -0.008518093 -0.018814202 0.05360094 -0.006462314
000040 c4 0a 3a 3b 4b 8e 21 3b be a8 08 bc ed ba b8 3c
       0.0028387764 0.0024651464 -0.0083410125 0.02255007
000050 32 93 a9 3c 53 20 0f bd 61 a6 97 bc 8c cb 21 3c
       0.020700071 -0.034942936 -0.018511953 0.0098751895
000060 fe 17 1c bc a4 74 49 3a 81 63 00 3c 57 a5 35 bc
       -0.009527205 0.00076849223 0.007836224 -0.011086783
000070 b1 6b f0 3b 17 86 90 3b 77 fb 8a bb 76 92 06 3d
       0.0073370566 0.004410516 -0.0042414027 0.03285452
000080 4d bc fd bb 79 79 96 bc 8a 9a 59 3d bd 29 9d bb
       -0.0077433945 -0.01836847 0.053125896 -0.0047962354
000090 77 64 3b 3b 53 7b 38 3b 53 dc 09 bc 59 9c b2 3c
       0.0028593817 0.002814968 -0.008414346 0.021803068
0000a0 1b 5b 47 bb 19 3c 0a 3d f8 25 0f bc 83 83 99 bc
       -0.0030419293 0.03374872 -0.00873708 -0.018739467
0000b0 01 3e 5c 3d 71 e6 04 bc 29 f9 38 3b e6 a4 28 3b
       0.05377007 -0.008111582 0.0028224683 0.0025733053
0000c0 d1 ab 07 bc f5 ed ba 3c 45 e3 41 bb 2a 44 0a 3d
       -0.00828071 0.022818545 -0.0029584926 0.033756413
0000d0 c5 2b 10 bc d2 80 9a bc 40 41 5c 3d 3f 2b 01 bc
       -0.008799498 -0.018860254 0.053773165 -0.007883846
0000e0 4e e6 35 3b 9e 34 2c 3b 81 70 08 bc a9 22 bb 3c
       0.002775568 0.002627648 -0.008327604 0.022843676
0000f0 38 6c 3b 3b c8 db 88 bc c7 34 86 3a df 42 64 3d
       0.002859844 -0.016706362 0.0010239118 0.055727836
000100 cb 6c 61 3c 5b ec 54 3b 4b fe 9b 3c a4 a2 3e 3c
       0.013758848 0.0032489512 0.019042155 0.011635456
000110 c0 92 3e bb ab bb 99 3c 65 d0 0c 3b 33 8a 8c bc
       -0.002907917 0.018766245 0.0021486518 -0.017155742
000120 7b ff 94 3a 9c 1f 67 3d b1 2e 26 3c 52 4a 60 3b
       0.0011367643 0.05642663 0.010142968 0.0034223986
000130 b0 dd 9b 3c e5 2c 30 3c 6b ea 0a bb 69 e1 94 3c
       0.019026607 0.010752891 -0.0021196853 0.01817389
000140 b7 24 3f bb 3e 44 0a 3d 8b 3b 11 bc 34 e5 9a bc
       -0.002916617 0.033756487 -0.008864294 -0.01890812
000150 2b 3e 5c 3d 94 6e 01 bc a3 b4 34 3b 59 a8 2c 3b
       0.053770225 -0.007899899 0.0027573488 0.002634546
000160 6f cd 08 bc bb 3c bb 3c e6 fb d8 3b a3 e1 75 bc
       -0.00834976 0.022856107 0.0066218255 -0.015007409
000170 25 9b 36 bb d6 cd 82 3d 88 f3 77 3c e8 f7 24 b9
       -0.002786347 0.06386916 0.015133746 -0.00015732611
000180 66 bc 7b 3c de f0 9a bb 34 15 8e 3b c7 9a 03 bd
       0.015364742 -0.0047284206 0.0043360237 -0.03213003
000190 69 c8 30 3b c5 0e 89 bc 3f 2b 8a 3a 29 f1 64 3d
       0.0026974923 -0.016730675 0.0010541453 0.05589405
0001a0 f7 ce 51 3c 4a a5 66 3b 4b 64 9c 3c 5c 0d 41 3c
       0.012805692 0.0035193735 0.019090792 0.01178297
0001b0 d8 a1 3c bb c7 97 98 3c 8e b3 23 3a c3 25 83 bc
       -0.002878299 0.01862706 0.0006244712 -0.016009217
0001c0 f5 5b 86 3b 19 52 5b 3d c4 b1 3c 3c 7c 56 d6 3b
       0.0041003176 0.05354509 0.011516992 0.0065410715
0001d0 e3 1d 8a 3c 1e 74 b9 3c 51 e8 ca bb 5e 86 cd 3c
       0.016859954 0.022638377 -0.006192245 0.025088485
0001e0 80 bb 86 3b f5 a8 3b bc 3a ca 5b 3b d4 4a 45 3d
       0.004111707 -0.011453857 0.0033537284 0.048167065
0001f0 7c e8 4b 3c 97 7c 10 3c 2a 27 81 3c 9c 84 06 3d
       0.012445565 0.008818767 0.015765745 0.03284131
000200 b5 fb 5a bc 73 39 ce 3c ed 32 42 bb b6 32 0a 3d
       -0.013365676 0.025173878 -0.0029632405 0.033739768
000210 43 85 10 bc ab 7a 9b bc 2a 42 5c 3d 27 c6 f2 bb
       -0.008820835 -0.018979391 0.053774036 -0.0074088755
000220 d0 a7 38 3b 11 aa 28 3b a0 22 09 bc 5c dc ba 3c
       0.0028176196 0.0025736133 -0.008370072 0.022810154
000230 13 54 66 3b ef fb 7b bc 8e ba 83 b7 82 f2 7e 3d
       0.0035145327 -0.01537989 -1.5703288e-05 0.062242992
000240 70 e7 21 3c fd c8 1a b9 4d 0d 93 3c 84 74 47 3b
       0.009881839 -0.00014761458 0.017950678 0.003043444
000250 c3 50 a7 3a 39 bb ec 3a 82 9e 3c bb e4 5d 0a 3d
       0.0012765158 0.0018061168 -0.0028781001 0.033780947
000260 1c 64 11 bc c5 fb 9a bc 68 36 5c 3d 21 e5 01 bc
       -0.008873966 -0.018918881 0.053762823 -0.007928164
000270 52 ce 35 3b e7 b9 2b 3b 53 af 08 bc d9 62 bb 3c
       0.0027741385 0.0026203336 -0.008342582 0.022874283
000280 3c 15 b5 3b 58 1f 2e bc 84 69 22 3b 00 ef 35 3d
       0.005526213 -0.01062759 0.002478213 0.04441738
000290 10 f3 52 3c d6 b0 13 3c 25 31 82 3c e4 86 1e 3d
       0.012875333 0.009014329 0.015892575 0.03870286
0002a0 70 b7 8d bc ba 02 cd 3c 68 f1 65 3b 28 8d 7b bc
       -0.017299384 0.025025714 0.0035086516 -0.0153534785
0002b0 f2 e3 07 b9 46 3d 80 3d 2d 47 2c 3c 95 7c 6f ba
       -0.0001295952 0.06261687 0.0105150165 -0.00091356906
0002c0 61 d9 90 3c 3f 80 37 3b 23 5d c4 3a 2d cc 1c 3a
       0.01768178 0.0028000025 0.001498137 0.00059813523
0002d0 1f 79 b2 3b 8c 1f 83 bc 76 67 31 bb dc 42 84 3d
       0.0054465677 -0.016006254 -0.0027069724 0.06458065
0002e0 cc 61 45 3c a2 e7 2a b9 48 af 7b 3c 06 47 d2 bb
       0.012047242 -0.00016298753 0.0153616145 -0.006417158
0002f0 db 31 b5 3b e6 fa f8 bc c1 f4 9f 3b 75 92 80 bc
       0.005529625 -0.030393075 0.004881472 -0.015694836
000300 4a f4 e9 ba bf 9f 83 3d a5 0c 37 3c 8a 87 f8 b8
       -0.0017849293 0.064269535 0.011172448 -0.00011850808
000310 81 61 80 3c 0e e4 75 bb d2 ff 86 3b fd 6b af bc
       0.015671493 -0.0037519964 0.0041198516 -0.021413798
000320 d7 93 88 3b b8 4d 78 bc 8e 32 af ba a8 c4 80 3d
       0.0041680145 -0.015155248 -0.0013366507 0.06287509
000330 be ca 40 3c a8 fc 2d bb d0 d8 8d 3c c0 4d 8b b9
       0.0117670875 -0.00265483 0.017315298 -0.00026570074
000340 ec 56 2c 3b 1a 1d 56 bc 17 71 80 3c 55 ea 4f bc
       0.0026296927 -0.013068462 0.015678925 -0.012690146
000350 54 f5 18 bc 88 88 71 3d 90 02 a0 3c be 26 89 3b
       -0.0093358345 0.058968097 0.019532472 0.0041855266
000360 4f dc 80 3c fe cd bb bc ad 78 3a 3c aa 71 72 bd
       0.015730051 -0.022925373 0.01138131 -0.05919043
000370 24 8e 81 bb 12 69 08 3d d9 f8 01 bc d2 67 94 bc
       -0.003953712 0.033303328 -0.007932865 -0.018115912
000380 f7 91 5a 3d 7c c6 dc bb 29 30 38 3b 88 dc 1e 3b
       0.05336186 -0.0067375284 0.0028104878 0.0024240334
000390 aa ec 03 bc be b3 b5 3c 9e e6 2b 3b 4d a5 89 bc
       -0.008052031 0.022180434 0.0026229988 -0.016802454
0003a0 49 ca a1 3a 17 59 65 3d 8b 8b 4e 3c 35 22 67 3b
       0.0012343611 0.055993166 0.012606512 0.0035268192
0003b0 aa f8 9c 3c 98 3a 40 3c d6 c7 3c bb 78 b2 9a 3c
       0.019161541 0.01173272 -0.0028805635 0.018883929
0003c0 5b cf af 3b fd a5 82 bc 0b 0d 2f bb c6 0e 84 3d
       0.005365295 -0.01594829 -0.0026710655 0.0644813
0003d0 d9 fd 49 3c 3e b1 e6 b9 ec a3 7c 3c 5d 21 de bb
       0.012328588 -0.00044001074 0.015419941 -0.0067788796
0003e0 67 f4 bb 3b e3 b0 01 bd 0c f2 3f bb a4 3b 0a 3d
       0.005735922 -0.031662833 -0.0029288558 0.033748284
0003f0 99 ce 10 bc b9 c6 9a bc 55 40 5c 3d 65 4b 01 bc
       -0.008838319 -0.018893586 0.05377229 -0.007891511

net_model.0.bias f4 [128]
000000 77 5b c2 bb 66 7c 87 3c 2b a0 55 3c e5 fe 82 3c
       -0.0059313136 0.01653881 0.013038675 0.015990684
000010 3c 41 89 3c b0 ce 89 3c ab ef e8 ba 5f 7f c2 ba
       0.016754739 0.01682219 -0.0017771622 -0.0014838985
000020 a6 c1 89 3c 0d e5 83 ba b1 96 eb ba 43 ce 8e bb
       0.016815972 -0.0010062769 -0.0017973987 -0.0043580844
000030 a2 f8 bb bb 7a 95 89 3c 31 8e 59 ba 81 e7 89 3c
       -0.0057364265 0.016794909 -0.0008299081 0.016834022
000040 89 7d c1 bb 0f 02 86 ba 3d a2 3b ba 90 38 88 ba
       -0.0059048575 -0.0010224002 -0.0007157659 -0.0010392834
000050 48 2c 06 bb 6e ef 37 3b a6 c1 85 3c f9 53 e0 ba
       -0.002047317 0.0028066295 0.01632769 -0.001711487
000060 25 ea 4e ba 27 bf 89 3c 0f 53 88 3c b2 18 89 3c
       -0.00078931666 0.016814781 0.016641168 0.016735408
000070 fc 05 b2 ba aa 35 c8 bb 53 84 87 3c 0f 65 37 ba
       -0.0013582106 -0.006109913 0.01654259 -0.0006995955
000080 d7 7a 92 ba fa aa 89 3c 40 bf 89 3c b8 98 89 3c
       -0.0011175525 0.01680516 0.016814828 0.016796455
000090 fb 50 89 bb 96 d0 d6 ba 38 b0 89 3c 93 e8 6b ba
       -0.004190562 -0.0016389068 0.01680766 -0.0008999195
0000a0 12 80 2f ba f4 d2 56 3b 2f a0 27 bb 5a fa 89 3c
       -0.0006694804 0.0032779546 -0.0025577655 0.01684301
0000b0 dd 99 86 3c 91 2a 89 3c aa f5 7d 3c 28 a4 02 bb
       0.01643079 0.01674393 0.015500465 -0.001993427
0000c0 f3 97 8f bb 28 98 8c ba 3a e3 89 3c 46 67 03 bb
       -0.0043821274 -0.0010726498 0.016831983 -0.002005057
0000d0 7e f0 32 3b 28 b9 1a bb fa c4 89 3c 2c e2 6a ba
       0.002730399 -0.0023608897 0.016817559 -0.0008960094
0000e0 74 77 f0 ba 47 5e 9a ba 52 1d 89 3c ee 45 31 ba
       -0.0018346147 -0.0011777364 0.016737614 -0.00067624345
0000f0 da 56 88 3c 11 19 89 3c c4 68 42 ba df 4d d0 ba
       0.016642977 0.016735585 -0.0007416124 -0.0015892348
000100 7d 09 95 ba f8 e5 e8 ba 73 02 89 3c c4 e6 80 3c
       -0.0011370626 -0.0017768731 0.0167248 0.015735038
000110 e6 ff 88 3c 26 04 d9 ba 64 9f 84 3c 2d 56 89 3c
       0.016723584 -0.0016557022 0.016189285 0.016764725
000120 e1 da 98 ba 83 bf bd bb 2a 49 a1 ba f0 9a 87 3c
       -0.0011661911 -0.0057906522 -0.001230513 0.016553372
000130 aa 63 3b ba ae 00 87 3c 3d 89 3c 3b b9 70 a2 ba
       -0.0007148335 0.016479816 0.0028768324 -0.0012393213
000140 0e f6 82 3c 54 b3 9d ba b5 5a 2b bb d6 d5 88 3c
       0.015986469 -0.0012031593 -0.0026146595 0.016703527
000150 67 81 ad 3b 93 2a 31 bb 25 bf 3e 3b 3b 67 c2 ba
       0.005294967 -0.0027033433 0.002910563 -0.001483179
000160 f7 d6 89 3c ae 4d 8a 3c 28 ef 87 3c cb f6 5f ba
       0.016826136 0.016882744 0.01659353 -0.000854355
000170 c0 23 88 3c ff fe 87 3c fd 68 89 3c db 3a 85 3c
       0.01661861 0.016601084 0.016773695 0.016263416
000180 e5 d2 4f bb 01 51 05 bb b8 1f 8a 3c a2 8a 82 3c
       -0.0031711396 -0.0020342472 0.016860828 0.015935246
000190 5e 30 89 3c 42 1c e2 ba 80 af 3a 3b e7 eb 88 3c
       0.016746696 -0.0017250853 0.0028485954 0.01671405
0001a0 83 e3 c5 bb 7b 36 ae ba ff c5 af ba 23 ac 89 3c
       -0.0060390844 -0.0013291383 -0.0013410448 0.016805714
0001b0 49 7e 3b bb 4e e3 89 3c 62 27 83 3c 09 db 86 3c
       -0.0028609207 0.01683202 0.01600999 0.016461866
0001c0 75 b3 a4 ba 9e 35 88 3c b6 e3 87 3c 66 d7 86 3c
       -0.0012565689 0.01662713 0.016588073 0.016460132
0001d0 e3 ed 89 3c 4c 4b 8a ba ba da 87 3c 54 29 b6 ba
       0.016837066 -0.0010551005 0.01658379 -0.0013897815
0001e0 5a f7 8f bb f9 28 1f ba 11 f1 bb ba 7e 0d 31 ba
       -0.0043935003 -0.0006071474 -0.0014338811 -0.00067540247
0001f0 3d 05 87 3c a3 ff 88 3c f1 1e 83 3c c0 d8 89 3c
       0.01648199 0.01672346 0.016005965 0.016826987

net_model.2.weight f4 [64, 128]
000000 a6 9e 26 83 db ec 36 03 d0 71 30 83 8e 7a b7 81
       -4.8965135e-37 5.375689e-37 -5.18524e-37 -6.739944e-38
000010 5f e5 32 02 71 48 5c 82 2b 6f 41 03 6c 8b a5 01
       1.3143201e-37 -1.6183837e-37 5.6845217e-37 6.081149e-38
000020 cc a0 a1 02 ea 40 99 82 e4 29 4f 83 b0 5b 04 83
       2.3749117e-37 -2.2518588e-37 -6.087992e-37 -3.8896566e-37
000030 f6 d8 08 83 84 95 d8 82 cb 9f a0 02 cc 27 e1 01
       -4.0215867e-37 -3.1824165e-37 2.3601604e-37 8.270905e-38
000040 7d 33 26 83 28 c0 d1 82 79 7a 8a 02 74 c2 c8 81
       -4.884212e-37 -3.0820082e-37 2.0347573e-37 -7.3747423e-38
000050 22 b0 3b 03 44 9c 46 83 ea de 66 03 d4 55 4a 82
       5.515655e-37 -5.8366355e-37 6.784682e-37 -1.4865248e-37
000060 a2 e2 80 82 8a 4b e4 02 fa 54 9d 82 02 c0 d4 82
       -1.893799e-37 3.3544946e-37 -2.311785e-37 -3.1260807e-37
000070 8d 16 01 83 78 fd ed 02 e8 b6 55 03 50 c4 4b 83
       -3.793558e-37 3.4969504e-37 6.280504e-37 -5.9881694e-37
000080 b4 32 3a 83 81 08 e3 02 d4 a5 53 03 50 06 09 83
       -5.471869e-37 3.3359533e-37 6.219769e-37 -4.026793e-37
000090 20 e1 33 83 31 4d 61 02 e7 0c 0e 83 48 73 7e 00
       -5.2861803e-37 1.6552542e-37 -4.174486e-37 1.1612628e-38
0000a0 b2 74 3e 03 f4 b9 58 82 2e 47 6e 82 dc 88 85 01
       5.596994e-37 -1.592254e-37 -1.7505906e-37 4.905287e-38
0000b0 a3 fd 48 03 2e 8c 46 83 70 c6 67 81 5c 7f 28 83
       5.906588e-37 -5.834789e-37 -4.257037e-38 -4.9516964e-37
0000c0 c8 10 e0 00 70 a5 15 82 0b 0d 06 02 a5 12 b5 82
       2.0577171e-38 -1.0994269e-37 9.848508e-38 -2.6606261e-37
0000d0 72 a1 52 83 3e 13 70 82 1e b9 c5 82 aa bd 9c 01
       -6.1898784e-37 -1.7637937e-37 -2.90528e-37 5.7577504e-38
0000e0 34 47 3e 01 24 86 46 03 62 3b 3c 03 f0 52 be 01
       3.4948574e-38 5.8340956e-37 5.5316403e-37 6.9913987e-38
0000f0 78 43 55 81 04 9a 57 03 36 4d 90 82 eb 1f 4c 03
       -3.9170328e-38 6.3359623e-37 -2.1203215e-37 5.998685e-37
000100 f9 a8 4d 83 b0 04 69 83 f6 aa 5b 83 97 1d 34 83
       -6.0438057e-37 -6.8477927e-37 -6.455457e-37 -5.2931213e-37
000110 d8 12 db 82 b2 11 44 83 22 6d 51 03 74 39 3c 02
       -3.2189974e-37 -5.7619536e-37 6.154486e-37 1.3828547e-37
000120 86 df eb 82 3e 78 2c 03 ba 3c 45 03 af ce 44 83
       -3.4658443e-37 5.068429e-37 5.7962807e-37 -5.7836484e-37
000130 5c d8 a0 82 ed 72 26 03 ee 67 0b 02 fd c5 2f 83
       -2.3634071e-37 4.8914944e-37 1.0241934e-37 -5.1655157e-37
000140 0c e0 05 83 94 32 58 83 2c af 43 03 00 d0 33 03
       -3.934238e-37 -6.3534756e-37 5.7506437e-37 5.2842144e-37
000150 56 5b 4b 83 34 34 ff 01 ff 73 22 83 ae 41 8c 02
       -5.9761187e-37 9.3747114e-38 -4.774068e-37 2.060885e-37
000160 e4 d3 9f 82 86 f6 ad 01 c3 2c 26 03 01 ec 03 82
       -2.348457e-37 6.3903907e-38 4.88344e-37 -9.69209e-38
000170 50 72 41 83 a0 e3 3a 83 c2 45 51 03 6f 00 24 83
       -5.6848827e-37 -5.492179e-37 6.149966e-37 -4.8195766e-37
000180 7a f9 5e 03 94 d9 da 82 39 7e 5b 82 a5 9b 3d 03
       6.552632e-37 -3.2157105e-37 -1.6125803e-37 5.572078e-37
000190 c4 7c 14 03 58 3d 0b 83 f6 06 2c 02 b5 7d 31 83
       4.3636515e-37 -4.091885e-37 1.2638562e-37 -5.215993e-37
0001a0 aa 9f 61 82 1a a5 13 83 c1 83 1d 02 dc 8e 91 82
       -1.6576211e-37 -4.3388945e-37 1.157235e-37 -2.1387832e-37
0001b0 01 58 83 82 83 29 08 03 a6 3f 28 83 da 5e 6c 82
       -1.9299232e-37 4.001446e-37 -4.9443828e-37 -1.7365763e-37
0001c0 04 be b4 02 00 f5 95 82 08 40 6e 83 be c8 64 83
       2.6557687e-37 -2.2034205e-37 -7.001542e-37 -6.723362e-37
0001d0 dc 50 f3 01 98 ec 1e 80 0d 76 b3 02 f7 0a 21 02
       8.938013e-38 -2.839939e-39 2.6369444e-37 1.1831559e-37
0001e0 73 b6 29 03 11 ad 77 02 72 21 81 82 b9 be 1a 83
       4.9874078e-37 1.8196362e-37 -1.8974043e-37 -4.547547e-37
0001f0 ab c7 53 03 80 b0 da 02 b5 eb 0d 83 a4 2a 7e 81
       6.2236535e-37 3.2133527e-37 -4.1706754e-37 -4.6683025e-38
000200 6f 35 36 bd 7b a6 cf 3c 9c 36 09 bd ed e2 cc 3c
       -0.044484552 0.025347939 -0.033499345 0.02501055
000210 db 5a d0 3c dc 8e d0 3c 3c 46 fd bc 8a b9 f7 bc
       0.025433948 0.025458746 -0.03091728 -0.03023984
000220 0b 7b d0 3c 48 ee 04 bd 14 2d fd bc 17 d0 10 bd
       0.025449296 -0.032453805 -0.030905284 -0.0353547
000230 7c f4 2a bd 10 7a d0 3c 03 7c ee bc bd 8a d0 3c
       -0.041737065 0.025448829 -0.029111868 0.02545678
000240 4d 4a 3a bd 0e b8 ef bc 9a c4 04 bd 01 14 fb bc
       -0.045481015 -0.029262569 -0.032414056 -0.030649187
000250 0d 35 f9 bc ad e1 32 bd 25 98 ce 3c 29 df fc bc
       -0.030420804 -0.043672252 0.025219033 -0.03086813
000260 36 2d 06 bd a7 60 d0 3c 94 24 d0 3c 43 4e d0 3c
       -0.03275796 0.025436712 0.025408067 0.025427943
000270 d3 c7 f6 bc 33 ae 3a bd a1 90 d7 3c 12 0b f1 bc
       -0.03012458 -0.045576286 0.026314082 -0.029424224
000280 17 09 f5 bc 22 71 d0 3c 40 7f d0 3c 76 70 d0 3c
       -0.029911561 0.02544457 0.025451303 0.02544425
000290 f7 40 14 bd e0 56 f3 bc 2c 83 d0 3c 89 ef f2 bc
       -0.036194768 -0.029704511 0.025453173 -0.029655235
0002a0 f8 2d f0 bc 92 c0 3b bd 20 f5 01 bd d5 b0 d0 3c
       -0.029318795 -0.045837946 -0.03172791 0.025474945
0002b0 9d 67 cf 3c c7 40 d0 3c d8 e8 cb 3c 5a 45 67 bd
       0.025317961 0.025421513 0.024891302 -0.056462623
0002c0 4b 0e 12 bd 1a 53 f9 bc 63 9f d0 3c 5d 25 f9 bc
       -0.035658162 -0.030435134 0.025466627 -0.030413324
0002d0 01 07 32 bd 22 e0 00 bd 91 72 d0 3c 09 b2 0a bd
       -0.04346371 -0.03146375 0.025445255 -0.033861194
0002e0 35 d8 0a bd 7d b7 f0 bc 51 45 d0 3c d2 b7 00 bd
       -0.033897597 -0.029384369 0.025423678 -0.031425305
0002f0 df 01 d0 3c 67 29 d0 3c 18 ec f1 bc 87 41 fb bc
       0.025391517 0.025410367 -0.029531524 -0.030670894
000300 2a 34 0a bd d4 f2 fa bc b9 51 d0 3c 71 b2 cc 3c
       -0.033741154 -0.030633368 0.025429593 0.024987431
000310 5e 45 d0 3c b7 47 f5 bc ee 2b ce 3c b9 68 d0 3c
       0.025423702 -0.029941423 0.025167432 0.02544056
000320 4c 82 01 bd 08 92 39 bd 3f 9a 09 bd 93 c6 cf 3c
       -0.0316184 -0.045305282 -0.033594366 0.025363242
000330 d6 24 ee bc 1d e7 d0 3c 86 21 2f bd 52 5a 5e bd
       -0.0290703 0.025500828 -0.04275658 -0.054285355
000340 44 b7 cd 3c 88 c7 07 bd c4 02 02 bd c4 3c d0 3c
       0.025111802 -0.033149272 -0.03174092 0.0254196
000350 77 13 05 be ca 7f 02 bd 90 61 23 bd 18 cf 05 bd
       -0.12995706 -0.03186015 -0.039887965 -0.032668203
000360 a8 7c d0 3c 24 6c d0 3c ea eb cf 3c ae ba 07 bd
       0.025450066 0.02544219 0.025381047 -0.033137016
000370 be f9 d0 3c dc 0c d0 3c 7b 8a d0 3c ea ac d0 3c
       0.025509711 0.025396757 0.025456658 0.025473077
000380 0c c7 06 bd 9a ac 00 bd 62 92 d0 3c 45 28 cd 3c
       -0.03290467 -0.031414606 0.025460426 0.025043616
000390 a2 38 d0 3c 0f 6a f6 bc f4 11 34 bd aa 2e d0 3c
       0.02541763 -0.03007987 -0.043962434 0.025412876
0003a0 ca 29 3f bd 28 fe 0e bd 52 b8 fa bc ec 76 d0 3c
       -0.046670713 -0.03491035 -0.030605469 0.025447331
0003b0 55 79 02 bd 7b 81 d0 3c 23 5a cd 3c 30 a9 d5 3c
       -0.031853992 0.025452366 0.025067395 0.026081651
0003c0 38 9f f9 bc 13 e4 d0 3c 31 f4 cf 3c e4 81 cf 3c
       -0.03047143 0.02549938 0.025384994 0.025330491
0003d0 ad 61 d0 3c ae ab fb bc 2d f8 d0 3c a8 fb 08 bd
       0.0254372 -0.030721512 0.025508964 -0.033443123
0003e0 58 54 10 bd 82 6f ff bc ea e5 fb bc c4 36 fb bc
       -0.035236686 -0.0311811 -0.03074928 -0.030665763
0003f0 9e 52 cf 3c dd 4e d0 3c 76 02 d4 3c 03 8f d0 3c
       0.02530795 0.02542823 0.02588008 0.025458818

net_model.2.bias f4 [64]
000000 cd 0b f2 b1 d7 8e 4b 3c 45 15 a8 b8 c5 2b 8f a6
       -7.0444686e-09 0.012424192 -8.014826e-05 -9.934482e-16
000010 b3 36 c7 a4 11 a4 c0 b2 00 40 7c ab 8f 0a 43 b6
       -8.639516e-17 -2.242635e-08 -8.96172e-13 -2.906341e-06
000020 dd 4b 62 ba 6b 30 63 b7 7e b4 8b 3c 96 a3 4b 3c
       -0.00086325203 -1.3541528e-05 0.017053839 0.012429139
000030 83 d4 4b 3c a4 1a 9c b2 a2 20 c7 b4 04 26 fb 3b
       0.012440803 -1.8172905e-08 -3.7090382e-07 0.007664444
000040 bc 1e 3d 3c fc 5b 31 3c fa 76 9e 9d cc 82 9a bc
       0.011542972 0.010825153 -4.194527e-21 -0.018861197
000050 e5 71 4c 3c a9 51 a6 b3 fb 9b 4c 3c 68 1b 86 b2
       0.012478326 -7.744831e-08 0.0124883605 -1.5612116e-08
000060 84 4b 23 bb 10 d5 12 3b 64 9b 4a 3c e2 0f 20 3b
       -0.0024916837 0.0022404827 0.01236615 0.002442353
000070 9c 36 3f b2 66 af 4b 3c 91 cb 15 b9 bf de 08 ba
       -1.113008e-08 0.012431955 -0.00014285582 -0.000522118
000080 41 0f 4b 3c 1f 13 4c 3c c1 ef b8 ba ea e0 4a 3c
       0.0123937735 0.012455731 -0.0014109538 0.012382725
000090 91 e4 4c 3c 22 f9 0a ae 63 aa 66 b6 31 13 35 b6
       0.012505666 -3.159884e-11 -3.437185e-06 -2.6982273e-06
0000a0 20 ac 4b 3c 92 7a f5 b2 ed 0f 74 ba 3c 30 94 b8
       0.0124311745 -2.8577492e-08 -0.00093102345 -7.066174e-05
0000b0 d7 95 40 3c 88 93 67 b2 7b 1f c4 3a 96 51 ba af
       0.011754475 -1.3479514e-08 0.0014962995 -3.3891173e-10
0000c0 23 0b ac b8 18 63 4b 3c d4 de 24 a4 fc 00 4b 3c
       -8.2036735e-05 0.0124137625 -3.5750574e-17 0.012390371
0000d0 03 58 15 af ae b9 4b 3c ca 0c 65 b2 85 27 68 b5
       -1.3582739e-10 0.012434406 -1.3332462e-08 -8.6484243e-07
0000e0 6f 21 54 3b 3e 0a 4a 3c 16 73 be b6 02 bf 4b 3c
       0.003236856 0.0123315435 -5.675839e-06 0.0124356765
0000f0 87 0f 4c 3c 39 bc 4b 3c 3f 2f 2d 3c 19 ba 86 b9
       0.012454874 0.0124350125 0.010570346 -0.00025697125

net_model.4.weight f4 [32, 64]
000000 3f dc 94 82 0f f5 18 3d 01 c6 0d 25 84 2c 9a 82
       -2.187306e-37 0.03734308 1.2296887e-16 -2.2653817e-37
000010 01 0d 4e 83 78 a0 6a 82 8b 79 bd 82 cf f2 23 01
       -6.0552887e-37 -1.7237657e-37 -2.7840816e-37 3.0112578e-38
000020 94 6f 2f b8 ec da 2f 03 90 8c 0b bd 69 df 18 3d
       -4.1827167e-05 5.167919e-37 -0.034069598 0.037322436
000030 db f2 17 3d 00 e9 bd 82 c2 02 2b 03 5d 43 f6 bc
       0.03709684 -2.790479e-37 5.025555e-37 -0.030061418
000040 d3 87 17 3d 77 7e 16 3d 3c d4 7c a8 83 2f 0a bb
       0.036994766 0.0367417 -1.4034831e-14 -0.0021085448
000050 21 09 19 3d b8 ed 3c 96 72 09 19 3d 7c d9 99 02
       0.03736222 -1.526153e-25 0.037362523 2.260616e-37
000060 07 cf bb ba a8 e4 8a 3d a7 a0 18 3d b6 38 5a 3d
       -0.0014328667 0.06781894 0.037262585 0.05327674
000070 5f d5 af 82 10 00 19 3d 35 32 bf a0 ed 15 e4 b4
       -2.5836408e-37 0.037353575 -3.2389883e-19 -4.2484263e-07
000080 64 f3 18 3d d3 30 19 3d 0e bc 54 24 d0 6d 19 3d
       0.03734149 0.037400078 4.612946e-17 0.03745824
000090 38 7f 19 3d 77 13 d6 82 70 28 37 11 4a 3e 00 30
       0.03747484 -3.1455646e-37 1.4448615e-28 4.6654647e-10
0000a0 2f 81 18 3d ca ce 51 81 75 02 04 3a 5d 65 71 ad
       0.037232574 -3.85356e-38 0.00050357665 -1.3721771e-11
0000b0 17 0a 18 3d 42 4f 39 03 58 37 5f 3d bd cf 56 a2
       0.037118997 5.4457597e-37 0.05449614 -2.9112384e-18
0000c0 3f c6 61 23 ef 4c 19 3d c1 8c 2f 83 85 8b 18 3d
       1.2239255e-17 0.037426885 -5.1589455e-37 0.03724243
0000d0 0e ef 33 83 f1 6e 18 3d 2a ea f8 82 90 7d 05 03
       -5.2877794e-37 0.037215177 -3.6574728e-37 3.9229326e-37
0000e0 ac 72 df bc 45 cd 17 3d 5e e5 18 02 96 b2 18 3d
       -0.02727636 0.037060995 1.1233021e-37 0.037279688
0000f0 15 06 19 3d 8c 40 19 3d fd 96 15 3d 93 52 c3 aa
       0.037359316 0.037415072 0.036520947 -3.4696256e-13
000100 11 c8 62 02 da 60 bd 02 6a c7 de 81 dd 9b 1e 83
       1.6661274e-37 2.7826644e-37 -8.1836066e-38 -4.661095e-37
000110 04 80 67 03 6b e8 0a 83 cf 0e bf 82 17 29 a4 82
       6.8031753e-37 -4.082136e-37 -2.8073427e-37 -2.4121219e-37
000120 00 71 60 03 43 bd 27 83 02 ab 3c 03 48 fe 49 02
       6.59574e-37 -4.929415e-37 5.544454e-37 1.4840123e-37
000130 5d df be 82 e8 6b 10 02 16 58 18 83 86 22 d4 02
       -2.8046195e-37 1.0610417e-37 -4.4769903e-37 3.1170416e-37
000140 80 36 fd 82 e9 7e 29 03 ab f1 4d 03 28 7a 63 83
       -3.720629e-37 4.981032e-37 6.0521507e-37 -6.6849533e-37
000150 04 71 0b 81 06 39 9d 82 20 9a 83 82 3e d3 9c 81
       -2.5611353e-38 -2.3101806e-37 -1.9337183e-37 -5.760847e-38
000160 b5 3b 2c 03 18 f7 08 83 a4 fc e0 02 d6 b9 d5 02
       5.0614797e-37 -4.0250458e-37 3.305885e-37 3.1404202e-37
000170 44 c0 df 02 e7 1f 4e 02 e2 08 14 83 dc 6f 29 03
       3.287726e-37 1.5143645e-37 -4.350349e-37 4.9793045e-37
000180 b6 82 56 82 ae 40 44 02 e3 d9 67 03 0c df 0b 01
       -1.5759749e-37 1.4418368e-37 6.813492e-37 2.5690296e-38
000190 3e 5e 28 83 29 0b 91 02 a6 40 cf 81 26 62 eb 02
       -4.9478947e-37 2.131224e-37 -7.6132557e-38 3.458648e-37
0001a0 0c 83 b0 02 86 a4 2a 02 be dc 60 03 74 68 1c 83
       2.5936093e-37 1.2536843e-37 6.6081083e-37 -4.5964186e-37
0001b0 21 8b 93 82 12 a5 10 82 93 35 30 82 9e ce 2c 83
       -2.1679565e-37 -1.0626822e-37 -1.2945813e-37 -5.078344e-37
0001c0 08 c7 30 03 bf 70 79 02 0a a0 2e 03 84 20 04 83
       5.195023e-37 1.8325987e-37 5.131772e-37 -3.882864e-37
0001d0 20 8d 67 83 34 93 b7 81 00 9d 3b 02 f0 bc 29 83
       -6.8046802e-37 -6.743481e-38 1.3783647e-37 -4.9881526e-37
0001e0 ae 3e ab 02 8a d0 82 02 98 0d 03 83 6a 5c e0 81
       2.5162168e-37 1.9221479e-37 -3.8513045e-37 -8.241721e-38
0001f0 fc 78 97 01 17 eb 31 02 c2 0c 4e 83 f8 6c 55 83
       5.5642244e-38 1.3071374e-37 -6.0552604e-37 -6.2720164e-37
000200 d0 b0 4d 03 4e 78 e2 02 ff 90 0d 83 c2 93 e3 02
       6.0447056e-37 3.3276767e-37 -4.1602623e-37 3.343946e-37
000210 d2 d1 16 83 5e 52 55 83 54 8d 4d 03 42 05 24 03
       -4.43219e-37 -6.2689627e-37 6.040632e-37 4.8201304e-37
000220 f6 fc 0c 03 8a b3 4c 83 f2 cd 12 83 9a be 30 83
       4.1432687e-37 -6.0156313e-37 -4.3141957e-37 -5.194055e-37
000230 0b 9d 1f 83 86 38 dc 82 53 21 cd 82 c5 8d 44 83
       -4.6906177e-37 -3.2358538e-37 -3.014117e-37 -5.7761967e-37
000240 14 2d 1c 03 d1 96 29 83 42 16 15 03 25 2e 47 03
       4.5896027e-37 -4.9837765e-37 4.3812715e-37 5.8533815e-37
000250 c0 d7 55 03 14 80 11 83 c2 c9 a3 02 8c ab 24 03
       6.2842743e-37 -4.2758697e-37 2.40665e-37 4.8392195e-37
000260 5b f9 4d 83 44 85 a0 82 f1 d1 16 83 07 c3 13 03
       -6.053033e-37 -2.3586378e-37 -4.432204e-37 4.34233e-37
000270 1e aa 2e 03 c8 39 fe 82 2c 9c 20 83 8a ff 05 02
       5.132929e-37 -3.735511e-37 -4.719905e-37 9.844633e-38
000280 70 2a 4f 83 ee 1d 00 83 97 66 20 03 42 de 4a 03
       -6.088055e-37 -3.7650177e-37 4.713754e-37 5.9617604e-37
000290 30 ba 9c 02 8c b3 19 03 6a 21 1c 03 1b 51 27 03
       2.3029006e-37 4.516877e-37 4.5882637e-37 4.9169994e-37
0002a0 00 c8 26 03 d8 c2 53 83 4d af 8b 82 23 12 01 03
       4.9012604e-37 -6.2230997e-37 -2.0524832e-37 3.7930513e-37
0002b0 f6 35 86 81 a4 3a 90 82 e2 bb 0b 03 42 34 54 03
       -4.9301256e-38 -2.1192556e-37 4.1064108e-37 6.236119e-37
0002c0 e3 ee 4c 83 05 3c fe 02 cc ab 8b 01 9c 64 c7 82
       -6.022444e-37 3.7356395e-37 5.130705e-38 -2.929817e-37
0002d0 18 9c c7 00 87 69 02 03 03 0c 52 03 3c c0 aa 82
       1.833126e-38 3.8324706e-37 6.172724e-37 -2.5089592e-37
0002e0 c1 9b 01 83 62 d7 3c 83 b8 f2 25 03 c8 87 ba 82
       -3.808849e-37 -5.549548e-37 4.876777e-37 -2.7408178e-37
0002f0 86 0e 2e 03 42 af 4f 83 a5 ae 30 83 a0 1c df 02
       5.1150676e-37 -6.103302e-37 -5.1922234e-37 3.2783335e-37
000300 d4 7d 03 03 ee 92 57 83 50 96 24 03 ce ed 37 83
       3.8641884e-37 -6.335149e-37 4.836782e-37 -5.4051853e-37
000310 7a ce db 82 34 65 22 83 bf 9f 51 83 e7 15 cd 02
       -3.229767e-37 -4.7723697e-37 -6.160296e-37 3.0134614e-37
000320 c4 68 03 03 63 fa fb 82 8c 0f fd 02 8c 60 63 83
       3.8617705e-37 -3.702485e-37 3.7183932e-37 -6.6820135e-37
000330 95 20 23 83 a5 dc 56 83 82 5f da 02 38 7c 52 03
       -4.7938797e-37 -6.3142235e-37 3.208704e-37 6.185605e-37
000340 1e 9f a7 02 30 1f dd 02 20 01 60 83 ea bf e9 01
       2.4629773e-37 3.2490932e-37 -6.5828975e-37 8.5866066e-38
000350 19 0e 40 83 ea 0f 11 83 82 25 4e 83 2c e4 2b 03
       -5.643991e-37 -4.262994e-37 -6.0581016e-37 5.051431e-37
000360 22 74 e0 82 42 7d f0 02 d0 ae 61 83 54 54 3e 03
       -3.2980499e-37 3.5336725e-37 -6.632223e-37 5.5932786e-37
000370 f9 0a 23 83 ee 8b 1b 83 08 2b ef 82 ba 67 14 03
       -4.791399e-37 -4.5711037e-37 -3.5142592e-37 4.3612363e-37
000380 90 1c 3d 03 6f a6 2e 83 90 2c 8e 82 a0 29 1f 03
       5.5574896e-37 -5.132506e-37 -2.0890602e-37 4.6773684e-37
000390 e8 b3 46 03 e6 f1 39 03 1d b1 14 03 46 a9 50 83
       5.8393493e-37 5.46443e-37 4.3696607e-37 -6.1320023e-37
0003a0 5e 36 6c 03 34 61 47 03 9b 5b 43 03 06 21 6c 03
       6.9416577e-37 5.8592428e-37 5.7410508e-37 6.9392076e-37
0003b0 6a 7f 9b 82 09 75 73 82 25 5a 41 83 55 e3 40 03
       -2.2848335e-37 -1.7886408e-37 -5.6821083e-37 5.6684693e-37
0003c0 28 ce 09 02 2f 9f 17 03 37 d7 40 83 de 1b 02 03
       1.0124334e-37 4.4557646e-37 -5.6670783e-37 3.8235556e-37
0003d0 0a 75 18 83 90 61 53 83 88 11 aa 80 3a 34 d1 82
       -4.480314e-37 -6.2119323e-37 -1.5618323e-38 -3.0739766e-37
0003e0 79 12 2e 03 dc f4 d0 81 24 81 40 83 c3 fb 2c 03
       5.115521e-37 -7.675849e-38 -5.6571975e-37 5.0835265e-37
0003f0 dc 7f 5c 83 63 76 4a 83 e0 78 15 83 5a ff 61 83
       -6.4798965e-37 -5.9498366e-37 -4.3925922e-37 -6.6414686e-37

net_model.4.bias f4 [32]
000000 28 e2 89 39 d3 d0 87 b9 39 75 71 b9 25 88 0d ba
       0.00026299176 -0.00025904793 -0.0002302722 -0.000539901
000010 c9 83 a4 39 60 54 97 b8 e5 8b 05 ba f4 c2 87 39
       0.00031378705 -7.215957e-05 -0.0005094393 0.00025894458
000020 8d cf 03 ba 74 f5 01 b6 a8 fc 8b 39 44 4a 59 b9
       -0.0005028181 -1.936537e-06 0.0002670039 -0.00020722399
000030 24 72 25 3a da 0c 26 3a d0 2f b5 b9 ab 66 8b 3a
       0.0006311259 0.00063343125 -0.00034558633 0.0010635456
000040 23 6f ff b9 a7 0e 0f bc ab af 29 3a ce e0 88 a7
       -0.00048720193 -0.008731521 0.0006473015 -3.7991317e-15
000050 8a 09 20 3a 60 9f 8a 39 47 7a e6 b9 f2 86 5d b8
       0.0006104937 0.00026440155 -0.00043960122 -5.2816184e-05
000060 d0 69 af b9 a6 fa 5a b6 3e 9c 08 b8 41 3d 88 39
       -0.00033457438 -3.2630428e-06 -3.257044e-05 0.0002598558
000070 78 c5 91 b9 d0 cc 06 3a a0 a3 7b 39 6a 47 05 3a
       -0.0002780368 0.0005142214 0.0002399818 0.0005084189

net_model.6.weight f4 [1, 32]
000000 04 d6 05 bd 69 ac c9 b9 31 7d 84 82 bd 98 40 83
       -0.032674804 -0.00038466163 -1.9467513e-37 -5.6599064e-37
000010 e9 56 06 bd 50 f5 ed 80 f8 2d 6a 83 aa db 05 bd
       -0.032797728 -2.1853014e-38 -6.881919e-37 -0.03268019
000020 a6 7f 29 83 32 b8 f8 02 f3 d8 05 bd 24 69 40 83
       -4.981117e-37 3.6546048e-37 -0.032677602 -5.6544424e-37
000030 6f f9 05 bd 6e b4 05 bd 52 44 c7 b9 e3 b0 06 bd
       -0.03270858 -0.032642774 -0.0003800714 -0.032883536
000040 23 e2 62 83 83 9a 53 3d 51 be 05 bd 86 f1 6b 83
       -6.6675023e-37 0.051661026 -0.032652203 -6.933755e-37
000050 43 fb 05 bd 4d 6c 06 bd ee c1 56 83 3e 3e 16 03
       -0.032710325 -0.032818127 -6.311157e-37 4.415249e-37
000060 d2 fa 4f 83 93 b9 58 03 c8 08 4f 83 94 d7 05 bd
       -6.111976e-37 6.3689724e-37 -6.0841913e-37 -0.032676294
000070 1b c5 d9 b9 ce d2 05 bd bb 57 06 bd 86 d3 05 bd
       -0.0004153632 -0.032671742 -0.03279851 -0.032672428
